<?xml version="1.0"?>
<net name="onnx_Frontend_IR" version="11">
	<layers>
		<layer id="0" name="x" type="Parameter" version="opset1">
			<data shape="?,3,?,?" element_type="f32" />
			<output>
				<port id="0" precision="FP32" names="x">
					<dim>-1</dim>
					<dim>3</dim>
					<dim>-1</dim>
					<dim>-1</dim>
				</port>
			</output>
		</layer>
		<layer id="1" name="conv2d_0.w_0_compressed" type="Const" version="opset1">
			<data element_type="f16" shape="8, 3, 3, 3" offset="0" size="432" />
			<output>
				<port id="0" precision="FP16" names="conv2d_0.w_0">
					<dim>8</dim>
					<dim>3</dim>
					<dim>3</dim>
					<dim>3</dim>
				</port>
			</output>
		</layer>
		<layer id="2" name="conv2d_0.w_0" type="Convert" version="opset1">
			<data destination_type="f32" />
			<rt_info>
				<attribute name="decompression" version="0" />
			</rt_info>
			<input>
				<port id="0" precision="FP16">
					<dim>8</dim>
					<dim>3</dim>
					<dim>3</dim>
					<dim>3</dim>
				</port>
			</input>
			<output>
				<port id="1" precision="FP32">
					<dim>8</dim>
					<dim>3</dim>
					<dim>3</dim>
					<dim>3</dim>
				</port>
			</output>
		</layer>
		<layer id="3" name="Conv_0" type="Convolution" version="opset1">
			<data strides="2, 2" dilations="1, 1" pads_begin="1, 1" pads_end="1, 1" auto_pad="explicit" />
			<input>
				<port id="0" precision="FP32">
					<dim>-1</dim>
					<dim>3</dim>
					<dim>-1</dim>
					<dim>-1</dim>
				</port>
				<port id="1" precision="FP32">
					<dim>8</dim>
					<dim>3</dim>
					<dim>3</dim>
					<dim>3</dim>
				</port>
			</input>
			<output>
				<port id="2" precision="FP32" names="conv2d_211.tmp_0">
					<dim>-1</dim>
					<dim>8</dim>
					<dim>-1</dim>
					<dim>-1</dim>
				</port>
			</output>
		</layer>
		<layer id="4" name="batch_norm_0.w_0_compressed" type="Const" version="opset1">
			<data element_type="f16" shape="8" offset="432" size="16" />
			<output>
				<port id="0" precision="FP16" names="batch_norm_0.w_0">
					<dim>8</dim>
				</port>
			</output>
		</layer>
		<layer id="5" name="batch_norm_0.w_0" type="Convert" version="opset1">
			<data destination_type="f32" />
			<rt_info>
				<attribute name="decompression" version="0" />
			</rt_info>
			<input>
				<port id="0" precision="FP16">
					<dim>8</dim>
				</port>
			</input>
			<output>
				<port id="1" precision="FP32">
					<dim>8</dim>
				</port>
			</output>
		</layer>
		<layer id="6" name="batch_norm_0.b_0" type="Const" version="opset1">
			<data element_type="f32" shape="8" offset="448" size="32" />
			<output>
				<port id="0" precision="FP32" names="batch_norm_0.b_0">
					<dim>8</dim>
				</port>
			</output>
		</layer>
		<layer id="7" name="batch_norm_0.w_1_compressed" type="Const" version="opset1">
			<data element_type="f16" shape="8" offset="480" size="16" />
			<output>
				<port id="0" precision="FP16" names="batch_norm_0.w_1">
					<dim>8</dim>
				</port>
			</output>
		</layer>
		<layer id="8" name="batch_norm_0.w_1" type="Convert" version="opset1">
			<data destination_type="f32" />
			<rt_info>
				<attribute name="decompression" version="0" />
			</rt_info>
			<input>
				<port id="0" precision="FP16">
					<dim>8</dim>
				</port>
			</input>
			<output>
				<port id="1" precision="FP32">
					<dim>8</dim>
				</port>
			</output>
		</layer>
		<layer id="9" name="batch_norm_0.w_2_compressed" type="Const" version="opset1">
			<data element_type="f16" shape="8" offset="496" size="16" />
			<output>
				<port id="0" precision="FP16" names="batch_norm_0.w_2">
					<dim>8</dim>
				</port>
			</output>
		</layer>
		<layer id="10" name="batch_norm_0.w_2" type="Convert" version="opset1">
			<data destination_type="f32" />
			<rt_info>
				<attribute name="decompression" version="0" />
			</rt_info>
			<input>
				<port id="0" precision="FP16">
					<dim>8</dim>
				</port>
			</input>
			<output>
				<port id="1" precision="FP32">
					<dim>8</dim>
				</port>
			</output>
		</layer>
		<layer id="11" name="BatchNormalization_0" type="BatchNormInference" version="opset5">
			<data epsilon="9.9999997473787516e-06" />
			<input>
				<port id="0" precision="FP32">
					<dim>-1</dim>
					<dim>8</dim>
					<dim>-1</dim>
					<dim>-1</dim>
				</port>
				<port id="1" precision="FP32">
					<dim>8</dim>
				</port>
				<port id="2" precision="FP32">
					<dim>8</dim>
				</port>
				<port id="3" precision="FP32">
					<dim>8</dim>
				</port>
				<port id="4" precision="FP32">
					<dim>8</dim>
				</port>
			</input>
			<output>
				<port id="5" precision="FP32" names="batch_norm_0.tmp_3">
					<dim>-1</dim>
					<dim>8</dim>
					<dim>-1</dim>
					<dim>-1</dim>
				</port>
			</output>
		</layer>
		<layer id="12" name="Constant_3_compressed" type="Const" version="opset1">
			<data element_type="f16" shape="" offset="512" size="2" />
			<output>
				<port id="0" precision="FP16" names="Constant_3" />
			</output>
		</layer>
		<layer id="13" name="Constant_3" type="Convert" version="opset1">
			<data destination_type="f32" />
			<rt_info>
				<attribute name="decompression" version="0" />
			</rt_info>
			<input>
				<port id="0" precision="FP16" />
			</input>
			<output>
				<port id="1" precision="FP32" />
			</output>
		</layer>
		<layer id="14" name="Constant_2_compressed" type="Const" version="opset1">
			<data element_type="f16" shape="" offset="514" size="2" />
			<output>
				<port id="0" precision="FP16" names="Constant_2" />
			</output>
		</layer>
		<layer id="15" name="Constant_2" type="Convert" version="opset1">
			<data destination_type="f32" />
			<rt_info>
				<attribute name="decompression" version="0" />
			</rt_info>
			<input>
				<port id="0" precision="FP16" />
			</input>
			<output>
				<port id="1" precision="FP32" />
			</output>
		</layer>
		<layer id="16" name="Constant_1_compressed" type="Const" version="opset1">
			<data element_type="f16" shape="" offset="516" size="2" />
			<output>
				<port id="0" precision="FP16" names="Constant_1" />
			</output>
		</layer>
		<layer id="17" name="Constant_1" type="Convert" version="opset1">
			<data destination_type="f32" />
			<rt_info>
				<attribute name="decompression" version="0" />
			</rt_info>
			<input>
				<port id="0" precision="FP16" />
			</input>
			<output>
				<port id="1" precision="FP32" />
			</output>
		</layer>
		<layer id="18" name="Add_0" type="Add" version="opset1">
			<data auto_broadcast="numpy" />
			<input>
				<port id="0" precision="FP32">
					<dim>-1</dim>
					<dim>8</dim>
					<dim>-1</dim>
					<dim>-1</dim>
				</port>
				<port id="1" precision="FP32" />
			</input>
			<output>
				<port id="2" precision="FP32" names="Add_0">
					<dim>-1</dim>
					<dim>8</dim>
					<dim>-1</dim>
					<dim>-1</dim>
				</port>
			</output>
		</layer>
		<layer id="19" name="Maximum_4054" type="Maximum" version="opset1">
			<data auto_broadcast="numpy" />
			<input>
				<port id="0" precision="FP32" />
				<port id="1" precision="FP32">
					<dim>-1</dim>
					<dim>8</dim>
					<dim>-1</dim>
					<dim>-1</dim>
				</port>
			</input>
			<output>
				<port id="2" precision="FP32">
					<dim>-1</dim>
					<dim>8</dim>
					<dim>-1</dim>
					<dim>-1</dim>
				</port>
			</output>
		</layer>
		<layer id="20" name="Clip_0" type="Minimum" version="opset1">
			<data auto_broadcast="numpy" />
			<input>
				<port id="0" precision="FP32" />
				<port id="1" precision="FP32">
					<dim>-1</dim>
					<dim>8</dim>
					<dim>-1</dim>
					<dim>-1</dim>
				</port>
			</input>
			<output>
				<port id="2" precision="FP32" names="Clip_0">
					<dim>-1</dim>
					<dim>8</dim>
					<dim>-1</dim>
					<dim>-1</dim>
				</port>
			</output>
		</layer>
		<layer id="21" name="Mul_0" type="Multiply" version="opset1">
			<data auto_broadcast="numpy" />
			<input>
				<port id="0" precision="FP32">
					<dim>-1</dim>
					<dim>8</dim>
					<dim>-1</dim>
					<dim>-1</dim>
				</port>
				<port id="1" precision="FP32">
					<dim>-1</dim>
					<dim>8</dim>
					<dim>-1</dim>
					<dim>-1</dim>
				</port>
			</input>
			<output>
				<port id="2" precision="FP32" names="Mul_0">
					<dim>-1</dim>
					<dim>8</dim>
					<dim>-1</dim>
					<dim>-1</dim>
				</port>
			</output>
		</layer>
		<layer id="22" name="Constant_0_compressed" type="Const" version="opset1">
			<data element_type="f16" shape="" offset="512" size="2" />
			<output>
				<port id="0" precision="FP16" names="Constant_0" />
			</output>
		</layer>
		<layer id="23" name="Constant_0" type="Convert" version="opset1">
			<data destination_type="f32" />
			<rt_info>
				<attribute name="decompression" version="0" />
			</rt_info>
			<input>
				<port id="0" precision="FP16" />
			</input>
			<output>
				<port id="1" precision="FP32" />
			</output>
		</layer>
		<layer id="24" name="Div_0" type="Divide" version="opset1">
			<data auto_broadcast="numpy" m_pythondiv="true" />
			<input>
				<port id="0" precision="FP32">
					<dim>-1</dim>
					<dim>8</dim>
					<dim>-1</dim>
					<dim>-1</dim>
				</port>
				<port id="1" precision="FP32" />
			</input>
			<output>
				<port id="2" precision="FP32" names="hardswish_0.tmp_0">
					<dim>-1</dim>
					<dim>8</dim>
					<dim>-1</dim>
					<dim>-1</dim>
				</port>
			</output>
		</layer>
		<layer id="25" name="conv2d_1.w_0_compressed" type="Const" version="opset1">
			<data element_type="f16" shape="8, 8, 1, 1" offset="518" size="128" />
			<output>
				<port id="0" precision="FP16" names="conv2d_1.w_0">
					<dim>8</dim>
					<dim>8</dim>
					<dim>1</dim>
					<dim>1</dim>
				</port>
			</output>
		</layer>
		<layer id="26" name="conv2d_1.w_0" type="Convert" version="opset1">
			<data destination_type="f32" />
			<rt_info>
				<attribute name="decompression" version="0" />
			</rt_info>
			<input>
				<port id="0" precision="FP16">
					<dim>8</dim>
					<dim>8</dim>
					<dim>1</dim>
					<dim>1</dim>
				</port>
			</input>
			<output>
				<port id="1" precision="FP32">
					<dim>8</dim>
					<dim>8</dim>
					<dim>1</dim>
					<dim>1</dim>
				</port>
			</output>
		</layer>
		<layer id="27" name="Conv_1" type="Convolution" version="opset1">
			<data strides="1, 1" dilations="1, 1" pads_begin="0, 0" pads_end="0, 0" auto_pad="explicit" />
			<input>
				<port id="0" precision="FP32">
					<dim>-1</dim>
					<dim>8</dim>
					<dim>-1</dim>
					<dim>-1</dim>
				</port>
				<port id="1" precision="FP32">
					<dim>8</dim>
					<dim>8</dim>
					<dim>1</dim>
					<dim>1</dim>
				</port>
			</input>
			<output>
				<port id="2" precision="FP32" names="conv2d_212.tmp_0">
					<dim>-1</dim>
					<dim>8</dim>
					<dim>-1</dim>
					<dim>-1</dim>
				</port>
			</output>
		</layer>
		<layer id="28" name="batch_norm_1.w_0_compressed" type="Const" version="opset1">
			<data element_type="f16" shape="8" offset="646" size="16" />
			<output>
				<port id="0" precision="FP16" names="batch_norm_1.w_0">
					<dim>8</dim>
				</port>
			</output>
		</layer>
		<layer id="29" name="batch_norm_1.w_0" type="Convert" version="opset1">
			<data destination_type="f32" />
			<rt_info>
				<attribute name="decompression" version="0" />
			</rt_info>
			<input>
				<port id="0" precision="FP16">
					<dim>8</dim>
				</port>
			</input>
			<output>
				<port id="1" precision="FP32">
					<dim>8</dim>
				</port>
			</output>
		</layer>
		<layer id="30" name="batch_norm_1.b_0" type="Const" version="opset1">
			<data element_type="f32" shape="8" offset="662" size="32" />
			<output>
				<port id="0" precision="FP32" names="batch_norm_1.b_0">
					<dim>8</dim>
				</port>
			</output>
		</layer>
		<layer id="31" name="batch_norm_1.w_1_compressed" type="Const" version="opset1">
			<data element_type="f16" shape="8" offset="694" size="16" />
			<output>
				<port id="0" precision="FP16" names="batch_norm_1.w_1">
					<dim>8</dim>
				</port>
			</output>
		</layer>
		<layer id="32" name="batch_norm_1.w_1" type="Convert" version="opset1">
			<data destination_type="f32" />
			<rt_info>
				<attribute name="decompression" version="0" />
			</rt_info>
			<input>
				<port id="0" precision="FP16">
					<dim>8</dim>
				</port>
			</input>
			<output>
				<port id="1" precision="FP32">
					<dim>8</dim>
				</port>
			</output>
		</layer>
		<layer id="33" name="batch_norm_1.w_2_compressed" type="Const" version="opset1">
			<data element_type="f16" shape="8" offset="710" size="16" />
			<output>
				<port id="0" precision="FP16" names="batch_norm_1.w_2">
					<dim>8</dim>
				</port>
			</output>
		</layer>
		<layer id="34" name="batch_norm_1.w_2" type="Convert" version="opset1">
			<data destination_type="f32" />
			<rt_info>
				<attribute name="decompression" version="0" />
			</rt_info>
			<input>
				<port id="0" precision="FP16">
					<dim>8</dim>
				</port>
			</input>
			<output>
				<port id="1" precision="FP32">
					<dim>8</dim>
				</port>
			</output>
		</layer>
		<layer id="35" name="BatchNormalization_1" type="BatchNormInference" version="opset5">
			<data epsilon="9.9999997473787516e-06" />
			<input>
				<port id="0" precision="FP32">
					<dim>-1</dim>
					<dim>8</dim>
					<dim>-1</dim>
					<dim>-1</dim>
				</port>
				<port id="1" precision="FP32">
					<dim>8</dim>
				</port>
				<port id="2" precision="FP32">
					<dim>8</dim>
				</port>
				<port id="3" precision="FP32">
					<dim>8</dim>
				</port>
				<port id="4" precision="FP32">
					<dim>8</dim>
				</port>
			</input>
			<output>
				<port id="5" precision="FP32" names="batch_norm_1.tmp_3">
					<dim>-1</dim>
					<dim>8</dim>
					<dim>-1</dim>
					<dim>-1</dim>
				</port>
			</output>
		</layer>
		<layer id="36" name="Relu_0" type="ReLU" version="opset1">
			<input>
				<port id="0" precision="FP32">
					<dim>-1</dim>
					<dim>8</dim>
					<dim>-1</dim>
					<dim>-1</dim>
				</port>
			</input>
			<output>
				<port id="1" precision="FP32" names="relu_0.tmp_0">
					<dim>-1</dim>
					<dim>8</dim>
					<dim>-1</dim>
					<dim>-1</dim>
				</port>
			</output>
		</layer>
		<layer id="37" name="conv2d_2.w_0" type="Const" version="opset1">
			<data element_type="f32" shape="8, 1, 3, 3" offset="726" size="288" />
			<output>
				<port id="0" precision="FP32" names="conv2d_2.w_0">
					<dim>8</dim>
					<dim>1</dim>
					<dim>3</dim>
					<dim>3</dim>
				</port>
			</output>
		</layer>
		<layer id="38" name="Constant_4065" type="Const" version="opset1">
			<data element_type="i64" shape="1" offset="1014" size="8" />
			<rt_info>
				<attribute name="precise" version="0" />
			</rt_info>
			<output>
				<port id="0" precision="I64">
					<dim>1</dim>
				</port>
			</output>
		</layer>
		<layer id="39" name="ShapeOf_4066" type="ShapeOf" version="opset3">
			<data output_type="i64" />
			<input>
				<port id="0" precision="FP32">
					<dim>8</dim>
					<dim>1</dim>
					<dim>3</dim>
					<dim>3</dim>
				</port>
			</input>
			<output>
				<port id="1" precision="I64">
					<dim>4</dim>
				</port>
			</output>
		</layer>
		<layer id="40" name="Constant_4063" type="Const" version="opset1">
			<data element_type="i64" shape="" offset="1022" size="8" />
			<rt_info>
				<attribute name="precise" version="0" />
			</rt_info>
			<output>
				<port id="0" precision="I64" />
			</output>
		</layer>
		<layer id="41" name="Constant_4064" type="Const" version="opset1">
			<data element_type="i64" shape="2" offset="1030" size="16" />
			<rt_info>
				<attribute name="precise" version="0" />
			</rt_info>
			<output>
				<port id="0" precision="I64">
					<dim>2</dim>
				</port>
			</output>
		</layer>
		<layer id="42" name="VariadicSplit_4067" type="VariadicSplit" version="opset1">
			<input>
				<port id="0" precision="I64">
					<dim>4</dim>
				</port>
				<port id="1" precision="I64" />
				<port id="2" precision="I64">
					<dim>2</dim>
				</port>
			</input>
			<output>
				<port id="3" precision="I64">
					<dim>1</dim>
				</port>
				<port id="4" precision="I64">
					<dim>3</dim>
				</port>
			</output>
		</layer>
		<layer id="43" name="Divide_4068" type="Divide" version="opset1">
			<data auto_broadcast="numpy" m_pythondiv="true" />
			<input>
				<port id="0" precision="I64">
					<dim>1</dim>
				</port>
				<port id="1" precision="I64">
					<dim>1</dim>
				</port>
			</input>
			<output>
				<port id="2" precision="I64">
					<dim>1</dim>
				</port>
			</output>
		</layer>
		<layer id="44" name="Concat_4069" type="Concat" version="opset1">
			<data axis="0" />
			<input>
				<port id="0" precision="I64">
					<dim>1</dim>
				</port>
				<port id="1" precision="I64">
					<dim>1</dim>
				</port>
				<port id="2" precision="I64">
					<dim>3</dim>
				</port>
			</input>
			<output>
				<port id="3" precision="I64">
					<dim>5</dim>
				</port>
			</output>
		</layer>
		<layer id="45" name="Reshape_4070" type="Reshape" version="opset1">
			<data special_zero="false" />
			<input>
				<port id="0" precision="FP32">
					<dim>8</dim>
					<dim>1</dim>
					<dim>3</dim>
					<dim>3</dim>
				</port>
				<port id="1" precision="I64">
					<dim>5</dim>
				</port>
			</input>
			<output>
				<port id="2" precision="FP32">
					<dim>8</dim>
					<dim>1</dim>
					<dim>1</dim>
					<dim>3</dim>
					<dim>3</dim>
				</port>
			</output>
		</layer>
		<layer id="46" name="Conv_2" type="GroupConvolution" version="opset1">
			<data strides="1, 1" pads_begin="1, 1" pads_end="1, 1" dilations="1, 1" auto_pad="explicit" />
			<input>
				<port id="0" precision="FP32">
					<dim>-1</dim>
					<dim>8</dim>
					<dim>-1</dim>
					<dim>-1</dim>
				</port>
				<port id="1" precision="FP32">
					<dim>8</dim>
					<dim>1</dim>
					<dim>1</dim>
					<dim>3</dim>
					<dim>3</dim>
				</port>
			</input>
			<output>
				<port id="2" precision="FP32" names="depthwise_conv2d_0.tmp_0">
					<dim>-1</dim>
					<dim>8</dim>
					<dim>-1</dim>
					<dim>-1</dim>
				</port>
			</output>
		</layer>
		<layer id="47" name="batch_norm_2.w_0_compressed" type="Const" version="opset1">
			<data element_type="f16" shape="8" offset="1046" size="16" />
			<output>
				<port id="0" precision="FP16" names="batch_norm_2.w_0">
					<dim>8</dim>
				</port>
			</output>
		</layer>
		<layer id="48" name="batch_norm_2.w_0" type="Convert" version="opset1">
			<data destination_type="f32" />
			<rt_info>
				<attribute name="decompression" version="0" />
			</rt_info>
			<input>
				<port id="0" precision="FP16">
					<dim>8</dim>
				</port>
			</input>
			<output>
				<port id="1" precision="FP32">
					<dim>8</dim>
				</port>
			</output>
		</layer>
		<layer id="49" name="batch_norm_2.b_0_compressed" type="Const" version="opset1">
			<data element_type="f16" shape="8" offset="1062" size="16" />
			<output>
				<port id="0" precision="FP16" names="batch_norm_2.b_0">
					<dim>8</dim>
				</port>
			</output>
		</layer>
		<layer id="50" name="batch_norm_2.b_0" type="Convert" version="opset1">
			<data destination_type="f32" />
			<rt_info>
				<attribute name="decompression" version="0" />
			</rt_info>
			<input>
				<port id="0" precision="FP16">
					<dim>8</dim>
				</port>
			</input>
			<output>
				<port id="1" precision="FP32">
					<dim>8</dim>
				</port>
			</output>
		</layer>
		<layer id="51" name="batch_norm_2.w_1" type="Const" version="opset1">
			<data element_type="f32" shape="8" offset="1078" size="32" />
			<output>
				<port id="0" precision="FP32" names="batch_norm_2.w_1">
					<dim>8</dim>
				</port>
			</output>
		</layer>
		<layer id="52" name="batch_norm_2.w_2" type="Const" version="opset1">
			<data element_type="f32" shape="8" offset="1110" size="32" />
			<output>
				<port id="0" precision="FP32" names="batch_norm_2.w_2">
					<dim>8</dim>
				</port>
			</output>
		</layer>
		<layer id="53" name="BatchNormalization_2" type="BatchNormInference" version="opset5">
			<data epsilon="9.9999997473787516e-06" />
			<input>
				<port id="0" precision="FP32">
					<dim>-1</dim>
					<dim>8</dim>
					<dim>-1</dim>
					<dim>-1</dim>
				</port>
				<port id="1" precision="FP32">
					<dim>8</dim>
				</port>
				<port id="2" precision="FP32">
					<dim>8</dim>
				</port>
				<port id="3" precision="FP32">
					<dim>8</dim>
				</port>
				<port id="4" precision="FP32">
					<dim>8</dim>
				</port>
			</input>
			<output>
				<port id="5" precision="FP32" names="batch_norm_2.tmp_3">
					<dim>-1</dim>
					<dim>8</dim>
					<dim>-1</dim>
					<dim>-1</dim>
				</port>
			</output>
		</layer>
		<layer id="54" name="Relu_1" type="ReLU" version="opset1">
			<input>
				<port id="0" precision="FP32">
					<dim>-1</dim>
					<dim>8</dim>
					<dim>-1</dim>
					<dim>-1</dim>
				</port>
			</input>
			<output>
				<port id="1" precision="FP32" names="relu_1.tmp_0">
					<dim>-1</dim>
					<dim>8</dim>
					<dim>-1</dim>
					<dim>-1</dim>
				</port>
			</output>
		</layer>
		<layer id="55" name="conv2d_3.w_0_compressed" type="Const" version="opset1">
			<data element_type="f16" shape="8, 8, 1, 1" offset="1142" size="128" />
			<output>
				<port id="0" precision="FP16" names="conv2d_3.w_0">
					<dim>8</dim>
					<dim>8</dim>
					<dim>1</dim>
					<dim>1</dim>
				</port>
			</output>
		</layer>
		<layer id="56" name="conv2d_3.w_0" type="Convert" version="opset1">
			<data destination_type="f32" />
			<rt_info>
				<attribute name="decompression" version="0" />
			</rt_info>
			<input>
				<port id="0" precision="FP16">
					<dim>8</dim>
					<dim>8</dim>
					<dim>1</dim>
					<dim>1</dim>
				</port>
			</input>
			<output>
				<port id="1" precision="FP32">
					<dim>8</dim>
					<dim>8</dim>
					<dim>1</dim>
					<dim>1</dim>
				</port>
			</output>
		</layer>
		<layer id="57" name="Conv_3" type="Convolution" version="opset1">
			<data strides="1, 1" dilations="1, 1" pads_begin="0, 0" pads_end="0, 0" auto_pad="explicit" />
			<input>
				<port id="0" precision="FP32">
					<dim>-1</dim>
					<dim>8</dim>
					<dim>-1</dim>
					<dim>-1</dim>
				</port>
				<port id="1" precision="FP32">
					<dim>8</dim>
					<dim>8</dim>
					<dim>1</dim>
					<dim>1</dim>
				</port>
			</input>
			<output>
				<port id="2" precision="FP32" names="conv2d_213.tmp_0">
					<dim>-1</dim>
					<dim>8</dim>
					<dim>-1</dim>
					<dim>-1</dim>
				</port>
			</output>
		</layer>
		<layer id="58" name="batch_norm_3.w_0" type="Const" version="opset1">
			<data element_type="f32" shape="8" offset="1270" size="32" />
			<output>
				<port id="0" precision="FP32" names="batch_norm_3.w_0">
					<dim>8</dim>
				</port>
			</output>
		</layer>
		<layer id="59" name="batch_norm_3.b_0" type="Const" version="opset1">
			<data element_type="f32" shape="8" offset="1302" size="32" />
			<output>
				<port id="0" precision="FP32" names="batch_norm_3.b_0">
					<dim>8</dim>
				</port>
			</output>
		</layer>
		<layer id="60" name="batch_norm_3.w_1_compressed" type="Const" version="opset1">
			<data element_type="f16" shape="8" offset="1334" size="16" />
			<output>
				<port id="0" precision="FP16" names="batch_norm_3.w_1">
					<dim>8</dim>
				</port>
			</output>
		</layer>
		<layer id="61" name="batch_norm_3.w_1" type="Convert" version="opset1">
			<data destination_type="f32" />
			<rt_info>
				<attribute name="decompression" version="0" />
			</rt_info>
			<input>
				<port id="0" precision="FP16">
					<dim>8</dim>
				</port>
			</input>
			<output>
				<port id="1" precision="FP32">
					<dim>8</dim>
				</port>
			</output>
		</layer>
		<layer id="62" name="batch_norm_3.w_2_compressed" type="Const" version="opset1">
			<data element_type="f16" shape="8" offset="1350" size="16" />
			<output>
				<port id="0" precision="FP16" names="batch_norm_3.w_2">
					<dim>8</dim>
				</port>
			</output>
		</layer>
		<layer id="63" name="batch_norm_3.w_2" type="Convert" version="opset1">
			<data destination_type="f32" />
			<rt_info>
				<attribute name="decompression" version="0" />
			</rt_info>
			<input>
				<port id="0" precision="FP16">
					<dim>8</dim>
				</port>
			</input>
			<output>
				<port id="1" precision="FP32">
					<dim>8</dim>
				</port>
			</output>
		</layer>
		<layer id="64" name="BatchNormalization_3" type="BatchNormInference" version="opset5">
			<data epsilon="9.9999997473787516e-06" />
			<input>
				<port id="0" precision="FP32">
					<dim>-1</dim>
					<dim>8</dim>
					<dim>-1</dim>
					<dim>-1</dim>
				</port>
				<port id="1" precision="FP32">
					<dim>8</dim>
				</port>
				<port id="2" precision="FP32">
					<dim>8</dim>
				</port>
				<port id="3" precision="FP32">
					<dim>8</dim>
				</port>
				<port id="4" precision="FP32">
					<dim>8</dim>
				</port>
			</input>
			<output>
				<port id="5" precision="FP32" names="batch_norm_3.tmp_3">
					<dim>-1</dim>
					<dim>8</dim>
					<dim>-1</dim>
					<dim>-1</dim>
				</port>
			</output>
		</layer>
		<layer id="65" name="Add_1" type="Add" version="opset1">
			<data auto_broadcast="numpy" />
			<input>
				<port id="0" precision="FP32">
					<dim>-1</dim>
					<dim>8</dim>
					<dim>-1</dim>
					<dim>-1</dim>
				</port>
				<port id="1" precision="FP32">
					<dim>-1</dim>
					<dim>8</dim>
					<dim>-1</dim>
					<dim>-1</dim>
				</port>
			</input>
			<output>
				<port id="2" precision="FP32" names="elementwise_add_0">
					<dim>-1</dim>
					<dim>8</dim>
					<dim>-1</dim>
					<dim>-1</dim>
				</port>
			</output>
		</layer>
		<layer id="66" name="conv2d_4.w_0_compressed" type="Const" version="opset1">
			<data element_type="f16" shape="32, 8, 1, 1" offset="1366" size="512" />
			<output>
				<port id="0" precision="FP16" names="conv2d_4.w_0">
					<dim>32</dim>
					<dim>8</dim>
					<dim>1</dim>
					<dim>1</dim>
				</port>
			</output>
		</layer>
		<layer id="67" name="conv2d_4.w_0" type="Convert" version="opset1">
			<data destination_type="f32" />
			<rt_info>
				<attribute name="decompression" version="0" />
			</rt_info>
			<input>
				<port id="0" precision="FP16">
					<dim>32</dim>
					<dim>8</dim>
					<dim>1</dim>
					<dim>1</dim>
				</port>
			</input>
			<output>
				<port id="1" precision="FP32">
					<dim>32</dim>
					<dim>8</dim>
					<dim>1</dim>
					<dim>1</dim>
				</port>
			</output>
		</layer>
		<layer id="68" name="Conv_4" type="Convolution" version="opset1">
			<data strides="1, 1" dilations="1, 1" pads_begin="0, 0" pads_end="0, 0" auto_pad="explicit" />
			<input>
				<port id="0" precision="FP32">
					<dim>-1</dim>
					<dim>8</dim>
					<dim>-1</dim>
					<dim>-1</dim>
				</port>
				<port id="1" precision="FP32">
					<dim>32</dim>
					<dim>8</dim>
					<dim>1</dim>
					<dim>1</dim>
				</port>
			</input>
			<output>
				<port id="2" precision="FP32" names="conv2d_214.tmp_0">
					<dim>-1</dim>
					<dim>32</dim>
					<dim>-1</dim>
					<dim>-1</dim>
				</port>
			</output>
		</layer>
		<layer id="69" name="batch_norm_4.w_0_compressed" type="Const" version="opset1">
			<data element_type="f16" shape="32" offset="1878" size="64" />
			<output>
				<port id="0" precision="FP16" names="batch_norm_4.w_0">
					<dim>32</dim>
				</port>
			</output>
		</layer>
		<layer id="70" name="batch_norm_4.w_0" type="Convert" version="opset1">
			<data destination_type="f32" />
			<rt_info>
				<attribute name="decompression" version="0" />
			</rt_info>
			<input>
				<port id="0" precision="FP16">
					<dim>32</dim>
				</port>
			</input>
			<output>
				<port id="1" precision="FP32">
					<dim>32</dim>
				</port>
			</output>
		</layer>
		<layer id="71" name="batch_norm_4.b_0_compressed" type="Const" version="opset1">
			<data element_type="f16" shape="32" offset="1942" size="64" />
			<output>
				<port id="0" precision="FP16" names="batch_norm_4.b_0">
					<dim>32</dim>
				</port>
			</output>
		</layer>
		<layer id="72" name="batch_norm_4.b_0" type="Convert" version="opset1">
			<data destination_type="f32" />
			<rt_info>
				<attribute name="decompression" version="0" />
			</rt_info>
			<input>
				<port id="0" precision="FP16">
					<dim>32</dim>
				</port>
			</input>
			<output>
				<port id="1" precision="FP32">
					<dim>32</dim>
				</port>
			</output>
		</layer>
		<layer id="73" name="batch_norm_4.w_1_compressed" type="Const" version="opset1">
			<data element_type="f16" shape="32" offset="2006" size="64" />
			<output>
				<port id="0" precision="FP16" names="batch_norm_4.w_1">
					<dim>32</dim>
				</port>
			</output>
		</layer>
		<layer id="74" name="batch_norm_4.w_1" type="Convert" version="opset1">
			<data destination_type="f32" />
			<rt_info>
				<attribute name="decompression" version="0" />
			</rt_info>
			<input>
				<port id="0" precision="FP16">
					<dim>32</dim>
				</port>
			</input>
			<output>
				<port id="1" precision="FP32">
					<dim>32</dim>
				</port>
			</output>
		</layer>
		<layer id="75" name="batch_norm_4.w_2_compressed" type="Const" version="opset1">
			<data element_type="f16" shape="32" offset="2070" size="64" />
			<output>
				<port id="0" precision="FP16" names="batch_norm_4.w_2">
					<dim>32</dim>
				</port>
			</output>
		</layer>
		<layer id="76" name="batch_norm_4.w_2" type="Convert" version="opset1">
			<data destination_type="f32" />
			<rt_info>
				<attribute name="decompression" version="0" />
			</rt_info>
			<input>
				<port id="0" precision="FP16">
					<dim>32</dim>
				</port>
			</input>
			<output>
				<port id="1" precision="FP32">
					<dim>32</dim>
				</port>
			</output>
		</layer>
		<layer id="77" name="BatchNormalization_4" type="BatchNormInference" version="opset5">
			<data epsilon="9.9999997473787516e-06" />
			<input>
				<port id="0" precision="FP32">
					<dim>-1</dim>
					<dim>32</dim>
					<dim>-1</dim>
					<dim>-1</dim>
				</port>
				<port id="1" precision="FP32">
					<dim>32</dim>
				</port>
				<port id="2" precision="FP32">
					<dim>32</dim>
				</port>
				<port id="3" precision="FP32">
					<dim>32</dim>
				</port>
				<port id="4" precision="FP32">
					<dim>32</dim>
				</port>
			</input>
			<output>
				<port id="5" precision="FP32" names="batch_norm_4.tmp_3">
					<dim>-1</dim>
					<dim>32</dim>
					<dim>-1</dim>
					<dim>-1</dim>
				</port>
			</output>
		</layer>
		<layer id="78" name="Relu_2" type="ReLU" version="opset1">
			<input>
				<port id="0" precision="FP32">
					<dim>-1</dim>
					<dim>32</dim>
					<dim>-1</dim>
					<dim>-1</dim>
				</port>
			</input>
			<output>
				<port id="1" precision="FP32" names="relu_2.tmp_0">
					<dim>-1</dim>
					<dim>32</dim>
					<dim>-1</dim>
					<dim>-1</dim>
				</port>
			</output>
		</layer>
		<layer id="79" name="conv2d_5.w_0_compressed" type="Const" version="opset1">
			<data element_type="f16" shape="32, 1, 3, 3" offset="2134" size="576" />
			<output>
				<port id="0" precision="FP16" names="conv2d_5.w_0">
					<dim>32</dim>
					<dim>1</dim>
					<dim>3</dim>
					<dim>3</dim>
				</port>
			</output>
		</layer>
		<layer id="80" name="conv2d_5.w_0" type="Convert" version="opset1">
			<data destination_type="f32" />
			<rt_info>
				<attribute name="decompression" version="0" />
			</rt_info>
			<input>
				<port id="0" precision="FP16">
					<dim>32</dim>
					<dim>1</dim>
					<dim>3</dim>
					<dim>3</dim>
				</port>
			</input>
			<output>
				<port id="1" precision="FP32">
					<dim>32</dim>
					<dim>1</dim>
					<dim>3</dim>
					<dim>3</dim>
				</port>
			</output>
		</layer>
		<layer id="81" name="Constant_4123" type="Const" version="opset1">
			<data element_type="i64" shape="1" offset="2710" size="8" />
			<rt_info>
				<attribute name="precise" version="0" />
			</rt_info>
			<output>
				<port id="0" precision="I64">
					<dim>1</dim>
				</port>
			</output>
		</layer>
		<layer id="82" name="ShapeOf_4124" type="ShapeOf" version="opset3">
			<data output_type="i64" />
			<input>
				<port id="0" precision="FP32">
					<dim>32</dim>
					<dim>1</dim>
					<dim>3</dim>
					<dim>3</dim>
				</port>
			</input>
			<output>
				<port id="1" precision="I64">
					<dim>4</dim>
				</port>
			</output>
		</layer>
		<layer id="83" name="Constant_4121" type="Const" version="opset1">
			<data element_type="i64" shape="" offset="1022" size="8" />
			<rt_info>
				<attribute name="precise" version="0" />
			</rt_info>
			<output>
				<port id="0" precision="I64" />
			</output>
		</layer>
		<layer id="84" name="Constant_4122" type="Const" version="opset1">
			<data element_type="i64" shape="2" offset="1030" size="16" />
			<rt_info>
				<attribute name="precise" version="0" />
			</rt_info>
			<output>
				<port id="0" precision="I64">
					<dim>2</dim>
				</port>
			</output>
		</layer>
		<layer id="85" name="VariadicSplit_4125" type="VariadicSplit" version="opset1">
			<input>
				<port id="0" precision="I64">
					<dim>4</dim>
				</port>
				<port id="1" precision="I64" />
				<port id="2" precision="I64">
					<dim>2</dim>
				</port>
			</input>
			<output>
				<port id="3" precision="I64">
					<dim>1</dim>
				</port>
				<port id="4" precision="I64">
					<dim>3</dim>
				</port>
			</output>
		</layer>
		<layer id="86" name="Divide_4126" type="Divide" version="opset1">
			<data auto_broadcast="numpy" m_pythondiv="true" />
			<input>
				<port id="0" precision="I64">
					<dim>1</dim>
				</port>
				<port id="1" precision="I64">
					<dim>1</dim>
				</port>
			</input>
			<output>
				<port id="2" precision="I64">
					<dim>1</dim>
				</port>
			</output>
		</layer>
		<layer id="87" name="Concat_4127" type="Concat" version="opset1">
			<data axis="0" />
			<input>
				<port id="0" precision="I64">
					<dim>1</dim>
				</port>
				<port id="1" precision="I64">
					<dim>1</dim>
				</port>
				<port id="2" precision="I64">
					<dim>3</dim>
				</port>
			</input>
			<output>
				<port id="3" precision="I64">
					<dim>5</dim>
				</port>
			</output>
		</layer>
		<layer id="88" name="Reshape_4128" type="Reshape" version="opset1">
			<data special_zero="false" />
			<input>
				<port id="0" precision="FP32">
					<dim>32</dim>
					<dim>1</dim>
					<dim>3</dim>
					<dim>3</dim>
				</port>
				<port id="1" precision="I64">
					<dim>5</dim>
				</port>
			</input>
			<output>
				<port id="2" precision="FP32">
					<dim>32</dim>
					<dim>1</dim>
					<dim>1</dim>
					<dim>3</dim>
					<dim>3</dim>
				</port>
			</output>
		</layer>
		<layer id="89" name="Conv_5" type="GroupConvolution" version="opset1">
			<data strides="2, 2" pads_begin="1, 1" pads_end="1, 1" dilations="1, 1" auto_pad="explicit" />
			<input>
				<port id="0" precision="FP32">
					<dim>-1</dim>
					<dim>32</dim>
					<dim>-1</dim>
					<dim>-1</dim>
				</port>
				<port id="1" precision="FP32">
					<dim>32</dim>
					<dim>1</dim>
					<dim>1</dim>
					<dim>3</dim>
					<dim>3</dim>
				</port>
			</input>
			<output>
				<port id="2" precision="FP32" names="depthwise_conv2d_1.tmp_0">
					<dim>-1</dim>
					<dim>32</dim>
					<dim>-1</dim>
					<dim>-1</dim>
				</port>
			</output>
		</layer>
		<layer id="90" name="batch_norm_5.w_0_compressed" type="Const" version="opset1">
			<data element_type="f16" shape="32" offset="2718" size="64" />
			<output>
				<port id="0" precision="FP16" names="batch_norm_5.w_0">
					<dim>32</dim>
				</port>
			</output>
		</layer>
		<layer id="91" name="batch_norm_5.w_0" type="Convert" version="opset1">
			<data destination_type="f32" />
			<rt_info>
				<attribute name="decompression" version="0" />
			</rt_info>
			<input>
				<port id="0" precision="FP16">
					<dim>32</dim>
				</port>
			</input>
			<output>
				<port id="1" precision="FP32">
					<dim>32</dim>
				</port>
			</output>
		</layer>
		<layer id="92" name="batch_norm_5.b_0_compressed" type="Const" version="opset1">
			<data element_type="f16" shape="32" offset="2782" size="64" />
			<output>
				<port id="0" precision="FP16" names="batch_norm_5.b_0">
					<dim>32</dim>
				</port>
			</output>
		</layer>
		<layer id="93" name="batch_norm_5.b_0" type="Convert" version="opset1">
			<data destination_type="f32" />
			<rt_info>
				<attribute name="decompression" version="0" />
			</rt_info>
			<input>
				<port id="0" precision="FP16">
					<dim>32</dim>
				</port>
			</input>
			<output>
				<port id="1" precision="FP32">
					<dim>32</dim>
				</port>
			</output>
		</layer>
		<layer id="94" name="batch_norm_5.w_1_compressed" type="Const" version="opset1">
			<data element_type="f16" shape="32" offset="2846" size="64" />
			<output>
				<port id="0" precision="FP16" names="batch_norm_5.w_1">
					<dim>32</dim>
				</port>
			</output>
		</layer>
		<layer id="95" name="batch_norm_5.w_1" type="Convert" version="opset1">
			<data destination_type="f32" />
			<rt_info>
				<attribute name="decompression" version="0" />
			</rt_info>
			<input>
				<port id="0" precision="FP16">
					<dim>32</dim>
				</port>
			</input>
			<output>
				<port id="1" precision="FP32">
					<dim>32</dim>
				</port>
			</output>
		</layer>
		<layer id="96" name="batch_norm_5.w_2_compressed" type="Const" version="opset1">
			<data element_type="f16" shape="32" offset="2910" size="64" />
			<output>
				<port id="0" precision="FP16" names="batch_norm_5.w_2">
					<dim>32</dim>
				</port>
			</output>
		</layer>
		<layer id="97" name="batch_norm_5.w_2" type="Convert" version="opset1">
			<data destination_type="f32" />
			<rt_info>
				<attribute name="decompression" version="0" />
			</rt_info>
			<input>
				<port id="0" precision="FP16">
					<dim>32</dim>
				</port>
			</input>
			<output>
				<port id="1" precision="FP32">
					<dim>32</dim>
				</port>
			</output>
		</layer>
		<layer id="98" name="BatchNormalization_5" type="BatchNormInference" version="opset5">
			<data epsilon="9.9999997473787516e-06" />
			<input>
				<port id="0" precision="FP32">
					<dim>-1</dim>
					<dim>32</dim>
					<dim>-1</dim>
					<dim>-1</dim>
				</port>
				<port id="1" precision="FP32">
					<dim>32</dim>
				</port>
				<port id="2" precision="FP32">
					<dim>32</dim>
				</port>
				<port id="3" precision="FP32">
					<dim>32</dim>
				</port>
				<port id="4" precision="FP32">
					<dim>32</dim>
				</port>
			</input>
			<output>
				<port id="5" precision="FP32" names="batch_norm_5.tmp_3">
					<dim>-1</dim>
					<dim>32</dim>
					<dim>-1</dim>
					<dim>-1</dim>
				</port>
			</output>
		</layer>
		<layer id="99" name="Relu_3" type="ReLU" version="opset1">
			<input>
				<port id="0" precision="FP32">
					<dim>-1</dim>
					<dim>32</dim>
					<dim>-1</dim>
					<dim>-1</dim>
				</port>
			</input>
			<output>
				<port id="1" precision="FP32" names="relu_3.tmp_0">
					<dim>-1</dim>
					<dim>32</dim>
					<dim>-1</dim>
					<dim>-1</dim>
				</port>
			</output>
		</layer>
		<layer id="100" name="conv2d_6.w_0_compressed" type="Const" version="opset1">
			<data element_type="f16" shape="16, 32, 1, 1" offset="2974" size="1024" />
			<output>
				<port id="0" precision="FP16" names="conv2d_6.w_0">
					<dim>16</dim>
					<dim>32</dim>
					<dim>1</dim>
					<dim>1</dim>
				</port>
			</output>
		</layer>
		<layer id="101" name="conv2d_6.w_0" type="Convert" version="opset1">
			<data destination_type="f32" />
			<rt_info>
				<attribute name="decompression" version="0" />
			</rt_info>
			<input>
				<port id="0" precision="FP16">
					<dim>16</dim>
					<dim>32</dim>
					<dim>1</dim>
					<dim>1</dim>
				</port>
			</input>
			<output>
				<port id="1" precision="FP32">
					<dim>16</dim>
					<dim>32</dim>
					<dim>1</dim>
					<dim>1</dim>
				</port>
			</output>
		</layer>
		<layer id="102" name="Conv_6" type="Convolution" version="opset1">
			<data strides="1, 1" dilations="1, 1" pads_begin="0, 0" pads_end="0, 0" auto_pad="explicit" />
			<input>
				<port id="0" precision="FP32">
					<dim>-1</dim>
					<dim>32</dim>
					<dim>-1</dim>
					<dim>-1</dim>
				</port>
				<port id="1" precision="FP32">
					<dim>16</dim>
					<dim>32</dim>
					<dim>1</dim>
					<dim>1</dim>
				</port>
			</input>
			<output>
				<port id="2" precision="FP32" names="conv2d_215.tmp_0">
					<dim>-1</dim>
					<dim>16</dim>
					<dim>-1</dim>
					<dim>-1</dim>
				</port>
			</output>
		</layer>
		<layer id="103" name="batch_norm_6.w_0_compressed" type="Const" version="opset1">
			<data element_type="f16" shape="16" offset="3998" size="32" />
			<output>
				<port id="0" precision="FP16" names="batch_norm_6.w_0">
					<dim>16</dim>
				</port>
			</output>
		</layer>
		<layer id="104" name="batch_norm_6.w_0" type="Convert" version="opset1">
			<data destination_type="f32" />
			<rt_info>
				<attribute name="decompression" version="0" />
			</rt_info>
			<input>
				<port id="0" precision="FP16">
					<dim>16</dim>
				</port>
			</input>
			<output>
				<port id="1" precision="FP32">
					<dim>16</dim>
				</port>
			</output>
		</layer>
		<layer id="105" name="batch_norm_6.b_0_compressed" type="Const" version="opset1">
			<data element_type="f16" shape="16" offset="4030" size="32" />
			<output>
				<port id="0" precision="FP16" names="batch_norm_6.b_0">
					<dim>16</dim>
				</port>
			</output>
		</layer>
		<layer id="106" name="batch_norm_6.b_0" type="Convert" version="opset1">
			<data destination_type="f32" />
			<rt_info>
				<attribute name="decompression" version="0" />
			</rt_info>
			<input>
				<port id="0" precision="FP16">
					<dim>16</dim>
				</port>
			</input>
			<output>
				<port id="1" precision="FP32">
					<dim>16</dim>
				</port>
			</output>
		</layer>
		<layer id="107" name="batch_norm_6.w_1" type="Const" version="opset1">
			<data element_type="f32" shape="16" offset="4062" size="64" />
			<output>
				<port id="0" precision="FP32" names="batch_norm_6.w_1">
					<dim>16</dim>
				</port>
			</output>
		</layer>
		<layer id="108" name="batch_norm_6.w_2_compressed" type="Const" version="opset1">
			<data element_type="f16" shape="16" offset="4126" size="32" />
			<output>
				<port id="0" precision="FP16" names="batch_norm_6.w_2">
					<dim>16</dim>
				</port>
			</output>
		</layer>
		<layer id="109" name="batch_norm_6.w_2" type="Convert" version="opset1">
			<data destination_type="f32" />
			<rt_info>
				<attribute name="decompression" version="0" />
			</rt_info>
			<input>
				<port id="0" precision="FP16">
					<dim>16</dim>
				</port>
			</input>
			<output>
				<port id="1" precision="FP32">
					<dim>16</dim>
				</port>
			</output>
		</layer>
		<layer id="110" name="BatchNormalization_6" type="BatchNormInference" version="opset5">
			<data epsilon="9.9999997473787516e-06" />
			<input>
				<port id="0" precision="FP32">
					<dim>-1</dim>
					<dim>16</dim>
					<dim>-1</dim>
					<dim>-1</dim>
				</port>
				<port id="1" precision="FP32">
					<dim>16</dim>
				</port>
				<port id="2" precision="FP32">
					<dim>16</dim>
				</port>
				<port id="3" precision="FP32">
					<dim>16</dim>
				</port>
				<port id="4" precision="FP32">
					<dim>16</dim>
				</port>
			</input>
			<output>
				<port id="5" precision="FP32" names="batch_norm_6.tmp_3">
					<dim>-1</dim>
					<dim>16</dim>
					<dim>-1</dim>
					<dim>-1</dim>
				</port>
			</output>
		</layer>
		<layer id="111" name="conv2d_7.w_0_compressed" type="Const" version="opset1">
			<data element_type="f16" shape="40, 16, 1, 1" offset="4158" size="1280" />
			<output>
				<port id="0" precision="FP16" names="conv2d_7.w_0">
					<dim>40</dim>
					<dim>16</dim>
					<dim>1</dim>
					<dim>1</dim>
				</port>
			</output>
		</layer>
		<layer id="112" name="conv2d_7.w_0" type="Convert" version="opset1">
			<data destination_type="f32" />
			<rt_info>
				<attribute name="decompression" version="0" />
			</rt_info>
			<input>
				<port id="0" precision="FP16">
					<dim>40</dim>
					<dim>16</dim>
					<dim>1</dim>
					<dim>1</dim>
				</port>
			</input>
			<output>
				<port id="1" precision="FP32">
					<dim>40</dim>
					<dim>16</dim>
					<dim>1</dim>
					<dim>1</dim>
				</port>
			</output>
		</layer>
		<layer id="113" name="Conv_7" type="Convolution" version="opset1">
			<data strides="1, 1" dilations="1, 1" pads_begin="0, 0" pads_end="0, 0" auto_pad="explicit" />
			<input>
				<port id="0" precision="FP32">
					<dim>-1</dim>
					<dim>16</dim>
					<dim>-1</dim>
					<dim>-1</dim>
				</port>
				<port id="1" precision="FP32">
					<dim>40</dim>
					<dim>16</dim>
					<dim>1</dim>
					<dim>1</dim>
				</port>
			</input>
			<output>
				<port id="2" precision="FP32" names="conv2d_216.tmp_0">
					<dim>-1</dim>
					<dim>40</dim>
					<dim>-1</dim>
					<dim>-1</dim>
				</port>
			</output>
		</layer>
		<layer id="114" name="batch_norm_7.w_0_compressed" type="Const" version="opset1">
			<data element_type="f16" shape="40" offset="5438" size="80" />
			<output>
				<port id="0" precision="FP16" names="batch_norm_7.w_0">
					<dim>40</dim>
				</port>
			</output>
		</layer>
		<layer id="115" name="batch_norm_7.w_0" type="Convert" version="opset1">
			<data destination_type="f32" />
			<rt_info>
				<attribute name="decompression" version="0" />
			</rt_info>
			<input>
				<port id="0" precision="FP16">
					<dim>40</dim>
				</port>
			</input>
			<output>
				<port id="1" precision="FP32">
					<dim>40</dim>
				</port>
			</output>
		</layer>
		<layer id="116" name="batch_norm_7.b_0_compressed" type="Const" version="opset1">
			<data element_type="f16" shape="40" offset="5518" size="80" />
			<output>
				<port id="0" precision="FP16" names="batch_norm_7.b_0">
					<dim>40</dim>
				</port>
			</output>
		</layer>
		<layer id="117" name="batch_norm_7.b_0" type="Convert" version="opset1">
			<data destination_type="f32" />
			<rt_info>
				<attribute name="decompression" version="0" />
			</rt_info>
			<input>
				<port id="0" precision="FP16">
					<dim>40</dim>
				</port>
			</input>
			<output>
				<port id="1" precision="FP32">
					<dim>40</dim>
				</port>
			</output>
		</layer>
		<layer id="118" name="batch_norm_7.w_1" type="Const" version="opset1">
			<data element_type="f32" shape="40" offset="5598" size="160" />
			<output>
				<port id="0" precision="FP32" names="batch_norm_7.w_1">
					<dim>40</dim>
				</port>
			</output>
		</layer>
		<layer id="119" name="batch_norm_7.w_2" type="Const" version="opset1">
			<data element_type="f32" shape="40" offset="5758" size="160" />
			<output>
				<port id="0" precision="FP32" names="batch_norm_7.w_2">
					<dim>40</dim>
				</port>
			</output>
		</layer>
		<layer id="120" name="BatchNormalization_7" type="BatchNormInference" version="opset5">
			<data epsilon="9.9999997473787516e-06" />
			<input>
				<port id="0" precision="FP32">
					<dim>-1</dim>
					<dim>40</dim>
					<dim>-1</dim>
					<dim>-1</dim>
				</port>
				<port id="1" precision="FP32">
					<dim>40</dim>
				</port>
				<port id="2" precision="FP32">
					<dim>40</dim>
				</port>
				<port id="3" precision="FP32">
					<dim>40</dim>
				</port>
				<port id="4" precision="FP32">
					<dim>40</dim>
				</port>
			</input>
			<output>
				<port id="5" precision="FP32" names="batch_norm_7.tmp_3">
					<dim>-1</dim>
					<dim>40</dim>
					<dim>-1</dim>
					<dim>-1</dim>
				</port>
			</output>
		</layer>
		<layer id="121" name="Relu_4" type="ReLU" version="opset1">
			<input>
				<port id="0" precision="FP32">
					<dim>-1</dim>
					<dim>40</dim>
					<dim>-1</dim>
					<dim>-1</dim>
				</port>
			</input>
			<output>
				<port id="1" precision="FP32" names="relu_4.tmp_0">
					<dim>-1</dim>
					<dim>40</dim>
					<dim>-1</dim>
					<dim>-1</dim>
				</port>
			</output>
		</layer>
		<layer id="122" name="conv2d_8.w_0_compressed" type="Const" version="opset1">
			<data element_type="f16" shape="40, 1, 3, 3" offset="5918" size="720" />
			<output>
				<port id="0" precision="FP16" names="conv2d_8.w_0">
					<dim>40</dim>
					<dim>1</dim>
					<dim>3</dim>
					<dim>3</dim>
				</port>
			</output>
		</layer>
		<layer id="123" name="conv2d_8.w_0" type="Convert" version="opset1">
			<data destination_type="f32" />
			<rt_info>
				<attribute name="decompression" version="0" />
			</rt_info>
			<input>
				<port id="0" precision="FP16">
					<dim>40</dim>
					<dim>1</dim>
					<dim>3</dim>
					<dim>3</dim>
				</port>
			</input>
			<output>
				<port id="1" precision="FP32">
					<dim>40</dim>
					<dim>1</dim>
					<dim>3</dim>
					<dim>3</dim>
				</port>
			</output>
		</layer>
		<layer id="124" name="Constant_4180" type="Const" version="opset1">
			<data element_type="i64" shape="1" offset="6638" size="8" />
			<rt_info>
				<attribute name="precise" version="0" />
			</rt_info>
			<output>
				<port id="0" precision="I64">
					<dim>1</dim>
				</port>
			</output>
		</layer>
		<layer id="125" name="ShapeOf_4181" type="ShapeOf" version="opset3">
			<data output_type="i64" />
			<input>
				<port id="0" precision="FP32">
					<dim>40</dim>
					<dim>1</dim>
					<dim>3</dim>
					<dim>3</dim>
				</port>
			</input>
			<output>
				<port id="1" precision="I64">
					<dim>4</dim>
				</port>
			</output>
		</layer>
		<layer id="126" name="Constant_4178" type="Const" version="opset1">
			<data element_type="i64" shape="" offset="1022" size="8" />
			<rt_info>
				<attribute name="precise" version="0" />
			</rt_info>
			<output>
				<port id="0" precision="I64" />
			</output>
		</layer>
		<layer id="127" name="Constant_4179" type="Const" version="opset1">
			<data element_type="i64" shape="2" offset="1030" size="16" />
			<rt_info>
				<attribute name="precise" version="0" />
			</rt_info>
			<output>
				<port id="0" precision="I64">
					<dim>2</dim>
				</port>
			</output>
		</layer>
		<layer id="128" name="VariadicSplit_4182" type="VariadicSplit" version="opset1">
			<input>
				<port id="0" precision="I64">
					<dim>4</dim>
				</port>
				<port id="1" precision="I64" />
				<port id="2" precision="I64">
					<dim>2</dim>
				</port>
			</input>
			<output>
				<port id="3" precision="I64">
					<dim>1</dim>
				</port>
				<port id="4" precision="I64">
					<dim>3</dim>
				</port>
			</output>
		</layer>
		<layer id="129" name="Divide_4183" type="Divide" version="opset1">
			<data auto_broadcast="numpy" m_pythondiv="true" />
			<input>
				<port id="0" precision="I64">
					<dim>1</dim>
				</port>
				<port id="1" precision="I64">
					<dim>1</dim>
				</port>
			</input>
			<output>
				<port id="2" precision="I64">
					<dim>1</dim>
				</port>
			</output>
		</layer>
		<layer id="130" name="Concat_4184" type="Concat" version="opset1">
			<data axis="0" />
			<input>
				<port id="0" precision="I64">
					<dim>1</dim>
				</port>
				<port id="1" precision="I64">
					<dim>1</dim>
				</port>
				<port id="2" precision="I64">
					<dim>3</dim>
				</port>
			</input>
			<output>
				<port id="3" precision="I64">
					<dim>5</dim>
				</port>
			</output>
		</layer>
		<layer id="131" name="Reshape_4185" type="Reshape" version="opset1">
			<data special_zero="false" />
			<input>
				<port id="0" precision="FP32">
					<dim>40</dim>
					<dim>1</dim>
					<dim>3</dim>
					<dim>3</dim>
				</port>
				<port id="1" precision="I64">
					<dim>5</dim>
				</port>
			</input>
			<output>
				<port id="2" precision="FP32">
					<dim>40</dim>
					<dim>1</dim>
					<dim>1</dim>
					<dim>3</dim>
					<dim>3</dim>
				</port>
			</output>
		</layer>
		<layer id="132" name="Conv_8" type="GroupConvolution" version="opset1">
			<data strides="1, 1" pads_begin="1, 1" pads_end="1, 1" dilations="1, 1" auto_pad="explicit" />
			<input>
				<port id="0" precision="FP32">
					<dim>-1</dim>
					<dim>40</dim>
					<dim>-1</dim>
					<dim>-1</dim>
				</port>
				<port id="1" precision="FP32">
					<dim>40</dim>
					<dim>1</dim>
					<dim>1</dim>
					<dim>3</dim>
					<dim>3</dim>
				</port>
			</input>
			<output>
				<port id="2" precision="FP32" names="depthwise_conv2d_2.tmp_0">
					<dim>-1</dim>
					<dim>40</dim>
					<dim>-1</dim>
					<dim>-1</dim>
				</port>
			</output>
		</layer>
		<layer id="133" name="batch_norm_8.w_0" type="Const" version="opset1">
			<data element_type="f32" shape="40" offset="6646" size="160" />
			<output>
				<port id="0" precision="FP32" names="batch_norm_8.w_0">
					<dim>40</dim>
				</port>
			</output>
		</layer>
		<layer id="134" name="batch_norm_8.b_0_compressed" type="Const" version="opset1">
			<data element_type="f16" shape="40" offset="6806" size="80" />
			<output>
				<port id="0" precision="FP16" names="batch_norm_8.b_0">
					<dim>40</dim>
				</port>
			</output>
		</layer>
		<layer id="135" name="batch_norm_8.b_0" type="Convert" version="opset1">
			<data destination_type="f32" />
			<rt_info>
				<attribute name="decompression" version="0" />
			</rt_info>
			<input>
				<port id="0" precision="FP16">
					<dim>40</dim>
				</port>
			</input>
			<output>
				<port id="1" precision="FP32">
					<dim>40</dim>
				</port>
			</output>
		</layer>
		<layer id="136" name="batch_norm_8.w_1_compressed" type="Const" version="opset1">
			<data element_type="f16" shape="40" offset="6886" size="80" />
			<output>
				<port id="0" precision="FP16" names="batch_norm_8.w_1">
					<dim>40</dim>
				</port>
			</output>
		</layer>
		<layer id="137" name="batch_norm_8.w_1" type="Convert" version="opset1">
			<data destination_type="f32" />
			<rt_info>
				<attribute name="decompression" version="0" />
			</rt_info>
			<input>
				<port id="0" precision="FP16">
					<dim>40</dim>
				</port>
			</input>
			<output>
				<port id="1" precision="FP32">
					<dim>40</dim>
				</port>
			</output>
		</layer>
		<layer id="138" name="batch_norm_8.w_2_compressed" type="Const" version="opset1">
			<data element_type="f16" shape="40" offset="6966" size="80" />
			<output>
				<port id="0" precision="FP16" names="batch_norm_8.w_2">
					<dim>40</dim>
				</port>
			</output>
		</layer>
		<layer id="139" name="batch_norm_8.w_2" type="Convert" version="opset1">
			<data destination_type="f32" />
			<rt_info>
				<attribute name="decompression" version="0" />
			</rt_info>
			<input>
				<port id="0" precision="FP16">
					<dim>40</dim>
				</port>
			</input>
			<output>
				<port id="1" precision="FP32">
					<dim>40</dim>
				</port>
			</output>
		</layer>
		<layer id="140" name="BatchNormalization_8" type="BatchNormInference" version="opset5">
			<data epsilon="9.9999997473787516e-06" />
			<input>
				<port id="0" precision="FP32">
					<dim>-1</dim>
					<dim>40</dim>
					<dim>-1</dim>
					<dim>-1</dim>
				</port>
				<port id="1" precision="FP32">
					<dim>40</dim>
				</port>
				<port id="2" precision="FP32">
					<dim>40</dim>
				</port>
				<port id="3" precision="FP32">
					<dim>40</dim>
				</port>
				<port id="4" precision="FP32">
					<dim>40</dim>
				</port>
			</input>
			<output>
				<port id="5" precision="FP32" names="batch_norm_8.tmp_3">
					<dim>-1</dim>
					<dim>40</dim>
					<dim>-1</dim>
					<dim>-1</dim>
				</port>
			</output>
		</layer>
		<layer id="141" name="Relu_5" type="ReLU" version="opset1">
			<input>
				<port id="0" precision="FP32">
					<dim>-1</dim>
					<dim>40</dim>
					<dim>-1</dim>
					<dim>-1</dim>
				</port>
			</input>
			<output>
				<port id="1" precision="FP32" names="relu_5.tmp_0">
					<dim>-1</dim>
					<dim>40</dim>
					<dim>-1</dim>
					<dim>-1</dim>
				</port>
			</output>
		</layer>
		<layer id="142" name="conv2d_9.w_0_compressed" type="Const" version="opset1">
			<data element_type="f16" shape="16, 40, 1, 1" offset="7046" size="1280" />
			<output>
				<port id="0" precision="FP16" names="conv2d_9.w_0">
					<dim>16</dim>
					<dim>40</dim>
					<dim>1</dim>
					<dim>1</dim>
				</port>
			</output>
		</layer>
		<layer id="143" name="conv2d_9.w_0" type="Convert" version="opset1">
			<data destination_type="f32" />
			<rt_info>
				<attribute name="decompression" version="0" />
			</rt_info>
			<input>
				<port id="0" precision="FP16">
					<dim>16</dim>
					<dim>40</dim>
					<dim>1</dim>
					<dim>1</dim>
				</port>
			</input>
			<output>
				<port id="1" precision="FP32">
					<dim>16</dim>
					<dim>40</dim>
					<dim>1</dim>
					<dim>1</dim>
				</port>
			</output>
		</layer>
		<layer id="144" name="Conv_9" type="Convolution" version="opset1">
			<data strides="1, 1" dilations="1, 1" pads_begin="0, 0" pads_end="0, 0" auto_pad="explicit" />
			<input>
				<port id="0" precision="FP32">
					<dim>-1</dim>
					<dim>40</dim>
					<dim>-1</dim>
					<dim>-1</dim>
				</port>
				<port id="1" precision="FP32">
					<dim>16</dim>
					<dim>40</dim>
					<dim>1</dim>
					<dim>1</dim>
				</port>
			</input>
			<output>
				<port id="2" precision="FP32" names="conv2d_217.tmp_0">
					<dim>-1</dim>
					<dim>16</dim>
					<dim>-1</dim>
					<dim>-1</dim>
				</port>
			</output>
		</layer>
		<layer id="145" name="batch_norm_9.w_0" type="Const" version="opset1">
			<data element_type="f32" shape="16" offset="8326" size="64" />
			<output>
				<port id="0" precision="FP32" names="batch_norm_9.w_0">
					<dim>16</dim>
				</port>
			</output>
		</layer>
		<layer id="146" name="batch_norm_9.b_0_compressed" type="Const" version="opset1">
			<data element_type="f16" shape="16" offset="8390" size="32" />
			<output>
				<port id="0" precision="FP16" names="batch_norm_9.b_0">
					<dim>16</dim>
				</port>
			</output>
		</layer>
		<layer id="147" name="batch_norm_9.b_0" type="Convert" version="opset1">
			<data destination_type="f32" />
			<rt_info>
				<attribute name="decompression" version="0" />
			</rt_info>
			<input>
				<port id="0" precision="FP16">
					<dim>16</dim>
				</port>
			</input>
			<output>
				<port id="1" precision="FP32">
					<dim>16</dim>
				</port>
			</output>
		</layer>
		<layer id="148" name="batch_norm_9.w_1_compressed" type="Const" version="opset1">
			<data element_type="f16" shape="16" offset="8422" size="32" />
			<output>
				<port id="0" precision="FP16" names="batch_norm_9.w_1">
					<dim>16</dim>
				</port>
			</output>
		</layer>
		<layer id="149" name="batch_norm_9.w_1" type="Convert" version="opset1">
			<data destination_type="f32" />
			<rt_info>
				<attribute name="decompression" version="0" />
			</rt_info>
			<input>
				<port id="0" precision="FP16">
					<dim>16</dim>
				</port>
			</input>
			<output>
				<port id="1" precision="FP32">
					<dim>16</dim>
				</port>
			</output>
		</layer>
		<layer id="150" name="batch_norm_9.w_2" type="Const" version="opset1">
			<data element_type="f32" shape="16" offset="8454" size="64" />
			<output>
				<port id="0" precision="FP32" names="batch_norm_9.w_2">
					<dim>16</dim>
				</port>
			</output>
		</layer>
		<layer id="151" name="BatchNormalization_9" type="BatchNormInference" version="opset5">
			<data epsilon="9.9999997473787516e-06" />
			<input>
				<port id="0" precision="FP32">
					<dim>-1</dim>
					<dim>16</dim>
					<dim>-1</dim>
					<dim>-1</dim>
				</port>
				<port id="1" precision="FP32">
					<dim>16</dim>
				</port>
				<port id="2" precision="FP32">
					<dim>16</dim>
				</port>
				<port id="3" precision="FP32">
					<dim>16</dim>
				</port>
				<port id="4" precision="FP32">
					<dim>16</dim>
				</port>
			</input>
			<output>
				<port id="5" precision="FP32" names="batch_norm_9.tmp_3">
					<dim>-1</dim>
					<dim>16</dim>
					<dim>-1</dim>
					<dim>-1</dim>
				</port>
			</output>
		</layer>
		<layer id="152" name="Add_2" type="Add" version="opset1">
			<data auto_broadcast="numpy" />
			<input>
				<port id="0" precision="FP32">
					<dim>-1</dim>
					<dim>16</dim>
					<dim>-1</dim>
					<dim>-1</dim>
				</port>
				<port id="1" precision="FP32">
					<dim>-1</dim>
					<dim>16</dim>
					<dim>-1</dim>
					<dim>-1</dim>
				</port>
			</input>
			<output>
				<port id="2" precision="FP32" names="elementwise_add_1">
					<dim>-1</dim>
					<dim>16</dim>
					<dim>-1</dim>
					<dim>-1</dim>
				</port>
			</output>
		</layer>
		<layer id="153" name="conv2d_10.w_0_compressed" type="Const" version="opset1">
			<data element_type="f16" shape="40, 16, 1, 1" offset="8518" size="1280" />
			<output>
				<port id="0" precision="FP16" names="conv2d_10.w_0">
					<dim>40</dim>
					<dim>16</dim>
					<dim>1</dim>
					<dim>1</dim>
				</port>
			</output>
		</layer>
		<layer id="154" name="conv2d_10.w_0" type="Convert" version="opset1">
			<data destination_type="f32" />
			<rt_info>
				<attribute name="decompression" version="0" />
			</rt_info>
			<input>
				<port id="0" precision="FP16">
					<dim>40</dim>
					<dim>16</dim>
					<dim>1</dim>
					<dim>1</dim>
				</port>
			</input>
			<output>
				<port id="1" precision="FP32">
					<dim>40</dim>
					<dim>16</dim>
					<dim>1</dim>
					<dim>1</dim>
				</port>
			</output>
		</layer>
		<layer id="155" name="Conv_10" type="Convolution" version="opset1">
			<data strides="1, 1" dilations="1, 1" pads_begin="0, 0" pads_end="0, 0" auto_pad="explicit" />
			<input>
				<port id="0" precision="FP32">
					<dim>-1</dim>
					<dim>16</dim>
					<dim>-1</dim>
					<dim>-1</dim>
				</port>
				<port id="1" precision="FP32">
					<dim>40</dim>
					<dim>16</dim>
					<dim>1</dim>
					<dim>1</dim>
				</port>
			</input>
			<output>
				<port id="2" precision="FP32" names="conv2d_218.tmp_0">
					<dim>-1</dim>
					<dim>40</dim>
					<dim>-1</dim>
					<dim>-1</dim>
				</port>
			</output>
		</layer>
		<layer id="156" name="batch_norm_10.w_0" type="Const" version="opset1">
			<data element_type="f32" shape="40" offset="9798" size="160" />
			<output>
				<port id="0" precision="FP32" names="batch_norm_10.w_0">
					<dim>40</dim>
				</port>
			</output>
		</layer>
		<layer id="157" name="batch_norm_10.b_0" type="Const" version="opset1">
			<data element_type="f32" shape="40" offset="9958" size="160" />
			<output>
				<port id="0" precision="FP32" names="batch_norm_10.b_0">
					<dim>40</dim>
				</port>
			</output>
		</layer>
		<layer id="158" name="batch_norm_10.w_1" type="Const" version="opset1">
			<data element_type="f32" shape="40" offset="10118" size="160" />
			<output>
				<port id="0" precision="FP32" names="batch_norm_10.w_1">
					<dim>40</dim>
				</port>
			</output>
		</layer>
		<layer id="159" name="batch_norm_10.w_2_compressed" type="Const" version="opset1">
			<data element_type="f16" shape="40" offset="10278" size="80" />
			<output>
				<port id="0" precision="FP16" names="batch_norm_10.w_2">
					<dim>40</dim>
				</port>
			</output>
		</layer>
		<layer id="160" name="batch_norm_10.w_2" type="Convert" version="opset1">
			<data destination_type="f32" />
			<rt_info>
				<attribute name="decompression" version="0" />
			</rt_info>
			<input>
				<port id="0" precision="FP16">
					<dim>40</dim>
				</port>
			</input>
			<output>
				<port id="1" precision="FP32">
					<dim>40</dim>
				</port>
			</output>
		</layer>
		<layer id="161" name="BatchNormalization_10" type="BatchNormInference" version="opset5">
			<data epsilon="9.9999997473787516e-06" />
			<input>
				<port id="0" precision="FP32">
					<dim>-1</dim>
					<dim>40</dim>
					<dim>-1</dim>
					<dim>-1</dim>
				</port>
				<port id="1" precision="FP32">
					<dim>40</dim>
				</port>
				<port id="2" precision="FP32">
					<dim>40</dim>
				</port>
				<port id="3" precision="FP32">
					<dim>40</dim>
				</port>
				<port id="4" precision="FP32">
					<dim>40</dim>
				</port>
			</input>
			<output>
				<port id="5" precision="FP32" names="batch_norm_10.tmp_3">
					<dim>-1</dim>
					<dim>40</dim>
					<dim>-1</dim>
					<dim>-1</dim>
				</port>
			</output>
		</layer>
		<layer id="162" name="Relu_6" type="ReLU" version="opset1">
			<input>
				<port id="0" precision="FP32">
					<dim>-1</dim>
					<dim>40</dim>
					<dim>-1</dim>
					<dim>-1</dim>
				</port>
			</input>
			<output>
				<port id="1" precision="FP32" names="relu_6.tmp_0">
					<dim>-1</dim>
					<dim>40</dim>
					<dim>-1</dim>
					<dim>-1</dim>
				</port>
			</output>
		</layer>
		<layer id="163" name="conv2d_11.w_0_compressed" type="Const" version="opset1">
			<data element_type="f16" shape="40, 1, 5, 5" offset="10358" size="2000" />
			<output>
				<port id="0" precision="FP16" names="conv2d_11.w_0">
					<dim>40</dim>
					<dim>1</dim>
					<dim>5</dim>
					<dim>5</dim>
				</port>
			</output>
		</layer>
		<layer id="164" name="conv2d_11.w_0" type="Convert" version="opset1">
			<data destination_type="f32" />
			<rt_info>
				<attribute name="decompression" version="0" />
			</rt_info>
			<input>
				<port id="0" precision="FP16">
					<dim>40</dim>
					<dim>1</dim>
					<dim>5</dim>
					<dim>5</dim>
				</port>
			</input>
			<output>
				<port id="1" precision="FP32">
					<dim>40</dim>
					<dim>1</dim>
					<dim>5</dim>
					<dim>5</dim>
				</port>
			</output>
		</layer>
		<layer id="165" name="Constant_4252" type="Const" version="opset1">
			<data element_type="i64" shape="1" offset="6638" size="8" />
			<rt_info>
				<attribute name="precise" version="0" />
			</rt_info>
			<output>
				<port id="0" precision="I64">
					<dim>1</dim>
				</port>
			</output>
		</layer>
		<layer id="166" name="ShapeOf_4253" type="ShapeOf" version="opset3">
			<data output_type="i64" />
			<input>
				<port id="0" precision="FP32">
					<dim>40</dim>
					<dim>1</dim>
					<dim>5</dim>
					<dim>5</dim>
				</port>
			</input>
			<output>
				<port id="1" precision="I64">
					<dim>4</dim>
				</port>
			</output>
		</layer>
		<layer id="167" name="Constant_4250" type="Const" version="opset1">
			<data element_type="i64" shape="" offset="1022" size="8" />
			<rt_info>
				<attribute name="precise" version="0" />
			</rt_info>
			<output>
				<port id="0" precision="I64" />
			</output>
		</layer>
		<layer id="168" name="Constant_4251" type="Const" version="opset1">
			<data element_type="i64" shape="2" offset="1030" size="16" />
			<rt_info>
				<attribute name="precise" version="0" />
			</rt_info>
			<output>
				<port id="0" precision="I64">
					<dim>2</dim>
				</port>
			</output>
		</layer>
		<layer id="169" name="VariadicSplit_4254" type="VariadicSplit" version="opset1">
			<input>
				<port id="0" precision="I64">
					<dim>4</dim>
				</port>
				<port id="1" precision="I64" />
				<port id="2" precision="I64">
					<dim>2</dim>
				</port>
			</input>
			<output>
				<port id="3" precision="I64">
					<dim>1</dim>
				</port>
				<port id="4" precision="I64">
					<dim>3</dim>
				</port>
			</output>
		</layer>
		<layer id="170" name="Divide_4255" type="Divide" version="opset1">
			<data auto_broadcast="numpy" m_pythondiv="true" />
			<input>
				<port id="0" precision="I64">
					<dim>1</dim>
				</port>
				<port id="1" precision="I64">
					<dim>1</dim>
				</port>
			</input>
			<output>
				<port id="2" precision="I64">
					<dim>1</dim>
				</port>
			</output>
		</layer>
		<layer id="171" name="Concat_4256" type="Concat" version="opset1">
			<data axis="0" />
			<input>
				<port id="0" precision="I64">
					<dim>1</dim>
				</port>
				<port id="1" precision="I64">
					<dim>1</dim>
				</port>
				<port id="2" precision="I64">
					<dim>3</dim>
				</port>
			</input>
			<output>
				<port id="3" precision="I64">
					<dim>5</dim>
				</port>
			</output>
		</layer>
		<layer id="172" name="Reshape_4257" type="Reshape" version="opset1">
			<data special_zero="false" />
			<input>
				<port id="0" precision="FP32">
					<dim>40</dim>
					<dim>1</dim>
					<dim>5</dim>
					<dim>5</dim>
				</port>
				<port id="1" precision="I64">
					<dim>5</dim>
				</port>
			</input>
			<output>
				<port id="2" precision="FP32">
					<dim>40</dim>
					<dim>1</dim>
					<dim>1</dim>
					<dim>5</dim>
					<dim>5</dim>
				</port>
			</output>
		</layer>
		<layer id="173" name="Conv_11" type="GroupConvolution" version="opset1">
			<data strides="2, 2" pads_begin="2, 2" pads_end="2, 2" dilations="1, 1" auto_pad="explicit" />
			<input>
				<port id="0" precision="FP32">
					<dim>-1</dim>
					<dim>40</dim>
					<dim>-1</dim>
					<dim>-1</dim>
				</port>
				<port id="1" precision="FP32">
					<dim>40</dim>
					<dim>1</dim>
					<dim>1</dim>
					<dim>5</dim>
					<dim>5</dim>
				</port>
			</input>
			<output>
				<port id="2" precision="FP32" names="depthwise_conv2d_3.tmp_0">
					<dim>-1</dim>
					<dim>40</dim>
					<dim>-1</dim>
					<dim>-1</dim>
				</port>
			</output>
		</layer>
		<layer id="174" name="batch_norm_11.w_0_compressed" type="Const" version="opset1">
			<data element_type="f16" shape="40" offset="12358" size="80" />
			<output>
				<port id="0" precision="FP16" names="batch_norm_11.w_0">
					<dim>40</dim>
				</port>
			</output>
		</layer>
		<layer id="175" name="batch_norm_11.w_0" type="Convert" version="opset1">
			<data destination_type="f32" />
			<rt_info>
				<attribute name="decompression" version="0" />
			</rt_info>
			<input>
				<port id="0" precision="FP16">
					<dim>40</dim>
				</port>
			</input>
			<output>
				<port id="1" precision="FP32">
					<dim>40</dim>
				</port>
			</output>
		</layer>
		<layer id="176" name="batch_norm_11.b_0" type="Const" version="opset1">
			<data element_type="f32" shape="40" offset="12438" size="160" />
			<output>
				<port id="0" precision="FP32" names="batch_norm_11.b_0">
					<dim>40</dim>
				</port>
			</output>
		</layer>
		<layer id="177" name="batch_norm_11.w_1_compressed" type="Const" version="opset1">
			<data element_type="f16" shape="40" offset="12598" size="80" />
			<output>
				<port id="0" precision="FP16" names="batch_norm_11.w_1">
					<dim>40</dim>
				</port>
			</output>
		</layer>
		<layer id="178" name="batch_norm_11.w_1" type="Convert" version="opset1">
			<data destination_type="f32" />
			<rt_info>
				<attribute name="decompression" version="0" />
			</rt_info>
			<input>
				<port id="0" precision="FP16">
					<dim>40</dim>
				</port>
			</input>
			<output>
				<port id="1" precision="FP32">
					<dim>40</dim>
				</port>
			</output>
		</layer>
		<layer id="179" name="batch_norm_11.w_2" type="Const" version="opset1">
			<data element_type="f32" shape="40" offset="12678" size="160" />
			<output>
				<port id="0" precision="FP32" names="batch_norm_11.w_2">
					<dim>40</dim>
				</port>
			</output>
		</layer>
		<layer id="180" name="BatchNormalization_11" type="BatchNormInference" version="opset5">
			<data epsilon="9.9999997473787516e-06" />
			<input>
				<port id="0" precision="FP32">
					<dim>-1</dim>
					<dim>40</dim>
					<dim>-1</dim>
					<dim>-1</dim>
				</port>
				<port id="1" precision="FP32">
					<dim>40</dim>
				</port>
				<port id="2" precision="FP32">
					<dim>40</dim>
				</port>
				<port id="3" precision="FP32">
					<dim>40</dim>
				</port>
				<port id="4" precision="FP32">
					<dim>40</dim>
				</port>
			</input>
			<output>
				<port id="5" precision="FP32" names="batch_norm_11.tmp_3">
					<dim>-1</dim>
					<dim>40</dim>
					<dim>-1</dim>
					<dim>-1</dim>
				</port>
			</output>
		</layer>
		<layer id="181" name="Relu_7" type="ReLU" version="opset1">
			<input>
				<port id="0" precision="FP32">
					<dim>-1</dim>
					<dim>40</dim>
					<dim>-1</dim>
					<dim>-1</dim>
				</port>
			</input>
			<output>
				<port id="1" precision="FP32" names="relu_7.tmp_0">
					<dim>-1</dim>
					<dim>40</dim>
					<dim>-1</dim>
					<dim>-1</dim>
				</port>
			</output>
		</layer>
		<layer id="182" name="conv2d_12.w_0_compressed" type="Const" version="opset1">
			<data element_type="f16" shape="24, 40, 1, 1" offset="12838" size="1920" />
			<output>
				<port id="0" precision="FP16" names="conv2d_12.w_0">
					<dim>24</dim>
					<dim>40</dim>
					<dim>1</dim>
					<dim>1</dim>
				</port>
			</output>
		</layer>
		<layer id="183" name="conv2d_12.w_0" type="Convert" version="opset1">
			<data destination_type="f32" />
			<rt_info>
				<attribute name="decompression" version="0" />
			</rt_info>
			<input>
				<port id="0" precision="FP16">
					<dim>24</dim>
					<dim>40</dim>
					<dim>1</dim>
					<dim>1</dim>
				</port>
			</input>
			<output>
				<port id="1" precision="FP32">
					<dim>24</dim>
					<dim>40</dim>
					<dim>1</dim>
					<dim>1</dim>
				</port>
			</output>
		</layer>
		<layer id="184" name="Conv_12" type="Convolution" version="opset1">
			<data strides="1, 1" dilations="1, 1" pads_begin="0, 0" pads_end="0, 0" auto_pad="explicit" />
			<input>
				<port id="0" precision="FP32">
					<dim>-1</dim>
					<dim>40</dim>
					<dim>-1</dim>
					<dim>-1</dim>
				</port>
				<port id="1" precision="FP32">
					<dim>24</dim>
					<dim>40</dim>
					<dim>1</dim>
					<dim>1</dim>
				</port>
			</input>
			<output>
				<port id="2" precision="FP32" names="conv2d_219.tmp_0">
					<dim>-1</dim>
					<dim>24</dim>
					<dim>-1</dim>
					<dim>-1</dim>
				</port>
			</output>
		</layer>
		<layer id="185" name="batch_norm_12.w_0_compressed" type="Const" version="opset1">
			<data element_type="f16" shape="24" offset="14758" size="48" />
			<output>
				<port id="0" precision="FP16" names="batch_norm_12.w_0">
					<dim>24</dim>
				</port>
			</output>
		</layer>
		<layer id="186" name="batch_norm_12.w_0" type="Convert" version="opset1">
			<data destination_type="f32" />
			<rt_info>
				<attribute name="decompression" version="0" />
			</rt_info>
			<input>
				<port id="0" precision="FP16">
					<dim>24</dim>
				</port>
			</input>
			<output>
				<port id="1" precision="FP32">
					<dim>24</dim>
				</port>
			</output>
		</layer>
		<layer id="187" name="batch_norm_12.b_0_compressed" type="Const" version="opset1">
			<data element_type="f16" shape="24" offset="14806" size="48" />
			<output>
				<port id="0" precision="FP16" names="batch_norm_12.b_0">
					<dim>24</dim>
				</port>
			</output>
		</layer>
		<layer id="188" name="batch_norm_12.b_0" type="Convert" version="opset1">
			<data destination_type="f32" />
			<rt_info>
				<attribute name="decompression" version="0" />
			</rt_info>
			<input>
				<port id="0" precision="FP16">
					<dim>24</dim>
				</port>
			</input>
			<output>
				<port id="1" precision="FP32">
					<dim>24</dim>
				</port>
			</output>
		</layer>
		<layer id="189" name="batch_norm_12.w_1_compressed" type="Const" version="opset1">
			<data element_type="f16" shape="24" offset="14854" size="48" />
			<output>
				<port id="0" precision="FP16" names="batch_norm_12.w_1">
					<dim>24</dim>
				</port>
			</output>
		</layer>
		<layer id="190" name="batch_norm_12.w_1" type="Convert" version="opset1">
			<data destination_type="f32" />
			<rt_info>
				<attribute name="decompression" version="0" />
			</rt_info>
			<input>
				<port id="0" precision="FP16">
					<dim>24</dim>
				</port>
			</input>
			<output>
				<port id="1" precision="FP32">
					<dim>24</dim>
				</port>
			</output>
		</layer>
		<layer id="191" name="batch_norm_12.w_2_compressed" type="Const" version="opset1">
			<data element_type="f16" shape="24" offset="14902" size="48" />
			<output>
				<port id="0" precision="FP16" names="batch_norm_12.w_2">
					<dim>24</dim>
				</port>
			</output>
		</layer>
		<layer id="192" name="batch_norm_12.w_2" type="Convert" version="opset1">
			<data destination_type="f32" />
			<rt_info>
				<attribute name="decompression" version="0" />
			</rt_info>
			<input>
				<port id="0" precision="FP16">
					<dim>24</dim>
				</port>
			</input>
			<output>
				<port id="1" precision="FP32">
					<dim>24</dim>
				</port>
			</output>
		</layer>
		<layer id="193" name="BatchNormalization_12" type="BatchNormInference" version="opset5">
			<data epsilon="9.9999997473787516e-06" />
			<input>
				<port id="0" precision="FP32">
					<dim>-1</dim>
					<dim>24</dim>
					<dim>-1</dim>
					<dim>-1</dim>
				</port>
				<port id="1" precision="FP32">
					<dim>24</dim>
				</port>
				<port id="2" precision="FP32">
					<dim>24</dim>
				</port>
				<port id="3" precision="FP32">
					<dim>24</dim>
				</port>
				<port id="4" precision="FP32">
					<dim>24</dim>
				</port>
			</input>
			<output>
				<port id="5" precision="FP32" names="batch_norm_12.tmp_3">
					<dim>-1</dim>
					<dim>24</dim>
					<dim>-1</dim>
					<dim>-1</dim>
				</port>
			</output>
		</layer>
		<layer id="194" name="conv2d_13.w_0_compressed" type="Const" version="opset1">
			<data element_type="f16" shape="64, 24, 1, 1" offset="14950" size="3072" />
			<output>
				<port id="0" precision="FP16" names="conv2d_13.w_0">
					<dim>64</dim>
					<dim>24</dim>
					<dim>1</dim>
					<dim>1</dim>
				</port>
			</output>
		</layer>
		<layer id="195" name="conv2d_13.w_0" type="Convert" version="opset1">
			<data destination_type="f32" />
			<rt_info>
				<attribute name="decompression" version="0" />
			</rt_info>
			<input>
				<port id="0" precision="FP16">
					<dim>64</dim>
					<dim>24</dim>
					<dim>1</dim>
					<dim>1</dim>
				</port>
			</input>
			<output>
				<port id="1" precision="FP32">
					<dim>64</dim>
					<dim>24</dim>
					<dim>1</dim>
					<dim>1</dim>
				</port>
			</output>
		</layer>
		<layer id="196" name="Conv_13" type="Convolution" version="opset1">
			<data strides="1, 1" dilations="1, 1" pads_begin="0, 0" pads_end="0, 0" auto_pad="explicit" />
			<input>
				<port id="0" precision="FP32">
					<dim>-1</dim>
					<dim>24</dim>
					<dim>-1</dim>
					<dim>-1</dim>
				</port>
				<port id="1" precision="FP32">
					<dim>64</dim>
					<dim>24</dim>
					<dim>1</dim>
					<dim>1</dim>
				</port>
			</input>
			<output>
				<port id="2" precision="FP32" names="conv2d_220.tmp_0">
					<dim>-1</dim>
					<dim>64</dim>
					<dim>-1</dim>
					<dim>-1</dim>
				</port>
			</output>
		</layer>
		<layer id="197" name="batch_norm_13.w_0_compressed" type="Const" version="opset1">
			<data element_type="f16" shape="64" offset="18022" size="128" />
			<output>
				<port id="0" precision="FP16" names="batch_norm_13.w_0">
					<dim>64</dim>
				</port>
			</output>
		</layer>
		<layer id="198" name="batch_norm_13.w_0" type="Convert" version="opset1">
			<data destination_type="f32" />
			<rt_info>
				<attribute name="decompression" version="0" />
			</rt_info>
			<input>
				<port id="0" precision="FP16">
					<dim>64</dim>
				</port>
			</input>
			<output>
				<port id="1" precision="FP32">
					<dim>64</dim>
				</port>
			</output>
		</layer>
		<layer id="199" name="batch_norm_13.b_0_compressed" type="Const" version="opset1">
			<data element_type="f16" shape="64" offset="18150" size="128" />
			<output>
				<port id="0" precision="FP16" names="batch_norm_13.b_0">
					<dim>64</dim>
				</port>
			</output>
		</layer>
		<layer id="200" name="batch_norm_13.b_0" type="Convert" version="opset1">
			<data destination_type="f32" />
			<rt_info>
				<attribute name="decompression" version="0" />
			</rt_info>
			<input>
				<port id="0" precision="FP16">
					<dim>64</dim>
				</port>
			</input>
			<output>
				<port id="1" precision="FP32">
					<dim>64</dim>
				</port>
			</output>
		</layer>
		<layer id="201" name="batch_norm_13.w_1_compressed" type="Const" version="opset1">
			<data element_type="f16" shape="64" offset="18278" size="128" />
			<output>
				<port id="0" precision="FP16" names="batch_norm_13.w_1">
					<dim>64</dim>
				</port>
			</output>
		</layer>
		<layer id="202" name="batch_norm_13.w_1" type="Convert" version="opset1">
			<data destination_type="f32" />
			<rt_info>
				<attribute name="decompression" version="0" />
			</rt_info>
			<input>
				<port id="0" precision="FP16">
					<dim>64</dim>
				</port>
			</input>
			<output>
				<port id="1" precision="FP32">
					<dim>64</dim>
				</port>
			</output>
		</layer>
		<layer id="203" name="batch_norm_13.w_2_compressed" type="Const" version="opset1">
			<data element_type="f16" shape="64" offset="18406" size="128" />
			<output>
				<port id="0" precision="FP16" names="batch_norm_13.w_2">
					<dim>64</dim>
				</port>
			</output>
		</layer>
		<layer id="204" name="batch_norm_13.w_2" type="Convert" version="opset1">
			<data destination_type="f32" />
			<rt_info>
				<attribute name="decompression" version="0" />
			</rt_info>
			<input>
				<port id="0" precision="FP16">
					<dim>64</dim>
				</port>
			</input>
			<output>
				<port id="1" precision="FP32">
					<dim>64</dim>
				</port>
			</output>
		</layer>
		<layer id="205" name="BatchNormalization_13" type="BatchNormInference" version="opset5">
			<data epsilon="9.9999997473787516e-06" />
			<input>
				<port id="0" precision="FP32">
					<dim>-1</dim>
					<dim>64</dim>
					<dim>-1</dim>
					<dim>-1</dim>
				</port>
				<port id="1" precision="FP32">
					<dim>64</dim>
				</port>
				<port id="2" precision="FP32">
					<dim>64</dim>
				</port>
				<port id="3" precision="FP32">
					<dim>64</dim>
				</port>
				<port id="4" precision="FP32">
					<dim>64</dim>
				</port>
			</input>
			<output>
				<port id="5" precision="FP32" names="batch_norm_13.tmp_3">
					<dim>-1</dim>
					<dim>64</dim>
					<dim>-1</dim>
					<dim>-1</dim>
				</port>
			</output>
		</layer>
		<layer id="206" name="Relu_8" type="ReLU" version="opset1">
			<input>
				<port id="0" precision="FP32">
					<dim>-1</dim>
					<dim>64</dim>
					<dim>-1</dim>
					<dim>-1</dim>
				</port>
			</input>
			<output>
				<port id="1" precision="FP32" names="relu_8.tmp_0">
					<dim>-1</dim>
					<dim>64</dim>
					<dim>-1</dim>
					<dim>-1</dim>
				</port>
			</output>
		</layer>
		<layer id="207" name="conv2d_14.w_0_compressed" type="Const" version="opset1">
			<data element_type="f16" shape="64, 1, 5, 5" offset="18534" size="3200" />
			<output>
				<port id="0" precision="FP16" names="conv2d_14.w_0">
					<dim>64</dim>
					<dim>1</dim>
					<dim>5</dim>
					<dim>5</dim>
				</port>
			</output>
		</layer>
		<layer id="208" name="conv2d_14.w_0" type="Convert" version="opset1">
			<data destination_type="f32" />
			<rt_info>
				<attribute name="decompression" version="0" />
			</rt_info>
			<input>
				<port id="0" precision="FP16">
					<dim>64</dim>
					<dim>1</dim>
					<dim>5</dim>
					<dim>5</dim>
				</port>
			</input>
			<output>
				<port id="1" precision="FP32">
					<dim>64</dim>
					<dim>1</dim>
					<dim>5</dim>
					<dim>5</dim>
				</port>
			</output>
		</layer>
		<layer id="209" name="Constant_4319" type="Const" version="opset1">
			<data element_type="i64" shape="1" offset="21734" size="8" />
			<rt_info>
				<attribute name="precise" version="0" />
			</rt_info>
			<output>
				<port id="0" precision="I64">
					<dim>1</dim>
				</port>
			</output>
		</layer>
		<layer id="210" name="ShapeOf_4320" type="ShapeOf" version="opset3">
			<data output_type="i64" />
			<input>
				<port id="0" precision="FP32">
					<dim>64</dim>
					<dim>1</dim>
					<dim>5</dim>
					<dim>5</dim>
				</port>
			</input>
			<output>
				<port id="1" precision="I64">
					<dim>4</dim>
				</port>
			</output>
		</layer>
		<layer id="211" name="Constant_4317" type="Const" version="opset1">
			<data element_type="i64" shape="" offset="1022" size="8" />
			<rt_info>
				<attribute name="precise" version="0" />
			</rt_info>
			<output>
				<port id="0" precision="I64" />
			</output>
		</layer>
		<layer id="212" name="Constant_4318" type="Const" version="opset1">
			<data element_type="i64" shape="2" offset="1030" size="16" />
			<rt_info>
				<attribute name="precise" version="0" />
			</rt_info>
			<output>
				<port id="0" precision="I64">
					<dim>2</dim>
				</port>
			</output>
		</layer>
		<layer id="213" name="VariadicSplit_4321" type="VariadicSplit" version="opset1">
			<input>
				<port id="0" precision="I64">
					<dim>4</dim>
				</port>
				<port id="1" precision="I64" />
				<port id="2" precision="I64">
					<dim>2</dim>
				</port>
			</input>
			<output>
				<port id="3" precision="I64">
					<dim>1</dim>
				</port>
				<port id="4" precision="I64">
					<dim>3</dim>
				</port>
			</output>
		</layer>
		<layer id="214" name="Divide_4322" type="Divide" version="opset1">
			<data auto_broadcast="numpy" m_pythondiv="true" />
			<input>
				<port id="0" precision="I64">
					<dim>1</dim>
				</port>
				<port id="1" precision="I64">
					<dim>1</dim>
				</port>
			</input>
			<output>
				<port id="2" precision="I64">
					<dim>1</dim>
				</port>
			</output>
		</layer>
		<layer id="215" name="Concat_4323" type="Concat" version="opset1">
			<data axis="0" />
			<input>
				<port id="0" precision="I64">
					<dim>1</dim>
				</port>
				<port id="1" precision="I64">
					<dim>1</dim>
				</port>
				<port id="2" precision="I64">
					<dim>3</dim>
				</port>
			</input>
			<output>
				<port id="3" precision="I64">
					<dim>5</dim>
				</port>
			</output>
		</layer>
		<layer id="216" name="Reshape_4324" type="Reshape" version="opset1">
			<data special_zero="false" />
			<input>
				<port id="0" precision="FP32">
					<dim>64</dim>
					<dim>1</dim>
					<dim>5</dim>
					<dim>5</dim>
				</port>
				<port id="1" precision="I64">
					<dim>5</dim>
				</port>
			</input>
			<output>
				<port id="2" precision="FP32">
					<dim>64</dim>
					<dim>1</dim>
					<dim>1</dim>
					<dim>5</dim>
					<dim>5</dim>
				</port>
			</output>
		</layer>
		<layer id="217" name="Conv_14" type="GroupConvolution" version="opset1">
			<data strides="1, 1" pads_begin="2, 2" pads_end="2, 2" dilations="1, 1" auto_pad="explicit" />
			<input>
				<port id="0" precision="FP32">
					<dim>-1</dim>
					<dim>64</dim>
					<dim>-1</dim>
					<dim>-1</dim>
				</port>
				<port id="1" precision="FP32">
					<dim>64</dim>
					<dim>1</dim>
					<dim>1</dim>
					<dim>5</dim>
					<dim>5</dim>
				</port>
			</input>
			<output>
				<port id="2" precision="FP32" names="depthwise_conv2d_4.tmp_0">
					<dim>-1</dim>
					<dim>64</dim>
					<dim>-1</dim>
					<dim>-1</dim>
				</port>
			</output>
		</layer>
		<layer id="218" name="batch_norm_14.w_0_compressed" type="Const" version="opset1">
			<data element_type="f16" shape="64" offset="21742" size="128" />
			<output>
				<port id="0" precision="FP16" names="batch_norm_14.w_0">
					<dim>64</dim>
				</port>
			</output>
		</layer>
		<layer id="219" name="batch_norm_14.w_0" type="Convert" version="opset1">
			<data destination_type="f32" />
			<rt_info>
				<attribute name="decompression" version="0" />
			</rt_info>
			<input>
				<port id="0" precision="FP16">
					<dim>64</dim>
				</port>
			</input>
			<output>
				<port id="1" precision="FP32">
					<dim>64</dim>
				</port>
			</output>
		</layer>
		<layer id="220" name="batch_norm_14.b_0_compressed" type="Const" version="opset1">
			<data element_type="f16" shape="64" offset="21870" size="128" />
			<output>
				<port id="0" precision="FP16" names="batch_norm_14.b_0">
					<dim>64</dim>
				</port>
			</output>
		</layer>
		<layer id="221" name="batch_norm_14.b_0" type="Convert" version="opset1">
			<data destination_type="f32" />
			<rt_info>
				<attribute name="decompression" version="0" />
			</rt_info>
			<input>
				<port id="0" precision="FP16">
					<dim>64</dim>
				</port>
			</input>
			<output>
				<port id="1" precision="FP32">
					<dim>64</dim>
				</port>
			</output>
		</layer>
		<layer id="222" name="batch_norm_14.w_1_compressed" type="Const" version="opset1">
			<data element_type="f16" shape="64" offset="21998" size="128" />
			<output>
				<port id="0" precision="FP16" names="batch_norm_14.w_1">
					<dim>64</dim>
				</port>
			</output>
		</layer>
		<layer id="223" name="batch_norm_14.w_1" type="Convert" version="opset1">
			<data destination_type="f32" />
			<rt_info>
				<attribute name="decompression" version="0" />
			</rt_info>
			<input>
				<port id="0" precision="FP16">
					<dim>64</dim>
				</port>
			</input>
			<output>
				<port id="1" precision="FP32">
					<dim>64</dim>
				</port>
			</output>
		</layer>
		<layer id="224" name="batch_norm_14.w_2" type="Const" version="opset1">
			<data element_type="f32" shape="64" offset="22126" size="256" />
			<output>
				<port id="0" precision="FP32" names="batch_norm_14.w_2">
					<dim>64</dim>
				</port>
			</output>
		</layer>
		<layer id="225" name="BatchNormalization_14" type="BatchNormInference" version="opset5">
			<data epsilon="9.9999997473787516e-06" />
			<input>
				<port id="0" precision="FP32">
					<dim>-1</dim>
					<dim>64</dim>
					<dim>-1</dim>
					<dim>-1</dim>
				</port>
				<port id="1" precision="FP32">
					<dim>64</dim>
				</port>
				<port id="2" precision="FP32">
					<dim>64</dim>
				</port>
				<port id="3" precision="FP32">
					<dim>64</dim>
				</port>
				<port id="4" precision="FP32">
					<dim>64</dim>
				</port>
			</input>
			<output>
				<port id="5" precision="FP32" names="batch_norm_14.tmp_3">
					<dim>-1</dim>
					<dim>64</dim>
					<dim>-1</dim>
					<dim>-1</dim>
				</port>
			</output>
		</layer>
		<layer id="226" name="Relu_9" type="ReLU" version="opset1">
			<input>
				<port id="0" precision="FP32">
					<dim>-1</dim>
					<dim>64</dim>
					<dim>-1</dim>
					<dim>-1</dim>
				</port>
			</input>
			<output>
				<port id="1" precision="FP32" names="relu_9.tmp_0">
					<dim>-1</dim>
					<dim>64</dim>
					<dim>-1</dim>
					<dim>-1</dim>
				</port>
			</output>
		</layer>
		<layer id="227" name="conv2d_15.w_0_compressed" type="Const" version="opset1">
			<data element_type="f16" shape="24, 64, 1, 1" offset="22382" size="3072" />
			<output>
				<port id="0" precision="FP16" names="conv2d_15.w_0">
					<dim>24</dim>
					<dim>64</dim>
					<dim>1</dim>
					<dim>1</dim>
				</port>
			</output>
		</layer>
		<layer id="228" name="conv2d_15.w_0" type="Convert" version="opset1">
			<data destination_type="f32" />
			<rt_info>
				<attribute name="decompression" version="0" />
			</rt_info>
			<input>
				<port id="0" precision="FP16">
					<dim>24</dim>
					<dim>64</dim>
					<dim>1</dim>
					<dim>1</dim>
				</port>
			</input>
			<output>
				<port id="1" precision="FP32">
					<dim>24</dim>
					<dim>64</dim>
					<dim>1</dim>
					<dim>1</dim>
				</port>
			</output>
		</layer>
		<layer id="229" name="Conv_15" type="Convolution" version="opset1">
			<data strides="1, 1" dilations="1, 1" pads_begin="0, 0" pads_end="0, 0" auto_pad="explicit" />
			<input>
				<port id="0" precision="FP32">
					<dim>-1</dim>
					<dim>64</dim>
					<dim>-1</dim>
					<dim>-1</dim>
				</port>
				<port id="1" precision="FP32">
					<dim>24</dim>
					<dim>64</dim>
					<dim>1</dim>
					<dim>1</dim>
				</port>
			</input>
			<output>
				<port id="2" precision="FP32" names="conv2d_221.tmp_0">
					<dim>-1</dim>
					<dim>24</dim>
					<dim>-1</dim>
					<dim>-1</dim>
				</port>
			</output>
		</layer>
		<layer id="230" name="batch_norm_15.w_0" type="Const" version="opset1">
			<data element_type="f32" shape="24" offset="25454" size="96" />
			<output>
				<port id="0" precision="FP32" names="batch_norm_15.w_0">
					<dim>24</dim>
				</port>
			</output>
		</layer>
		<layer id="231" name="batch_norm_15.b_0" type="Const" version="opset1">
			<data element_type="f32" shape="24" offset="25550" size="96" />
			<output>
				<port id="0" precision="FP32" names="batch_norm_15.b_0">
					<dim>24</dim>
				</port>
			</output>
		</layer>
		<layer id="232" name="batch_norm_15.w_1_compressed" type="Const" version="opset1">
			<data element_type="f16" shape="24" offset="25646" size="48" />
			<output>
				<port id="0" precision="FP16" names="batch_norm_15.w_1">
					<dim>24</dim>
				</port>
			</output>
		</layer>
		<layer id="233" name="batch_norm_15.w_1" type="Convert" version="opset1">
			<data destination_type="f32" />
			<rt_info>
				<attribute name="decompression" version="0" />
			</rt_info>
			<input>
				<port id="0" precision="FP16">
					<dim>24</dim>
				</port>
			</input>
			<output>
				<port id="1" precision="FP32">
					<dim>24</dim>
				</port>
			</output>
		</layer>
		<layer id="234" name="batch_norm_15.w_2_compressed" type="Const" version="opset1">
			<data element_type="f16" shape="24" offset="25694" size="48" />
			<output>
				<port id="0" precision="FP16" names="batch_norm_15.w_2">
					<dim>24</dim>
				</port>
			</output>
		</layer>
		<layer id="235" name="batch_norm_15.w_2" type="Convert" version="opset1">
			<data destination_type="f32" />
			<rt_info>
				<attribute name="decompression" version="0" />
			</rt_info>
			<input>
				<port id="0" precision="FP16">
					<dim>24</dim>
				</port>
			</input>
			<output>
				<port id="1" precision="FP32">
					<dim>24</dim>
				</port>
			</output>
		</layer>
		<layer id="236" name="BatchNormalization_15" type="BatchNormInference" version="opset5">
			<data epsilon="9.9999997473787516e-06" />
			<input>
				<port id="0" precision="FP32">
					<dim>-1</dim>
					<dim>24</dim>
					<dim>-1</dim>
					<dim>-1</dim>
				</port>
				<port id="1" precision="FP32">
					<dim>24</dim>
				</port>
				<port id="2" precision="FP32">
					<dim>24</dim>
				</port>
				<port id="3" precision="FP32">
					<dim>24</dim>
				</port>
				<port id="4" precision="FP32">
					<dim>24</dim>
				</port>
			</input>
			<output>
				<port id="5" precision="FP32" names="batch_norm_15.tmp_3">
					<dim>-1</dim>
					<dim>24</dim>
					<dim>-1</dim>
					<dim>-1</dim>
				</port>
			</output>
		</layer>
		<layer id="237" name="Add_3" type="Add" version="opset1">
			<data auto_broadcast="numpy" />
			<input>
				<port id="0" precision="FP32">
					<dim>-1</dim>
					<dim>24</dim>
					<dim>-1</dim>
					<dim>-1</dim>
				</port>
				<port id="1" precision="FP32">
					<dim>-1</dim>
					<dim>24</dim>
					<dim>-1</dim>
					<dim>-1</dim>
				</port>
			</input>
			<output>
				<port id="2" precision="FP32" names="elementwise_add_2">
					<dim>-1</dim>
					<dim>24</dim>
					<dim>-1</dim>
					<dim>-1</dim>
				</port>
			</output>
		</layer>
		<layer id="238" name="conv2d_16.w_0_compressed" type="Const" version="opset1">
			<data element_type="f16" shape="64, 24, 1, 1" offset="25742" size="3072" />
			<output>
				<port id="0" precision="FP16" names="conv2d_16.w_0">
					<dim>64</dim>
					<dim>24</dim>
					<dim>1</dim>
					<dim>1</dim>
				</port>
			</output>
		</layer>
		<layer id="239" name="conv2d_16.w_0" type="Convert" version="opset1">
			<data destination_type="f32" />
			<rt_info>
				<attribute name="decompression" version="0" />
			</rt_info>
			<input>
				<port id="0" precision="FP16">
					<dim>64</dim>
					<dim>24</dim>
					<dim>1</dim>
					<dim>1</dim>
				</port>
			</input>
			<output>
				<port id="1" precision="FP32">
					<dim>64</dim>
					<dim>24</dim>
					<dim>1</dim>
					<dim>1</dim>
				</port>
			</output>
		</layer>
		<layer id="240" name="Conv_16" type="Convolution" version="opset1">
			<data strides="1, 1" dilations="1, 1" pads_begin="0, 0" pads_end="0, 0" auto_pad="explicit" />
			<input>
				<port id="0" precision="FP32">
					<dim>-1</dim>
					<dim>24</dim>
					<dim>-1</dim>
					<dim>-1</dim>
				</port>
				<port id="1" precision="FP32">
					<dim>64</dim>
					<dim>24</dim>
					<dim>1</dim>
					<dim>1</dim>
				</port>
			</input>
			<output>
				<port id="2" precision="FP32" names="conv2d_222.tmp_0">
					<dim>-1</dim>
					<dim>64</dim>
					<dim>-1</dim>
					<dim>-1</dim>
				</port>
			</output>
		</layer>
		<layer id="241" name="batch_norm_16.w_0_compressed" type="Const" version="opset1">
			<data element_type="f16" shape="64" offset="28814" size="128" />
			<output>
				<port id="0" precision="FP16" names="batch_norm_16.w_0">
					<dim>64</dim>
				</port>
			</output>
		</layer>
		<layer id="242" name="batch_norm_16.w_0" type="Convert" version="opset1">
			<data destination_type="f32" />
			<rt_info>
				<attribute name="decompression" version="0" />
			</rt_info>
			<input>
				<port id="0" precision="FP16">
					<dim>64</dim>
				</port>
			</input>
			<output>
				<port id="1" precision="FP32">
					<dim>64</dim>
				</port>
			</output>
		</layer>
		<layer id="243" name="batch_norm_16.b_0_compressed" type="Const" version="opset1">
			<data element_type="f16" shape="64" offset="28942" size="128" />
			<output>
				<port id="0" precision="FP16" names="batch_norm_16.b_0">
					<dim>64</dim>
				</port>
			</output>
		</layer>
		<layer id="244" name="batch_norm_16.b_0" type="Convert" version="opset1">
			<data destination_type="f32" />
			<rt_info>
				<attribute name="decompression" version="0" />
			</rt_info>
			<input>
				<port id="0" precision="FP16">
					<dim>64</dim>
				</port>
			</input>
			<output>
				<port id="1" precision="FP32">
					<dim>64</dim>
				</port>
			</output>
		</layer>
		<layer id="245" name="batch_norm_16.w_1" type="Const" version="opset1">
			<data element_type="f32" shape="64" offset="29070" size="256" />
			<output>
				<port id="0" precision="FP32" names="batch_norm_16.w_1">
					<dim>64</dim>
				</port>
			</output>
		</layer>
		<layer id="246" name="batch_norm_16.w_2_compressed" type="Const" version="opset1">
			<data element_type="f16" shape="64" offset="29326" size="128" />
			<output>
				<port id="0" precision="FP16" names="batch_norm_16.w_2">
					<dim>64</dim>
				</port>
			</output>
		</layer>
		<layer id="247" name="batch_norm_16.w_2" type="Convert" version="opset1">
			<data destination_type="f32" />
			<rt_info>
				<attribute name="decompression" version="0" />
			</rt_info>
			<input>
				<port id="0" precision="FP16">
					<dim>64</dim>
				</port>
			</input>
			<output>
				<port id="1" precision="FP32">
					<dim>64</dim>
				</port>
			</output>
		</layer>
		<layer id="248" name="BatchNormalization_16" type="BatchNormInference" version="opset5">
			<data epsilon="9.9999997473787516e-06" />
			<input>
				<port id="0" precision="FP32">
					<dim>-1</dim>
					<dim>64</dim>
					<dim>-1</dim>
					<dim>-1</dim>
				</port>
				<port id="1" precision="FP32">
					<dim>64</dim>
				</port>
				<port id="2" precision="FP32">
					<dim>64</dim>
				</port>
				<port id="3" precision="FP32">
					<dim>64</dim>
				</port>
				<port id="4" precision="FP32">
					<dim>64</dim>
				</port>
			</input>
			<output>
				<port id="5" precision="FP32" names="batch_norm_16.tmp_3">
					<dim>-1</dim>
					<dim>64</dim>
					<dim>-1</dim>
					<dim>-1</dim>
				</port>
			</output>
		</layer>
		<layer id="249" name="Relu_10" type="ReLU" version="opset1">
			<input>
				<port id="0" precision="FP32">
					<dim>-1</dim>
					<dim>64</dim>
					<dim>-1</dim>
					<dim>-1</dim>
				</port>
			</input>
			<output>
				<port id="1" precision="FP32" names="relu_10.tmp_0">
					<dim>-1</dim>
					<dim>64</dim>
					<dim>-1</dim>
					<dim>-1</dim>
				</port>
			</output>
		</layer>
		<layer id="250" name="conv2d_17.w_0_compressed" type="Const" version="opset1">
			<data element_type="f16" shape="64, 1, 5, 5" offset="29454" size="3200" />
			<output>
				<port id="0" precision="FP16" names="conv2d_17.w_0">
					<dim>64</dim>
					<dim>1</dim>
					<dim>5</dim>
					<dim>5</dim>
				</port>
			</output>
		</layer>
		<layer id="251" name="conv2d_17.w_0" type="Convert" version="opset1">
			<data destination_type="f32" />
			<rt_info>
				<attribute name="decompression" version="0" />
			</rt_info>
			<input>
				<port id="0" precision="FP16">
					<dim>64</dim>
					<dim>1</dim>
					<dim>5</dim>
					<dim>5</dim>
				</port>
			</input>
			<output>
				<port id="1" precision="FP32">
					<dim>64</dim>
					<dim>1</dim>
					<dim>5</dim>
					<dim>5</dim>
				</port>
			</output>
		</layer>
		<layer id="252" name="Constant_4377" type="Const" version="opset1">
			<data element_type="i64" shape="1" offset="21734" size="8" />
			<rt_info>
				<attribute name="precise" version="0" />
			</rt_info>
			<output>
				<port id="0" precision="I64">
					<dim>1</dim>
				</port>
			</output>
		</layer>
		<layer id="253" name="ShapeOf_4378" type="ShapeOf" version="opset3">
			<data output_type="i64" />
			<input>
				<port id="0" precision="FP32">
					<dim>64</dim>
					<dim>1</dim>
					<dim>5</dim>
					<dim>5</dim>
				</port>
			</input>
			<output>
				<port id="1" precision="I64">
					<dim>4</dim>
				</port>
			</output>
		</layer>
		<layer id="254" name="Constant_4375" type="Const" version="opset1">
			<data element_type="i64" shape="" offset="1022" size="8" />
			<rt_info>
				<attribute name="precise" version="0" />
			</rt_info>
			<output>
				<port id="0" precision="I64" />
			</output>
		</layer>
		<layer id="255" name="Constant_4376" type="Const" version="opset1">
			<data element_type="i64" shape="2" offset="1030" size="16" />
			<rt_info>
				<attribute name="precise" version="0" />
			</rt_info>
			<output>
				<port id="0" precision="I64">
					<dim>2</dim>
				</port>
			</output>
		</layer>
		<layer id="256" name="VariadicSplit_4379" type="VariadicSplit" version="opset1">
			<input>
				<port id="0" precision="I64">
					<dim>4</dim>
				</port>
				<port id="1" precision="I64" />
				<port id="2" precision="I64">
					<dim>2</dim>
				</port>
			</input>
			<output>
				<port id="3" precision="I64">
					<dim>1</dim>
				</port>
				<port id="4" precision="I64">
					<dim>3</dim>
				</port>
			</output>
		</layer>
		<layer id="257" name="Divide_4380" type="Divide" version="opset1">
			<data auto_broadcast="numpy" m_pythondiv="true" />
			<input>
				<port id="0" precision="I64">
					<dim>1</dim>
				</port>
				<port id="1" precision="I64">
					<dim>1</dim>
				</port>
			</input>
			<output>
				<port id="2" precision="I64">
					<dim>1</dim>
				</port>
			</output>
		</layer>
		<layer id="258" name="Concat_4381" type="Concat" version="opset1">
			<data axis="0" />
			<input>
				<port id="0" precision="I64">
					<dim>1</dim>
				</port>
				<port id="1" precision="I64">
					<dim>1</dim>
				</port>
				<port id="2" precision="I64">
					<dim>3</dim>
				</port>
			</input>
			<output>
				<port id="3" precision="I64">
					<dim>5</dim>
				</port>
			</output>
		</layer>
		<layer id="259" name="Reshape_4382" type="Reshape" version="opset1">
			<data special_zero="false" />
			<input>
				<port id="0" precision="FP32">
					<dim>64</dim>
					<dim>1</dim>
					<dim>5</dim>
					<dim>5</dim>
				</port>
				<port id="1" precision="I64">
					<dim>5</dim>
				</port>
			</input>
			<output>
				<port id="2" precision="FP32">
					<dim>64</dim>
					<dim>1</dim>
					<dim>1</dim>
					<dim>5</dim>
					<dim>5</dim>
				</port>
			</output>
		</layer>
		<layer id="260" name="Conv_17" type="GroupConvolution" version="opset1">
			<data strides="1, 1" pads_begin="2, 2" pads_end="2, 2" dilations="1, 1" auto_pad="explicit" />
			<input>
				<port id="0" precision="FP32">
					<dim>-1</dim>
					<dim>64</dim>
					<dim>-1</dim>
					<dim>-1</dim>
				</port>
				<port id="1" precision="FP32">
					<dim>64</dim>
					<dim>1</dim>
					<dim>1</dim>
					<dim>5</dim>
					<dim>5</dim>
				</port>
			</input>
			<output>
				<port id="2" precision="FP32" names="depthwise_conv2d_5.tmp_0">
					<dim>-1</dim>
					<dim>64</dim>
					<dim>-1</dim>
					<dim>-1</dim>
				</port>
			</output>
		</layer>
		<layer id="261" name="batch_norm_17.w_0_compressed" type="Const" version="opset1">
			<data element_type="f16" shape="64" offset="32654" size="128" />
			<output>
				<port id="0" precision="FP16" names="batch_norm_17.w_0">
					<dim>64</dim>
				</port>
			</output>
		</layer>
		<layer id="262" name="batch_norm_17.w_0" type="Convert" version="opset1">
			<data destination_type="f32" />
			<rt_info>
				<attribute name="decompression" version="0" />
			</rt_info>
			<input>
				<port id="0" precision="FP16">
					<dim>64</dim>
				</port>
			</input>
			<output>
				<port id="1" precision="FP32">
					<dim>64</dim>
				</port>
			</output>
		</layer>
		<layer id="263" name="batch_norm_17.b_0_compressed" type="Const" version="opset1">
			<data element_type="f16" shape="64" offset="32782" size="128" />
			<output>
				<port id="0" precision="FP16" names="batch_norm_17.b_0">
					<dim>64</dim>
				</port>
			</output>
		</layer>
		<layer id="264" name="batch_norm_17.b_0" type="Convert" version="opset1">
			<data destination_type="f32" />
			<rt_info>
				<attribute name="decompression" version="0" />
			</rt_info>
			<input>
				<port id="0" precision="FP16">
					<dim>64</dim>
				</port>
			</input>
			<output>
				<port id="1" precision="FP32">
					<dim>64</dim>
				</port>
			</output>
		</layer>
		<layer id="265" name="batch_norm_17.w_1_compressed" type="Const" version="opset1">
			<data element_type="f16" shape="64" offset="32910" size="128" />
			<output>
				<port id="0" precision="FP16" names="batch_norm_17.w_1">
					<dim>64</dim>
				</port>
			</output>
		</layer>
		<layer id="266" name="batch_norm_17.w_1" type="Convert" version="opset1">
			<data destination_type="f32" />
			<rt_info>
				<attribute name="decompression" version="0" />
			</rt_info>
			<input>
				<port id="0" precision="FP16">
					<dim>64</dim>
				</port>
			</input>
			<output>
				<port id="1" precision="FP32">
					<dim>64</dim>
				</port>
			</output>
		</layer>
		<layer id="267" name="batch_norm_17.w_2_compressed" type="Const" version="opset1">
			<data element_type="f16" shape="64" offset="33038" size="128" />
			<output>
				<port id="0" precision="FP16" names="batch_norm_17.w_2">
					<dim>64</dim>
				</port>
			</output>
		</layer>
		<layer id="268" name="batch_norm_17.w_2" type="Convert" version="opset1">
			<data destination_type="f32" />
			<rt_info>
				<attribute name="decompression" version="0" />
			</rt_info>
			<input>
				<port id="0" precision="FP16">
					<dim>64</dim>
				</port>
			</input>
			<output>
				<port id="1" precision="FP32">
					<dim>64</dim>
				</port>
			</output>
		</layer>
		<layer id="269" name="BatchNormalization_17" type="BatchNormInference" version="opset5">
			<data epsilon="9.9999997473787516e-06" />
			<input>
				<port id="0" precision="FP32">
					<dim>-1</dim>
					<dim>64</dim>
					<dim>-1</dim>
					<dim>-1</dim>
				</port>
				<port id="1" precision="FP32">
					<dim>64</dim>
				</port>
				<port id="2" precision="FP32">
					<dim>64</dim>
				</port>
				<port id="3" precision="FP32">
					<dim>64</dim>
				</port>
				<port id="4" precision="FP32">
					<dim>64</dim>
				</port>
			</input>
			<output>
				<port id="5" precision="FP32" names="batch_norm_17.tmp_3">
					<dim>-1</dim>
					<dim>64</dim>
					<dim>-1</dim>
					<dim>-1</dim>
				</port>
			</output>
		</layer>
		<layer id="270" name="Relu_11" type="ReLU" version="opset1">
			<input>
				<port id="0" precision="FP32">
					<dim>-1</dim>
					<dim>64</dim>
					<dim>-1</dim>
					<dim>-1</dim>
				</port>
			</input>
			<output>
				<port id="1" precision="FP32" names="relu_11.tmp_0">
					<dim>-1</dim>
					<dim>64</dim>
					<dim>-1</dim>
					<dim>-1</dim>
				</port>
			</output>
		</layer>
		<layer id="271" name="conv2d_18.w_0_compressed" type="Const" version="opset1">
			<data element_type="f16" shape="24, 64, 1, 1" offset="33166" size="3072" />
			<output>
				<port id="0" precision="FP16" names="conv2d_18.w_0">
					<dim>24</dim>
					<dim>64</dim>
					<dim>1</dim>
					<dim>1</dim>
				</port>
			</output>
		</layer>
		<layer id="272" name="conv2d_18.w_0" type="Convert" version="opset1">
			<data destination_type="f32" />
			<rt_info>
				<attribute name="decompression" version="0" />
			</rt_info>
			<input>
				<port id="0" precision="FP16">
					<dim>24</dim>
					<dim>64</dim>
					<dim>1</dim>
					<dim>1</dim>
				</port>
			</input>
			<output>
				<port id="1" precision="FP32">
					<dim>24</dim>
					<dim>64</dim>
					<dim>1</dim>
					<dim>1</dim>
				</port>
			</output>
		</layer>
		<layer id="273" name="Conv_18" type="Convolution" version="opset1">
			<data strides="1, 1" dilations="1, 1" pads_begin="0, 0" pads_end="0, 0" auto_pad="explicit" />
			<input>
				<port id="0" precision="FP32">
					<dim>-1</dim>
					<dim>64</dim>
					<dim>-1</dim>
					<dim>-1</dim>
				</port>
				<port id="1" precision="FP32">
					<dim>24</dim>
					<dim>64</dim>
					<dim>1</dim>
					<dim>1</dim>
				</port>
			</input>
			<output>
				<port id="2" precision="FP32" names="conv2d_223.tmp_0">
					<dim>-1</dim>
					<dim>24</dim>
					<dim>-1</dim>
					<dim>-1</dim>
				</port>
			</output>
		</layer>
		<layer id="274" name="batch_norm_18.w_0_compressed" type="Const" version="opset1">
			<data element_type="f16" shape="24" offset="36238" size="48" />
			<output>
				<port id="0" precision="FP16" names="batch_norm_18.w_0">
					<dim>24</dim>
				</port>
			</output>
		</layer>
		<layer id="275" name="batch_norm_18.w_0" type="Convert" version="opset1">
			<data destination_type="f32" />
			<rt_info>
				<attribute name="decompression" version="0" />
			</rt_info>
			<input>
				<port id="0" precision="FP16">
					<dim>24</dim>
				</port>
			</input>
			<output>
				<port id="1" precision="FP32">
					<dim>24</dim>
				</port>
			</output>
		</layer>
		<layer id="276" name="batch_norm_18.b_0_compressed" type="Const" version="opset1">
			<data element_type="f16" shape="24" offset="36286" size="48" />
			<output>
				<port id="0" precision="FP16" names="batch_norm_18.b_0">
					<dim>24</dim>
				</port>
			</output>
		</layer>
		<layer id="277" name="batch_norm_18.b_0" type="Convert" version="opset1">
			<data destination_type="f32" />
			<rt_info>
				<attribute name="decompression" version="0" />
			</rt_info>
			<input>
				<port id="0" precision="FP16">
					<dim>24</dim>
				</port>
			</input>
			<output>
				<port id="1" precision="FP32">
					<dim>24</dim>
				</port>
			</output>
		</layer>
		<layer id="278" name="batch_norm_18.w_1_compressed" type="Const" version="opset1">
			<data element_type="f16" shape="24" offset="36334" size="48" />
			<output>
				<port id="0" precision="FP16" names="batch_norm_18.w_1">
					<dim>24</dim>
				</port>
			</output>
		</layer>
		<layer id="279" name="batch_norm_18.w_1" type="Convert" version="opset1">
			<data destination_type="f32" />
			<rt_info>
				<attribute name="decompression" version="0" />
			</rt_info>
			<input>
				<port id="0" precision="FP16">
					<dim>24</dim>
				</port>
			</input>
			<output>
				<port id="1" precision="FP32">
					<dim>24</dim>
				</port>
			</output>
		</layer>
		<layer id="280" name="batch_norm_18.w_2_compressed" type="Const" version="opset1">
			<data element_type="f16" shape="24" offset="36382" size="48" />
			<output>
				<port id="0" precision="FP16" names="batch_norm_18.w_2">
					<dim>24</dim>
				</port>
			</output>
		</layer>
		<layer id="281" name="batch_norm_18.w_2" type="Convert" version="opset1">
			<data destination_type="f32" />
			<rt_info>
				<attribute name="decompression" version="0" />
			</rt_info>
			<input>
				<port id="0" precision="FP16">
					<dim>24</dim>
				</port>
			</input>
			<output>
				<port id="1" precision="FP32">
					<dim>24</dim>
				</port>
			</output>
		</layer>
		<layer id="282" name="BatchNormalization_18" type="BatchNormInference" version="opset5">
			<data epsilon="9.9999997473787516e-06" />
			<input>
				<port id="0" precision="FP32">
					<dim>-1</dim>
					<dim>24</dim>
					<dim>-1</dim>
					<dim>-1</dim>
				</port>
				<port id="1" precision="FP32">
					<dim>24</dim>
				</port>
				<port id="2" precision="FP32">
					<dim>24</dim>
				</port>
				<port id="3" precision="FP32">
					<dim>24</dim>
				</port>
				<port id="4" precision="FP32">
					<dim>24</dim>
				</port>
			</input>
			<output>
				<port id="5" precision="FP32" names="batch_norm_18.tmp_3">
					<dim>-1</dim>
					<dim>24</dim>
					<dim>-1</dim>
					<dim>-1</dim>
				</port>
			</output>
		</layer>
		<layer id="283" name="Add_4" type="Add" version="opset1">
			<data auto_broadcast="numpy" />
			<input>
				<port id="0" precision="FP32">
					<dim>-1</dim>
					<dim>24</dim>
					<dim>-1</dim>
					<dim>-1</dim>
				</port>
				<port id="1" precision="FP32">
					<dim>-1</dim>
					<dim>24</dim>
					<dim>-1</dim>
					<dim>-1</dim>
				</port>
			</input>
			<output>
				<port id="2" precision="FP32" names="elementwise_add_3">
					<dim>-1</dim>
					<dim>24</dim>
					<dim>-1</dim>
					<dim>-1</dim>
				</port>
			</output>
		</layer>
		<layer id="284" name="conv2d_19.w_0_compressed" type="Const" version="opset1">
			<data element_type="f16" shape="120, 24, 1, 1" offset="36430" size="5760" />
			<output>
				<port id="0" precision="FP16" names="conv2d_19.w_0">
					<dim>120</dim>
					<dim>24</dim>
					<dim>1</dim>
					<dim>1</dim>
				</port>
			</output>
		</layer>
		<layer id="285" name="conv2d_19.w_0" type="Convert" version="opset1">
			<data destination_type="f32" />
			<rt_info>
				<attribute name="decompression" version="0" />
			</rt_info>
			<input>
				<port id="0" precision="FP16">
					<dim>120</dim>
					<dim>24</dim>
					<dim>1</dim>
					<dim>1</dim>
				</port>
			</input>
			<output>
				<port id="1" precision="FP32">
					<dim>120</dim>
					<dim>24</dim>
					<dim>1</dim>
					<dim>1</dim>
				</port>
			</output>
		</layer>
		<layer id="286" name="Conv_19" type="Convolution" version="opset1">
			<data strides="1, 1" dilations="1, 1" pads_begin="0, 0" pads_end="0, 0" auto_pad="explicit" />
			<input>
				<port id="0" precision="FP32">
					<dim>-1</dim>
					<dim>24</dim>
					<dim>-1</dim>
					<dim>-1</dim>
				</port>
				<port id="1" precision="FP32">
					<dim>120</dim>
					<dim>24</dim>
					<dim>1</dim>
					<dim>1</dim>
				</port>
			</input>
			<output>
				<port id="2" precision="FP32" names="conv2d_224.tmp_0">
					<dim>-1</dim>
					<dim>120</dim>
					<dim>-1</dim>
					<dim>-1</dim>
				</port>
			</output>
		</layer>
		<layer id="287" name="batch_norm_19.w_0_compressed" type="Const" version="opset1">
			<data element_type="f16" shape="120" offset="42190" size="240" />
			<output>
				<port id="0" precision="FP16" names="batch_norm_19.w_0">
					<dim>120</dim>
				</port>
			</output>
		</layer>
		<layer id="288" name="batch_norm_19.w_0" type="Convert" version="opset1">
			<data destination_type="f32" />
			<rt_info>
				<attribute name="decompression" version="0" />
			</rt_info>
			<input>
				<port id="0" precision="FP16">
					<dim>120</dim>
				</port>
			</input>
			<output>
				<port id="1" precision="FP32">
					<dim>120</dim>
				</port>
			</output>
		</layer>
		<layer id="289" name="batch_norm_19.b_0_compressed" type="Const" version="opset1">
			<data element_type="f16" shape="120" offset="42430" size="240" />
			<output>
				<port id="0" precision="FP16" names="batch_norm_19.b_0">
					<dim>120</dim>
				</port>
			</output>
		</layer>
		<layer id="290" name="batch_norm_19.b_0" type="Convert" version="opset1">
			<data destination_type="f32" />
			<rt_info>
				<attribute name="decompression" version="0" />
			</rt_info>
			<input>
				<port id="0" precision="FP16">
					<dim>120</dim>
				</port>
			</input>
			<output>
				<port id="1" precision="FP32">
					<dim>120</dim>
				</port>
			</output>
		</layer>
		<layer id="291" name="batch_norm_19.w_1_compressed" type="Const" version="opset1">
			<data element_type="f16" shape="120" offset="42670" size="240" />
			<output>
				<port id="0" precision="FP16" names="batch_norm_19.w_1">
					<dim>120</dim>
				</port>
			</output>
		</layer>
		<layer id="292" name="batch_norm_19.w_1" type="Convert" version="opset1">
			<data destination_type="f32" />
			<rt_info>
				<attribute name="decompression" version="0" />
			</rt_info>
			<input>
				<port id="0" precision="FP16">
					<dim>120</dim>
				</port>
			</input>
			<output>
				<port id="1" precision="FP32">
					<dim>120</dim>
				</port>
			</output>
		</layer>
		<layer id="293" name="batch_norm_19.w_2_compressed" type="Const" version="opset1">
			<data element_type="f16" shape="120" offset="42910" size="240" />
			<output>
				<port id="0" precision="FP16" names="batch_norm_19.w_2">
					<dim>120</dim>
				</port>
			</output>
		</layer>
		<layer id="294" name="batch_norm_19.w_2" type="Convert" version="opset1">
			<data destination_type="f32" />
			<rt_info>
				<attribute name="decompression" version="0" />
			</rt_info>
			<input>
				<port id="0" precision="FP16">
					<dim>120</dim>
				</port>
			</input>
			<output>
				<port id="1" precision="FP32">
					<dim>120</dim>
				</port>
			</output>
		</layer>
		<layer id="295" name="BatchNormalization_19" type="BatchNormInference" version="opset5">
			<data epsilon="9.9999997473787516e-06" />
			<input>
				<port id="0" precision="FP32">
					<dim>-1</dim>
					<dim>120</dim>
					<dim>-1</dim>
					<dim>-1</dim>
				</port>
				<port id="1" precision="FP32">
					<dim>120</dim>
				</port>
				<port id="2" precision="FP32">
					<dim>120</dim>
				</port>
				<port id="3" precision="FP32">
					<dim>120</dim>
				</port>
				<port id="4" precision="FP32">
					<dim>120</dim>
				</port>
			</input>
			<output>
				<port id="5" precision="FP32" names="batch_norm_19.tmp_3">
					<dim>-1</dim>
					<dim>120</dim>
					<dim>-1</dim>
					<dim>-1</dim>
				</port>
			</output>
		</layer>
		<layer id="296" name="Constant_7_compressed" type="Const" version="opset1">
			<data element_type="f16" shape="" offset="512" size="2" />
			<output>
				<port id="0" precision="FP16" names="Constant_7" />
			</output>
		</layer>
		<layer id="297" name="Constant_7" type="Convert" version="opset1">
			<data destination_type="f32" />
			<rt_info>
				<attribute name="decompression" version="0" />
			</rt_info>
			<input>
				<port id="0" precision="FP16" />
			</input>
			<output>
				<port id="1" precision="FP32" />
			</output>
		</layer>
		<layer id="298" name="Constant_6_compressed" type="Const" version="opset1">
			<data element_type="f16" shape="" offset="514" size="2" />
			<output>
				<port id="0" precision="FP16" names="Constant_6" />
			</output>
		</layer>
		<layer id="299" name="Constant_6" type="Convert" version="opset1">
			<data destination_type="f32" />
			<rt_info>
				<attribute name="decompression" version="0" />
			</rt_info>
			<input>
				<port id="0" precision="FP16" />
			</input>
			<output>
				<port id="1" precision="FP32" />
			</output>
		</layer>
		<layer id="300" name="Constant_5_compressed" type="Const" version="opset1">
			<data element_type="f16" shape="" offset="516" size="2" />
			<output>
				<port id="0" precision="FP16" names="Constant_5" />
			</output>
		</layer>
		<layer id="301" name="Constant_5" type="Convert" version="opset1">
			<data destination_type="f32" />
			<rt_info>
				<attribute name="decompression" version="0" />
			</rt_info>
			<input>
				<port id="0" precision="FP16" />
			</input>
			<output>
				<port id="1" precision="FP32" />
			</output>
		</layer>
		<layer id="302" name="Add_5" type="Add" version="opset1">
			<data auto_broadcast="numpy" />
			<input>
				<port id="0" precision="FP32">
					<dim>-1</dim>
					<dim>120</dim>
					<dim>-1</dim>
					<dim>-1</dim>
				</port>
				<port id="1" precision="FP32" />
			</input>
			<output>
				<port id="2" precision="FP32" names="Add_5">
					<dim>-1</dim>
					<dim>120</dim>
					<dim>-1</dim>
					<dim>-1</dim>
				</port>
			</output>
		</layer>
		<layer id="303" name="Maximum_4446" type="Maximum" version="opset1">
			<data auto_broadcast="numpy" />
			<input>
				<port id="0" precision="FP32" />
				<port id="1" precision="FP32">
					<dim>-1</dim>
					<dim>120</dim>
					<dim>-1</dim>
					<dim>-1</dim>
				</port>
			</input>
			<output>
				<port id="2" precision="FP32">
					<dim>-1</dim>
					<dim>120</dim>
					<dim>-1</dim>
					<dim>-1</dim>
				</port>
			</output>
		</layer>
		<layer id="304" name="Clip_1" type="Minimum" version="opset1">
			<data auto_broadcast="numpy" />
			<input>
				<port id="0" precision="FP32" />
				<port id="1" precision="FP32">
					<dim>-1</dim>
					<dim>120</dim>
					<dim>-1</dim>
					<dim>-1</dim>
				</port>
			</input>
			<output>
				<port id="2" precision="FP32" names="Clip_1">
					<dim>-1</dim>
					<dim>120</dim>
					<dim>-1</dim>
					<dim>-1</dim>
				</port>
			</output>
		</layer>
		<layer id="305" name="Mul_1" type="Multiply" version="opset1">
			<data auto_broadcast="numpy" />
			<input>
				<port id="0" precision="FP32">
					<dim>-1</dim>
					<dim>120</dim>
					<dim>-1</dim>
					<dim>-1</dim>
				</port>
				<port id="1" precision="FP32">
					<dim>-1</dim>
					<dim>120</dim>
					<dim>-1</dim>
					<dim>-1</dim>
				</port>
			</input>
			<output>
				<port id="2" precision="FP32" names="Mul_1">
					<dim>-1</dim>
					<dim>120</dim>
					<dim>-1</dim>
					<dim>-1</dim>
				</port>
			</output>
		</layer>
		<layer id="306" name="Constant_4_compressed" type="Const" version="opset1">
			<data element_type="f16" shape="" offset="512" size="2" />
			<output>
				<port id="0" precision="FP16" names="Constant_4" />
			</output>
		</layer>
		<layer id="307" name="Constant_4" type="Convert" version="opset1">
			<data destination_type="f32" />
			<rt_info>
				<attribute name="decompression" version="0" />
			</rt_info>
			<input>
				<port id="0" precision="FP16" />
			</input>
			<output>
				<port id="1" precision="FP32" />
			</output>
		</layer>
		<layer id="308" name="Div_1" type="Divide" version="opset1">
			<data auto_broadcast="numpy" m_pythondiv="true" />
			<input>
				<port id="0" precision="FP32">
					<dim>-1</dim>
					<dim>120</dim>
					<dim>-1</dim>
					<dim>-1</dim>
				</port>
				<port id="1" precision="FP32" />
			</input>
			<output>
				<port id="2" precision="FP32" names="hardswish_1.tmp_0">
					<dim>-1</dim>
					<dim>120</dim>
					<dim>-1</dim>
					<dim>-1</dim>
				</port>
			</output>
		</layer>
		<layer id="309" name="conv2d_20.w_0_compressed" type="Const" version="opset1">
			<data element_type="f16" shape="120, 1, 3, 3" offset="43150" size="2160" />
			<output>
				<port id="0" precision="FP16" names="conv2d_20.w_0">
					<dim>120</dim>
					<dim>1</dim>
					<dim>3</dim>
					<dim>3</dim>
				</port>
			</output>
		</layer>
		<layer id="310" name="conv2d_20.w_0" type="Convert" version="opset1">
			<data destination_type="f32" />
			<rt_info>
				<attribute name="decompression" version="0" />
			</rt_info>
			<input>
				<port id="0" precision="FP16">
					<dim>120</dim>
					<dim>1</dim>
					<dim>3</dim>
					<dim>3</dim>
				</port>
			</input>
			<output>
				<port id="1" precision="FP32">
					<dim>120</dim>
					<dim>1</dim>
					<dim>3</dim>
					<dim>3</dim>
				</port>
			</output>
		</layer>
		<layer id="311" name="Constant_4457" type="Const" version="opset1">
			<data element_type="i64" shape="1" offset="45310" size="8" />
			<rt_info>
				<attribute name="precise" version="0" />
			</rt_info>
			<output>
				<port id="0" precision="I64">
					<dim>1</dim>
				</port>
			</output>
		</layer>
		<layer id="312" name="ShapeOf_4458" type="ShapeOf" version="opset3">
			<data output_type="i64" />
			<input>
				<port id="0" precision="FP32">
					<dim>120</dim>
					<dim>1</dim>
					<dim>3</dim>
					<dim>3</dim>
				</port>
			</input>
			<output>
				<port id="1" precision="I64">
					<dim>4</dim>
				</port>
			</output>
		</layer>
		<layer id="313" name="Constant_4455" type="Const" version="opset1">
			<data element_type="i64" shape="" offset="1022" size="8" />
			<rt_info>
				<attribute name="precise" version="0" />
			</rt_info>
			<output>
				<port id="0" precision="I64" />
			</output>
		</layer>
		<layer id="314" name="Constant_4456" type="Const" version="opset1">
			<data element_type="i64" shape="2" offset="1030" size="16" />
			<rt_info>
				<attribute name="precise" version="0" />
			</rt_info>
			<output>
				<port id="0" precision="I64">
					<dim>2</dim>
				</port>
			</output>
		</layer>
		<layer id="315" name="VariadicSplit_4459" type="VariadicSplit" version="opset1">
			<input>
				<port id="0" precision="I64">
					<dim>4</dim>
				</port>
				<port id="1" precision="I64" />
				<port id="2" precision="I64">
					<dim>2</dim>
				</port>
			</input>
			<output>
				<port id="3" precision="I64">
					<dim>1</dim>
				</port>
				<port id="4" precision="I64">
					<dim>3</dim>
				</port>
			</output>
		</layer>
		<layer id="316" name="Divide_4460" type="Divide" version="opset1">
			<data auto_broadcast="numpy" m_pythondiv="true" />
			<input>
				<port id="0" precision="I64">
					<dim>1</dim>
				</port>
				<port id="1" precision="I64">
					<dim>1</dim>
				</port>
			</input>
			<output>
				<port id="2" precision="I64">
					<dim>1</dim>
				</port>
			</output>
		</layer>
		<layer id="317" name="Concat_4461" type="Concat" version="opset1">
			<data axis="0" />
			<input>
				<port id="0" precision="I64">
					<dim>1</dim>
				</port>
				<port id="1" precision="I64">
					<dim>1</dim>
				</port>
				<port id="2" precision="I64">
					<dim>3</dim>
				</port>
			</input>
			<output>
				<port id="3" precision="I64">
					<dim>5</dim>
				</port>
			</output>
		</layer>
		<layer id="318" name="Reshape_4462" type="Reshape" version="opset1">
			<data special_zero="false" />
			<input>
				<port id="0" precision="FP32">
					<dim>120</dim>
					<dim>1</dim>
					<dim>3</dim>
					<dim>3</dim>
				</port>
				<port id="1" precision="I64">
					<dim>5</dim>
				</port>
			</input>
			<output>
				<port id="2" precision="FP32">
					<dim>120</dim>
					<dim>1</dim>
					<dim>1</dim>
					<dim>3</dim>
					<dim>3</dim>
				</port>
			</output>
		</layer>
		<layer id="319" name="Conv_20" type="GroupConvolution" version="opset1">
			<data strides="2, 2" pads_begin="1, 1" pads_end="1, 1" dilations="1, 1" auto_pad="explicit" />
			<input>
				<port id="0" precision="FP32">
					<dim>-1</dim>
					<dim>120</dim>
					<dim>-1</dim>
					<dim>-1</dim>
				</port>
				<port id="1" precision="FP32">
					<dim>120</dim>
					<dim>1</dim>
					<dim>1</dim>
					<dim>3</dim>
					<dim>3</dim>
				</port>
			</input>
			<output>
				<port id="2" precision="FP32" names="depthwise_conv2d_6.tmp_0">
					<dim>-1</dim>
					<dim>120</dim>
					<dim>-1</dim>
					<dim>-1</dim>
				</port>
			</output>
		</layer>
		<layer id="320" name="batch_norm_20.w_0_compressed" type="Const" version="opset1">
			<data element_type="f16" shape="120" offset="45318" size="240" />
			<output>
				<port id="0" precision="FP16" names="batch_norm_20.w_0">
					<dim>120</dim>
				</port>
			</output>
		</layer>
		<layer id="321" name="batch_norm_20.w_0" type="Convert" version="opset1">
			<data destination_type="f32" />
			<rt_info>
				<attribute name="decompression" version="0" />
			</rt_info>
			<input>
				<port id="0" precision="FP16">
					<dim>120</dim>
				</port>
			</input>
			<output>
				<port id="1" precision="FP32">
					<dim>120</dim>
				</port>
			</output>
		</layer>
		<layer id="322" name="batch_norm_20.b_0_compressed" type="Const" version="opset1">
			<data element_type="f16" shape="120" offset="45558" size="240" />
			<output>
				<port id="0" precision="FP16" names="batch_norm_20.b_0">
					<dim>120</dim>
				</port>
			</output>
		</layer>
		<layer id="323" name="batch_norm_20.b_0" type="Convert" version="opset1">
			<data destination_type="f32" />
			<rt_info>
				<attribute name="decompression" version="0" />
			</rt_info>
			<input>
				<port id="0" precision="FP16">
					<dim>120</dim>
				</port>
			</input>
			<output>
				<port id="1" precision="FP32">
					<dim>120</dim>
				</port>
			</output>
		</layer>
		<layer id="324" name="batch_norm_20.w_1" type="Const" version="opset1">
			<data element_type="f32" shape="120" offset="45798" size="480" />
			<output>
				<port id="0" precision="FP32" names="batch_norm_20.w_1">
					<dim>120</dim>
				</port>
			</output>
		</layer>
		<layer id="325" name="batch_norm_20.w_2_compressed" type="Const" version="opset1">
			<data element_type="f16" shape="120" offset="46278" size="240" />
			<output>
				<port id="0" precision="FP16" names="batch_norm_20.w_2">
					<dim>120</dim>
				</port>
			</output>
		</layer>
		<layer id="326" name="batch_norm_20.w_2" type="Convert" version="opset1">
			<data destination_type="f32" />
			<rt_info>
				<attribute name="decompression" version="0" />
			</rt_info>
			<input>
				<port id="0" precision="FP16">
					<dim>120</dim>
				</port>
			</input>
			<output>
				<port id="1" precision="FP32">
					<dim>120</dim>
				</port>
			</output>
		</layer>
		<layer id="327" name="BatchNormalization_20" type="BatchNormInference" version="opset5">
			<data epsilon="9.9999997473787516e-06" />
			<input>
				<port id="0" precision="FP32">
					<dim>-1</dim>
					<dim>120</dim>
					<dim>-1</dim>
					<dim>-1</dim>
				</port>
				<port id="1" precision="FP32">
					<dim>120</dim>
				</port>
				<port id="2" precision="FP32">
					<dim>120</dim>
				</port>
				<port id="3" precision="FP32">
					<dim>120</dim>
				</port>
				<port id="4" precision="FP32">
					<dim>120</dim>
				</port>
			</input>
			<output>
				<port id="5" precision="FP32" names="batch_norm_20.tmp_3">
					<dim>-1</dim>
					<dim>120</dim>
					<dim>-1</dim>
					<dim>-1</dim>
				</port>
			</output>
		</layer>
		<layer id="328" name="Constant_11_compressed" type="Const" version="opset1">
			<data element_type="f16" shape="" offset="512" size="2" />
			<output>
				<port id="0" precision="FP16" names="Constant_11" />
			</output>
		</layer>
		<layer id="329" name="Constant_11" type="Convert" version="opset1">
			<data destination_type="f32" />
			<rt_info>
				<attribute name="decompression" version="0" />
			</rt_info>
			<input>
				<port id="0" precision="FP16" />
			</input>
			<output>
				<port id="1" precision="FP32" />
			</output>
		</layer>
		<layer id="330" name="Constant_10_compressed" type="Const" version="opset1">
			<data element_type="f16" shape="" offset="514" size="2" />
			<output>
				<port id="0" precision="FP16" names="Constant_10" />
			</output>
		</layer>
		<layer id="331" name="Constant_10" type="Convert" version="opset1">
			<data destination_type="f32" />
			<rt_info>
				<attribute name="decompression" version="0" />
			</rt_info>
			<input>
				<port id="0" precision="FP16" />
			</input>
			<output>
				<port id="1" precision="FP32" />
			</output>
		</layer>
		<layer id="332" name="Constant_9_compressed" type="Const" version="opset1">
			<data element_type="f16" shape="" offset="516" size="2" />
			<output>
				<port id="0" precision="FP16" names="Constant_9" />
			</output>
		</layer>
		<layer id="333" name="Constant_9" type="Convert" version="opset1">
			<data destination_type="f32" />
			<rt_info>
				<attribute name="decompression" version="0" />
			</rt_info>
			<input>
				<port id="0" precision="FP16" />
			</input>
			<output>
				<port id="1" precision="FP32" />
			</output>
		</layer>
		<layer id="334" name="Add_6" type="Add" version="opset1">
			<data auto_broadcast="numpy" />
			<input>
				<port id="0" precision="FP32">
					<dim>-1</dim>
					<dim>120</dim>
					<dim>-1</dim>
					<dim>-1</dim>
				</port>
				<port id="1" precision="FP32" />
			</input>
			<output>
				<port id="2" precision="FP32" names="Add_6">
					<dim>-1</dim>
					<dim>120</dim>
					<dim>-1</dim>
					<dim>-1</dim>
				</port>
			</output>
		</layer>
		<layer id="335" name="Maximum_4509" type="Maximum" version="opset1">
			<data auto_broadcast="numpy" />
			<input>
				<port id="0" precision="FP32" />
				<port id="1" precision="FP32">
					<dim>-1</dim>
					<dim>120</dim>
					<dim>-1</dim>
					<dim>-1</dim>
				</port>
			</input>
			<output>
				<port id="2" precision="FP32">
					<dim>-1</dim>
					<dim>120</dim>
					<dim>-1</dim>
					<dim>-1</dim>
				</port>
			</output>
		</layer>
		<layer id="336" name="Clip_2" type="Minimum" version="opset1">
			<data auto_broadcast="numpy" />
			<input>
				<port id="0" precision="FP32" />
				<port id="1" precision="FP32">
					<dim>-1</dim>
					<dim>120</dim>
					<dim>-1</dim>
					<dim>-1</dim>
				</port>
			</input>
			<output>
				<port id="2" precision="FP32" names="Clip_2">
					<dim>-1</dim>
					<dim>120</dim>
					<dim>-1</dim>
					<dim>-1</dim>
				</port>
			</output>
		</layer>
		<layer id="337" name="Mul_2" type="Multiply" version="opset1">
			<data auto_broadcast="numpy" />
			<input>
				<port id="0" precision="FP32">
					<dim>-1</dim>
					<dim>120</dim>
					<dim>-1</dim>
					<dim>-1</dim>
				</port>
				<port id="1" precision="FP32">
					<dim>-1</dim>
					<dim>120</dim>
					<dim>-1</dim>
					<dim>-1</dim>
				</port>
			</input>
			<output>
				<port id="2" precision="FP32" names="Mul_2">
					<dim>-1</dim>
					<dim>120</dim>
					<dim>-1</dim>
					<dim>-1</dim>
				</port>
			</output>
		</layer>
		<layer id="338" name="Constant_8_compressed" type="Const" version="opset1">
			<data element_type="f16" shape="" offset="512" size="2" />
			<output>
				<port id="0" precision="FP16" names="Constant_8" />
			</output>
		</layer>
		<layer id="339" name="Constant_8" type="Convert" version="opset1">
			<data destination_type="f32" />
			<rt_info>
				<attribute name="decompression" version="0" />
			</rt_info>
			<input>
				<port id="0" precision="FP16" />
			</input>
			<output>
				<port id="1" precision="FP32" />
			</output>
		</layer>
		<layer id="340" name="Div_2" type="Divide" version="opset1">
			<data auto_broadcast="numpy" m_pythondiv="true" />
			<input>
				<port id="0" precision="FP32">
					<dim>-1</dim>
					<dim>120</dim>
					<dim>-1</dim>
					<dim>-1</dim>
				</port>
				<port id="1" precision="FP32" />
			</input>
			<output>
				<port id="2" precision="FP32" names="hardswish_2.tmp_0">
					<dim>-1</dim>
					<dim>120</dim>
					<dim>-1</dim>
					<dim>-1</dim>
				</port>
			</output>
		</layer>
		<layer id="341" name="conv2d_21.w_0_compressed" type="Const" version="opset1">
			<data element_type="f16" shape="40, 120, 1, 1" offset="46518" size="9600" />
			<output>
				<port id="0" precision="FP16" names="conv2d_21.w_0">
					<dim>40</dim>
					<dim>120</dim>
					<dim>1</dim>
					<dim>1</dim>
				</port>
			</output>
		</layer>
		<layer id="342" name="conv2d_21.w_0" type="Convert" version="opset1">
			<data destination_type="f32" />
			<rt_info>
				<attribute name="decompression" version="0" />
			</rt_info>
			<input>
				<port id="0" precision="FP16">
					<dim>40</dim>
					<dim>120</dim>
					<dim>1</dim>
					<dim>1</dim>
				</port>
			</input>
			<output>
				<port id="1" precision="FP32">
					<dim>40</dim>
					<dim>120</dim>
					<dim>1</dim>
					<dim>1</dim>
				</port>
			</output>
		</layer>
		<layer id="343" name="Conv_21" type="Convolution" version="opset1">
			<data strides="1, 1" dilations="1, 1" pads_begin="0, 0" pads_end="0, 0" auto_pad="explicit" />
			<input>
				<port id="0" precision="FP32">
					<dim>-1</dim>
					<dim>120</dim>
					<dim>-1</dim>
					<dim>-1</dim>
				</port>
				<port id="1" precision="FP32">
					<dim>40</dim>
					<dim>120</dim>
					<dim>1</dim>
					<dim>1</dim>
				</port>
			</input>
			<output>
				<port id="2" precision="FP32" names="conv2d_225.tmp_0">
					<dim>-1</dim>
					<dim>40</dim>
					<dim>-1</dim>
					<dim>-1</dim>
				</port>
			</output>
		</layer>
		<layer id="344" name="batch_norm_21.w_0" type="Const" version="opset1">
			<data element_type="f32" shape="40" offset="56118" size="160" />
			<output>
				<port id="0" precision="FP32" names="batch_norm_21.w_0">
					<dim>40</dim>
				</port>
			</output>
		</layer>
		<layer id="345" name="batch_norm_21.b_0" type="Const" version="opset1">
			<data element_type="f32" shape="40" offset="56278" size="160" />
			<output>
				<port id="0" precision="FP32" names="batch_norm_21.b_0">
					<dim>40</dim>
				</port>
			</output>
		</layer>
		<layer id="346" name="batch_norm_21.w_1_compressed" type="Const" version="opset1">
			<data element_type="f16" shape="40" offset="56438" size="80" />
			<output>
				<port id="0" precision="FP16" names="batch_norm_21.w_1">
					<dim>40</dim>
				</port>
			</output>
		</layer>
		<layer id="347" name="batch_norm_21.w_1" type="Convert" version="opset1">
			<data destination_type="f32" />
			<rt_info>
				<attribute name="decompression" version="0" />
			</rt_info>
			<input>
				<port id="0" precision="FP16">
					<dim>40</dim>
				</port>
			</input>
			<output>
				<port id="1" precision="FP32">
					<dim>40</dim>
				</port>
			</output>
		</layer>
		<layer id="348" name="batch_norm_21.w_2_compressed" type="Const" version="opset1">
			<data element_type="f16" shape="40" offset="56518" size="80" />
			<output>
				<port id="0" precision="FP16" names="batch_norm_21.w_2">
					<dim>40</dim>
				</port>
			</output>
		</layer>
		<layer id="349" name="batch_norm_21.w_2" type="Convert" version="opset1">
			<data destination_type="f32" />
			<rt_info>
				<attribute name="decompression" version="0" />
			</rt_info>
			<input>
				<port id="0" precision="FP16">
					<dim>40</dim>
				</port>
			</input>
			<output>
				<port id="1" precision="FP32">
					<dim>40</dim>
				</port>
			</output>
		</layer>
		<layer id="350" name="BatchNormalization_21" type="BatchNormInference" version="opset5">
			<data epsilon="9.9999997473787516e-06" />
			<input>
				<port id="0" precision="FP32">
					<dim>-1</dim>
					<dim>40</dim>
					<dim>-1</dim>
					<dim>-1</dim>
				</port>
				<port id="1" precision="FP32">
					<dim>40</dim>
				</port>
				<port id="2" precision="FP32">
					<dim>40</dim>
				</port>
				<port id="3" precision="FP32">
					<dim>40</dim>
				</port>
				<port id="4" precision="FP32">
					<dim>40</dim>
				</port>
			</input>
			<output>
				<port id="5" precision="FP32" names="batch_norm_21.tmp_3">
					<dim>-1</dim>
					<dim>40</dim>
					<dim>-1</dim>
					<dim>-1</dim>
				</port>
			</output>
		</layer>
		<layer id="351" name="conv2d_22.w_0_compressed" type="Const" version="opset1">
			<data element_type="f16" shape="104, 40, 1, 1" offset="56598" size="8320" />
			<output>
				<port id="0" precision="FP16" names="conv2d_22.w_0">
					<dim>104</dim>
					<dim>40</dim>
					<dim>1</dim>
					<dim>1</dim>
				</port>
			</output>
		</layer>
		<layer id="352" name="conv2d_22.w_0" type="Convert" version="opset1">
			<data destination_type="f32" />
			<rt_info>
				<attribute name="decompression" version="0" />
			</rt_info>
			<input>
				<port id="0" precision="FP16">
					<dim>104</dim>
					<dim>40</dim>
					<dim>1</dim>
					<dim>1</dim>
				</port>
			</input>
			<output>
				<port id="1" precision="FP32">
					<dim>104</dim>
					<dim>40</dim>
					<dim>1</dim>
					<dim>1</dim>
				</port>
			</output>
		</layer>
		<layer id="353" name="Conv_22" type="Convolution" version="opset1">
			<data strides="1, 1" dilations="1, 1" pads_begin="0, 0" pads_end="0, 0" auto_pad="explicit" />
			<input>
				<port id="0" precision="FP32">
					<dim>-1</dim>
					<dim>40</dim>
					<dim>-1</dim>
					<dim>-1</dim>
				</port>
				<port id="1" precision="FP32">
					<dim>104</dim>
					<dim>40</dim>
					<dim>1</dim>
					<dim>1</dim>
				</port>
			</input>
			<output>
				<port id="2" precision="FP32" names="conv2d_226.tmp_0">
					<dim>-1</dim>
					<dim>104</dim>
					<dim>-1</dim>
					<dim>-1</dim>
				</port>
			</output>
		</layer>
		<layer id="354" name="batch_norm_22.w_0_compressed" type="Const" version="opset1">
			<data element_type="f16" shape="104" offset="64918" size="208" />
			<output>
				<port id="0" precision="FP16" names="batch_norm_22.w_0">
					<dim>104</dim>
				</port>
			</output>
		</layer>
		<layer id="355" name="batch_norm_22.w_0" type="Convert" version="opset1">
			<data destination_type="f32" />
			<rt_info>
				<attribute name="decompression" version="0" />
			</rt_info>
			<input>
				<port id="0" precision="FP16">
					<dim>104</dim>
				</port>
			</input>
			<output>
				<port id="1" precision="FP32">
					<dim>104</dim>
				</port>
			</output>
		</layer>
		<layer id="356" name="batch_norm_22.b_0_compressed" type="Const" version="opset1">
			<data element_type="f16" shape="104" offset="65126" size="208" />
			<output>
				<port id="0" precision="FP16" names="batch_norm_22.b_0">
					<dim>104</dim>
				</port>
			</output>
		</layer>
		<layer id="357" name="batch_norm_22.b_0" type="Convert" version="opset1">
			<data destination_type="f32" />
			<rt_info>
				<attribute name="decompression" version="0" />
			</rt_info>
			<input>
				<port id="0" precision="FP16">
					<dim>104</dim>
				</port>
			</input>
			<output>
				<port id="1" precision="FP32">
					<dim>104</dim>
				</port>
			</output>
		</layer>
		<layer id="358" name="batch_norm_22.w_1" type="Const" version="opset1">
			<data element_type="f32" shape="104" offset="65334" size="416" />
			<output>
				<port id="0" precision="FP32" names="batch_norm_22.w_1">
					<dim>104</dim>
				</port>
			</output>
		</layer>
		<layer id="359" name="batch_norm_22.w_2" type="Const" version="opset1">
			<data element_type="f32" shape="104" offset="65750" size="416" />
			<output>
				<port id="0" precision="FP32" names="batch_norm_22.w_2">
					<dim>104</dim>
				</port>
			</output>
		</layer>
		<layer id="360" name="BatchNormalization_22" type="BatchNormInference" version="opset5">
			<data epsilon="9.9999997473787516e-06" />
			<input>
				<port id="0" precision="FP32">
					<dim>-1</dim>
					<dim>104</dim>
					<dim>-1</dim>
					<dim>-1</dim>
				</port>
				<port id="1" precision="FP32">
					<dim>104</dim>
				</port>
				<port id="2" precision="FP32">
					<dim>104</dim>
				</port>
				<port id="3" precision="FP32">
					<dim>104</dim>
				</port>
				<port id="4" precision="FP32">
					<dim>104</dim>
				</port>
			</input>
			<output>
				<port id="5" precision="FP32" names="batch_norm_22.tmp_3">
					<dim>-1</dim>
					<dim>104</dim>
					<dim>-1</dim>
					<dim>-1</dim>
				</port>
			</output>
		</layer>
		<layer id="361" name="Constant_15_compressed" type="Const" version="opset1">
			<data element_type="f16" shape="" offset="512" size="2" />
			<output>
				<port id="0" precision="FP16" names="Constant_15" />
			</output>
		</layer>
		<layer id="362" name="Constant_15" type="Convert" version="opset1">
			<data destination_type="f32" />
			<rt_info>
				<attribute name="decompression" version="0" />
			</rt_info>
			<input>
				<port id="0" precision="FP16" />
			</input>
			<output>
				<port id="1" precision="FP32" />
			</output>
		</layer>
		<layer id="363" name="Constant_14_compressed" type="Const" version="opset1">
			<data element_type="f16" shape="" offset="514" size="2" />
			<output>
				<port id="0" precision="FP16" names="Constant_14" />
			</output>
		</layer>
		<layer id="364" name="Constant_14" type="Convert" version="opset1">
			<data destination_type="f32" />
			<rt_info>
				<attribute name="decompression" version="0" />
			</rt_info>
			<input>
				<port id="0" precision="FP16" />
			</input>
			<output>
				<port id="1" precision="FP32" />
			</output>
		</layer>
		<layer id="365" name="Constant_13_compressed" type="Const" version="opset1">
			<data element_type="f16" shape="" offset="516" size="2" />
			<output>
				<port id="0" precision="FP16" names="Constant_13" />
			</output>
		</layer>
		<layer id="366" name="Constant_13" type="Convert" version="opset1">
			<data destination_type="f32" />
			<rt_info>
				<attribute name="decompression" version="0" />
			</rt_info>
			<input>
				<port id="0" precision="FP16" />
			</input>
			<output>
				<port id="1" precision="FP32" />
			</output>
		</layer>
		<layer id="367" name="Add_7" type="Add" version="opset1">
			<data auto_broadcast="numpy" />
			<input>
				<port id="0" precision="FP32">
					<dim>-1</dim>
					<dim>104</dim>
					<dim>-1</dim>
					<dim>-1</dim>
				</port>
				<port id="1" precision="FP32" />
			</input>
			<output>
				<port id="2" precision="FP32" names="Add_7">
					<dim>-1</dim>
					<dim>104</dim>
					<dim>-1</dim>
					<dim>-1</dim>
				</port>
			</output>
		</layer>
		<layer id="368" name="Maximum_4521" type="Maximum" version="opset1">
			<data auto_broadcast="numpy" />
			<input>
				<port id="0" precision="FP32" />
				<port id="1" precision="FP32">
					<dim>-1</dim>
					<dim>104</dim>
					<dim>-1</dim>
					<dim>-1</dim>
				</port>
			</input>
			<output>
				<port id="2" precision="FP32">
					<dim>-1</dim>
					<dim>104</dim>
					<dim>-1</dim>
					<dim>-1</dim>
				</port>
			</output>
		</layer>
		<layer id="369" name="Clip_3" type="Minimum" version="opset1">
			<data auto_broadcast="numpy" />
			<input>
				<port id="0" precision="FP32" />
				<port id="1" precision="FP32">
					<dim>-1</dim>
					<dim>104</dim>
					<dim>-1</dim>
					<dim>-1</dim>
				</port>
			</input>
			<output>
				<port id="2" precision="FP32" names="Clip_3">
					<dim>-1</dim>
					<dim>104</dim>
					<dim>-1</dim>
					<dim>-1</dim>
				</port>
			</output>
		</layer>
		<layer id="370" name="Mul_3" type="Multiply" version="opset1">
			<data auto_broadcast="numpy" />
			<input>
				<port id="0" precision="FP32">
					<dim>-1</dim>
					<dim>104</dim>
					<dim>-1</dim>
					<dim>-1</dim>
				</port>
				<port id="1" precision="FP32">
					<dim>-1</dim>
					<dim>104</dim>
					<dim>-1</dim>
					<dim>-1</dim>
				</port>
			</input>
			<output>
				<port id="2" precision="FP32" names="Mul_3">
					<dim>-1</dim>
					<dim>104</dim>
					<dim>-1</dim>
					<dim>-1</dim>
				</port>
			</output>
		</layer>
		<layer id="371" name="Constant_12_compressed" type="Const" version="opset1">
			<data element_type="f16" shape="" offset="512" size="2" />
			<output>
				<port id="0" precision="FP16" names="Constant_12" />
			</output>
		</layer>
		<layer id="372" name="Constant_12" type="Convert" version="opset1">
			<data destination_type="f32" />
			<rt_info>
				<attribute name="decompression" version="0" />
			</rt_info>
			<input>
				<port id="0" precision="FP16" />
			</input>
			<output>
				<port id="1" precision="FP32" />
			</output>
		</layer>
		<layer id="373" name="Div_3" type="Divide" version="opset1">
			<data auto_broadcast="numpy" m_pythondiv="true" />
			<input>
				<port id="0" precision="FP32">
					<dim>-1</dim>
					<dim>104</dim>
					<dim>-1</dim>
					<dim>-1</dim>
				</port>
				<port id="1" precision="FP32" />
			</input>
			<output>
				<port id="2" precision="FP32" names="hardswish_3.tmp_0">
					<dim>-1</dim>
					<dim>104</dim>
					<dim>-1</dim>
					<dim>-1</dim>
				</port>
			</output>
		</layer>
		<layer id="374" name="conv2d_23.w_0_compressed" type="Const" version="opset1">
			<data element_type="f16" shape="104, 1, 3, 3" offset="66166" size="1872" />
			<output>
				<port id="0" precision="FP16" names="conv2d_23.w_0">
					<dim>104</dim>
					<dim>1</dim>
					<dim>3</dim>
					<dim>3</dim>
				</port>
			</output>
		</layer>
		<layer id="375" name="conv2d_23.w_0" type="Convert" version="opset1">
			<data destination_type="f32" />
			<rt_info>
				<attribute name="decompression" version="0" />
			</rt_info>
			<input>
				<port id="0" precision="FP16">
					<dim>104</dim>
					<dim>1</dim>
					<dim>3</dim>
					<dim>3</dim>
				</port>
			</input>
			<output>
				<port id="1" precision="FP32">
					<dim>104</dim>
					<dim>1</dim>
					<dim>3</dim>
					<dim>3</dim>
				</port>
			</output>
		</layer>
		<layer id="376" name="Constant_4528" type="Const" version="opset1">
			<data element_type="i64" shape="1" offset="68038" size="8" />
			<rt_info>
				<attribute name="precise" version="0" />
			</rt_info>
			<output>
				<port id="0" precision="I64">
					<dim>1</dim>
				</port>
			</output>
		</layer>
		<layer id="377" name="ShapeOf_4529" type="ShapeOf" version="opset3">
			<data output_type="i64" />
			<input>
				<port id="0" precision="FP32">
					<dim>104</dim>
					<dim>1</dim>
					<dim>3</dim>
					<dim>3</dim>
				</port>
			</input>
			<output>
				<port id="1" precision="I64">
					<dim>4</dim>
				</port>
			</output>
		</layer>
		<layer id="378" name="Constant_4526" type="Const" version="opset1">
			<data element_type="i64" shape="" offset="1022" size="8" />
			<rt_info>
				<attribute name="precise" version="0" />
			</rt_info>
			<output>
				<port id="0" precision="I64" />
			</output>
		</layer>
		<layer id="379" name="Constant_4527" type="Const" version="opset1">
			<data element_type="i64" shape="2" offset="1030" size="16" />
			<rt_info>
				<attribute name="precise" version="0" />
			</rt_info>
			<output>
				<port id="0" precision="I64">
					<dim>2</dim>
				</port>
			</output>
		</layer>
		<layer id="380" name="VariadicSplit_4530" type="VariadicSplit" version="opset1">
			<input>
				<port id="0" precision="I64">
					<dim>4</dim>
				</port>
				<port id="1" precision="I64" />
				<port id="2" precision="I64">
					<dim>2</dim>
				</port>
			</input>
			<output>
				<port id="3" precision="I64">
					<dim>1</dim>
				</port>
				<port id="4" precision="I64">
					<dim>3</dim>
				</port>
			</output>
		</layer>
		<layer id="381" name="Divide_4531" type="Divide" version="opset1">
			<data auto_broadcast="numpy" m_pythondiv="true" />
			<input>
				<port id="0" precision="I64">
					<dim>1</dim>
				</port>
				<port id="1" precision="I64">
					<dim>1</dim>
				</port>
			</input>
			<output>
				<port id="2" precision="I64">
					<dim>1</dim>
				</port>
			</output>
		</layer>
		<layer id="382" name="Concat_4532" type="Concat" version="opset1">
			<data axis="0" />
			<input>
				<port id="0" precision="I64">
					<dim>1</dim>
				</port>
				<port id="1" precision="I64">
					<dim>1</dim>
				</port>
				<port id="2" precision="I64">
					<dim>3</dim>
				</port>
			</input>
			<output>
				<port id="3" precision="I64">
					<dim>5</dim>
				</port>
			</output>
		</layer>
		<layer id="383" name="Reshape_4533" type="Reshape" version="opset1">
			<data special_zero="false" />
			<input>
				<port id="0" precision="FP32">
					<dim>104</dim>
					<dim>1</dim>
					<dim>3</dim>
					<dim>3</dim>
				</port>
				<port id="1" precision="I64">
					<dim>5</dim>
				</port>
			</input>
			<output>
				<port id="2" precision="FP32">
					<dim>104</dim>
					<dim>1</dim>
					<dim>1</dim>
					<dim>3</dim>
					<dim>3</dim>
				</port>
			</output>
		</layer>
		<layer id="384" name="Conv_23" type="GroupConvolution" version="opset1">
			<data strides="1, 1" pads_begin="1, 1" pads_end="1, 1" dilations="1, 1" auto_pad="explicit" />
			<input>
				<port id="0" precision="FP32">
…
		<edge from-layer="563" from-port="1" to-layer="564" to-port="1" />
		<edge from-layer="564" from-port="2" to-layer="565" to-port="1" />
		<edge from-layer="565" from-port="2" to-layer="566" to-port="1" />
		<edge from-layer="566" from-port="2" to-layer="567" to-port="1" />
		<edge from-layer="567" from-port="2" to-layer="570" to-port="0" />
		<edge from-layer="568" from-port="0" to-layer="569" to-port="0" />
		<edge from-layer="569" from-port="1" to-layer="570" to-port="1" />
		<edge from-layer="570" from-port="2" to-layer="581" to-port="0" />
		<edge from-layer="571" from-port="0" to-layer="572" to-port="0" />
		<edge from-layer="572" from-port="1" to-layer="574" to-port="0" />
		<edge from-layer="572" from-port="1" to-layer="580" to-port="0" />
		<edge from-layer="573" from-port="0" to-layer="579" to-port="0" />
		<edge from-layer="573" from-port="0" to-layer="578" to-port="1" />
		<edge from-layer="574" from-port="1" to-layer="577" to-port="0" />
		<edge from-layer="575" from-port="0" to-layer="577" to-port="1" />
		<edge from-layer="576" from-port="0" to-layer="577" to-port="2" />
		<edge from-layer="577" from-port="4" to-layer="579" to-port="2" />
		<edge from-layer="577" from-port="3" to-layer="578" to-port="0" />
		<edge from-layer="578" from-port="2" to-layer="579" to-port="1" />
		<edge from-layer="579" from-port="3" to-layer="580" to-port="1" />
		<edge from-layer="580" from-port="2" to-layer="581" to-port="1" />
		<edge from-layer="581" from-port="2" to-layer="589" to-port="0" />
		<edge from-layer="582" from-port="0" to-layer="589" to-port="1" />
		<edge from-layer="583" from-port="0" to-layer="584" to-port="0" />
		<edge from-layer="584" from-port="1" to-layer="589" to-port="2" />
		<edge from-layer="585" from-port="0" to-layer="586" to-port="0" />
		<edge from-layer="586" from-port="1" to-layer="589" to-port="3" />
		<edge from-layer="587" from-port="0" to-layer="588" to-port="0" />
		<edge from-layer="588" from-port="1" to-layer="589" to-port="4" />
		<edge from-layer="589" from-port="5" to-layer="599" to-port="0" />
		<edge from-layer="589" from-port="5" to-layer="596" to-port="0" />
		<edge from-layer="590" from-port="0" to-layer="591" to-port="0" />
		<edge from-layer="591" from-port="1" to-layer="598" to-port="0" />
		<edge from-layer="592" from-port="0" to-layer="593" to-port="0" />
		<edge from-layer="593" from-port="1" to-layer="597" to-port="0" />
		<edge from-layer="594" from-port="0" to-layer="595" to-port="0" />
		<edge from-layer="595" from-port="1" to-layer="596" to-port="1" />
		<edge from-layer="596" from-port="2" to-layer="597" to-port="1" />
		<edge from-layer="597" from-port="2" to-layer="598" to-port="1" />
		<edge from-layer="598" from-port="2" to-layer="599" to-port="1" />
		<edge from-layer="599" from-port="2" to-layer="602" to-port="0" />
		<edge from-layer="600" from-port="0" to-layer="601" to-port="0" />
		<edge from-layer="601" from-port="1" to-layer="602" to-port="1" />
		<edge from-layer="602" from-port="2" to-layer="605" to-port="0" />
		<edge from-layer="603" from-port="0" to-layer="604" to-port="0" />
		<edge from-layer="604" from-port="1" to-layer="605" to-port="1" />
		<edge from-layer="605" from-port="2" to-layer="614" to-port="0" />
		<edge from-layer="606" from-port="0" to-layer="607" to-port="0" />
		<edge from-layer="607" from-port="1" to-layer="614" to-port="1" />
		<edge from-layer="608" from-port="0" to-layer="609" to-port="0" />
		<edge from-layer="609" from-port="1" to-layer="614" to-port="2" />
		<edge from-layer="610" from-port="0" to-layer="611" to-port="0" />
		<edge from-layer="611" from-port="1" to-layer="614" to-port="3" />
		<edge from-layer="612" from-port="0" to-layer="613" to-port="0" />
		<edge from-layer="613" from-port="1" to-layer="614" to-port="4" />
		<edge from-layer="614" from-port="5" to-layer="685" to-port="0" />
		<edge from-layer="614" from-port="5" to-layer="617" to-port="0" />
		<edge from-layer="615" from-port="0" to-layer="616" to-port="0" />
		<edge from-layer="616" from-port="1" to-layer="617" to-port="1" />
		<edge from-layer="617" from-port="2" to-layer="626" to-port="0" />
		<edge from-layer="618" from-port="0" to-layer="619" to-port="0" />
		<edge from-layer="619" from-port="1" to-layer="626" to-port="1" />
		<edge from-layer="620" from-port="0" to-layer="621" to-port="0" />
		<edge from-layer="621" from-port="1" to-layer="626" to-port="2" />
		<edge from-layer="622" from-port="0" to-layer="623" to-port="0" />
		<edge from-layer="623" from-port="1" to-layer="626" to-port="3" />
		<edge from-layer="624" from-port="0" to-layer="625" to-port="0" />
		<edge from-layer="625" from-port="1" to-layer="626" to-port="4" />
		<edge from-layer="626" from-port="5" to-layer="633" to-port="0" />
		<edge from-layer="626" from-port="5" to-layer="636" to-port="0" />
		<edge from-layer="627" from-port="0" to-layer="628" to-port="0" />
		<edge from-layer="628" from-port="1" to-layer="635" to-port="0" />
		<edge from-layer="629" from-port="0" to-layer="630" to-port="0" />
		<edge from-layer="630" from-port="1" to-layer="634" to-port="0" />
		<edge from-layer="631" from-port="0" to-layer="632" to-port="0" />
		<edge from-layer="632" from-port="1" to-layer="633" to-port="1" />
		<edge from-layer="633" from-port="2" to-layer="634" to-port="1" />
		<edge from-layer="634" from-port="2" to-layer="635" to-port="1" />
		<edge from-layer="635" from-port="2" to-layer="636" to-port="1" />
		<edge from-layer="636" from-port="2" to-layer="639" to-port="0" />
		<edge from-layer="637" from-port="0" to-layer="638" to-port="0" />
		<edge from-layer="638" from-port="1" to-layer="639" to-port="1" />
		<edge from-layer="639" from-port="2" to-layer="650" to-port="0" />
		<edge from-layer="640" from-port="0" to-layer="641" to-port="0" />
		<edge from-layer="641" from-port="1" to-layer="643" to-port="0" />
		<edge from-layer="641" from-port="1" to-layer="649" to-port="0" />
		<edge from-layer="642" from-port="0" to-layer="647" to-port="1" />
		<edge from-layer="642" from-port="0" to-layer="648" to-port="0" />
		<edge from-layer="643" from-port="1" to-layer="646" to-port="0" />
		<edge from-layer="644" from-port="0" to-layer="646" to-port="1" />
		<edge from-layer="645" from-port="0" to-layer="646" to-port="2" />
		<edge from-layer="646" from-port="4" to-layer="648" to-port="2" />
		<edge from-layer="646" from-port="3" to-layer="647" to-port="0" />
		<edge from-layer="647" from-port="2" to-layer="648" to-port="1" />
		<edge from-layer="648" from-port="3" to-layer="649" to-port="1" />
		<edge from-layer="649" from-port="2" to-layer="650" to-port="1" />
		<edge from-layer="650" from-port="2" to-layer="659" to-port="0" />
		<edge from-layer="651" from-port="0" to-layer="652" to-port="0" />
		<edge from-layer="652" from-port="1" to-layer="659" to-port="1" />
		<edge from-layer="653" from-port="0" to-layer="654" to-port="0" />
		<edge from-layer="654" from-port="1" to-layer="659" to-port="2" />
		<edge from-layer="655" from-port="0" to-layer="656" to-port="0" />
		<edge from-layer="656" from-port="1" to-layer="659" to-port="3" />
		<edge from-layer="657" from-port="0" to-layer="658" to-port="0" />
		<edge from-layer="658" from-port="1" to-layer="659" to-port="4" />
		<edge from-layer="659" from-port="5" to-layer="666" to-port="0" />
		<edge from-layer="659" from-port="5" to-layer="669" to-port="0" />
		<edge from-layer="660" from-port="0" to-layer="661" to-port="0" />
		<edge from-layer="661" from-port="1" to-layer="668" to-port="0" />
		<edge from-layer="662" from-port="0" to-layer="663" to-port="0" />
		<edge from-layer="663" from-port="1" to-layer="667" to-port="0" />
		<edge from-layer="664" from-port="0" to-layer="665" to-port="0" />
		<edge from-layer="665" from-port="1" to-layer="666" to-port="1" />
		<edge from-layer="666" from-port="2" to-layer="667" to-port="1" />
		<edge from-layer="667" from-port="2" to-layer="668" to-port="1" />
		<edge from-layer="668" from-port="2" to-layer="669" to-port="1" />
		<edge from-layer="669" from-port="2" to-layer="672" to-port="0" />
		<edge from-layer="670" from-port="0" to-layer="671" to-port="0" />
		<edge from-layer="671" from-port="1" to-layer="672" to-port="1" />
		<edge from-layer="672" from-port="2" to-layer="675" to-port="0" />
		<edge from-layer="673" from-port="0" to-layer="674" to-port="0" />
		<edge from-layer="674" from-port="1" to-layer="675" to-port="1" />
		<edge from-layer="675" from-port="2" to-layer="684" to-port="0" />
		<edge from-layer="676" from-port="0" to-layer="677" to-port="0" />
		<edge from-layer="677" from-port="1" to-layer="684" to-port="1" />
		<edge from-layer="678" from-port="0" to-layer="679" to-port="0" />
		<edge from-layer="679" from-port="1" to-layer="684" to-port="2" />
		<edge from-layer="680" from-port="0" to-layer="681" to-port="0" />
		<edge from-layer="681" from-port="1" to-layer="684" to-port="3" />
		<edge from-layer="682" from-port="0" to-layer="683" to-port="0" />
		<edge from-layer="683" from-port="1" to-layer="684" to-port="4" />
		<edge from-layer="684" from-port="5" to-layer="685" to-port="1" />
		<edge from-layer="685" from-port="2" to-layer="688" to-port="0" />
		<edge from-layer="685" from-port="2" to-layer="982" to-port="0" />
		<edge from-layer="686" from-port="0" to-layer="687" to-port="0" />
		<edge from-layer="687" from-port="1" to-layer="688" to-port="1" />
		<edge from-layer="688" from-port="2" to-layer="697" to-port="0" />
		<edge from-layer="689" from-port="0" to-layer="690" to-port="0" />
		<edge from-layer="690" from-port="1" to-layer="697" to-port="1" />
		<edge from-layer="691" from-port="0" to-layer="692" to-port="0" />
		<edge from-layer="692" from-port="1" to-layer="697" to-port="2" />
		<edge from-layer="693" from-port="0" to-layer="694" to-port="0" />
		<edge from-layer="694" from-port="1" to-layer="697" to-port="3" />
		<edge from-layer="695" from-port="0" to-layer="696" to-port="0" />
		<edge from-layer="696" from-port="1" to-layer="697" to-port="4" />
		<edge from-layer="697" from-port="5" to-layer="704" to-port="0" />
		<edge from-layer="697" from-port="5" to-layer="707" to-port="0" />
		<edge from-layer="698" from-port="0" to-layer="699" to-port="0" />
		<edge from-layer="699" from-port="1" to-layer="706" to-port="0" />
		<edge from-layer="700" from-port="0" to-layer="701" to-port="0" />
		<edge from-layer="701" from-port="1" to-layer="705" to-port="0" />
		<edge from-layer="702" from-port="0" to-layer="703" to-port="0" />
		<edge from-layer="703" from-port="1" to-layer="704" to-port="1" />
		<edge from-layer="704" from-port="2" to-layer="705" to-port="1" />
		<edge from-layer="705" from-port="2" to-layer="706" to-port="1" />
		<edge from-layer="706" from-port="2" to-layer="707" to-port="1" />
		<edge from-layer="707" from-port="2" to-layer="710" to-port="0" />
		<edge from-layer="708" from-port="0" to-layer="709" to-port="0" />
		<edge from-layer="709" from-port="1" to-layer="710" to-port="1" />
		<edge from-layer="710" from-port="2" to-layer="721" to-port="0" />
		<edge from-layer="711" from-port="0" to-layer="712" to-port="0" />
		<edge from-layer="712" from-port="1" to-layer="714" to-port="0" />
		<edge from-layer="712" from-port="1" to-layer="720" to-port="0" />
		<edge from-layer="713" from-port="0" to-layer="719" to-port="0" />
		<edge from-layer="713" from-port="0" to-layer="718" to-port="1" />
		<edge from-layer="714" from-port="1" to-layer="717" to-port="0" />
		<edge from-layer="715" from-port="0" to-layer="717" to-port="1" />
		<edge from-layer="716" from-port="0" to-layer="717" to-port="2" />
		<edge from-layer="717" from-port="4" to-layer="719" to-port="2" />
		<edge from-layer="717" from-port="3" to-layer="718" to-port="0" />
		<edge from-layer="718" from-port="2" to-layer="719" to-port="1" />
		<edge from-layer="719" from-port="3" to-layer="720" to-port="1" />
		<edge from-layer="720" from-port="2" to-layer="721" to-port="1" />
		<edge from-layer="721" from-port="2" to-layer="730" to-port="0" />
		<edge from-layer="722" from-port="0" to-layer="723" to-port="0" />
		<edge from-layer="723" from-port="1" to-layer="730" to-port="1" />
		<edge from-layer="724" from-port="0" to-layer="725" to-port="0" />
		<edge from-layer="725" from-port="1" to-layer="730" to-port="2" />
		<edge from-layer="726" from-port="0" to-layer="727" to-port="0" />
		<edge from-layer="727" from-port="1" to-layer="730" to-port="3" />
		<edge from-layer="728" from-port="0" to-layer="729" to-port="0" />
		<edge from-layer="729" from-port="1" to-layer="730" to-port="4" />
		<edge from-layer="730" from-port="5" to-layer="737" to-port="0" />
		<edge from-layer="730" from-port="5" to-layer="740" to-port="0" />
		<edge from-layer="731" from-port="0" to-layer="732" to-port="0" />
		<edge from-layer="732" from-port="1" to-layer="739" to-port="0" />
		<edge from-layer="733" from-port="0" to-layer="734" to-port="0" />
		<edge from-layer="734" from-port="1" to-layer="738" to-port="0" />
		<edge from-layer="735" from-port="0" to-layer="736" to-port="0" />
		<edge from-layer="736" from-port="1" to-layer="737" to-port="1" />
		<edge from-layer="737" from-port="2" to-layer="738" to-port="1" />
		<edge from-layer="738" from-port="2" to-layer="739" to-port="1" />
		<edge from-layer="739" from-port="2" to-layer="740" to-port="1" />
		<edge from-layer="740" from-port="2" to-layer="743" to-port="0" />
		<edge from-layer="741" from-port="0" to-layer="742" to-port="0" />
		<edge from-layer="742" from-port="1" to-layer="743" to-port="1" />
		<edge from-layer="743" from-port="2" to-layer="746" to-port="0" />
		<edge from-layer="744" from-port="0" to-layer="745" to-port="0" />
		<edge from-layer="745" from-port="1" to-layer="746" to-port="1" />
		<edge from-layer="746" from-port="2" to-layer="753" to-port="0" />
		<edge from-layer="747" from-port="0" to-layer="748" to-port="0" />
		<edge from-layer="748" from-port="1" to-layer="753" to-port="1" />
		<edge from-layer="749" from-port="0" to-layer="753" to-port="2" />
		<edge from-layer="750" from-port="0" to-layer="753" to-port="3" />
		<edge from-layer="751" from-port="0" to-layer="752" to-port="0" />
		<edge from-layer="752" from-port="1" to-layer="753" to-port="4" />
		<edge from-layer="753" from-port="5" to-layer="756" to-port="0" />
		<edge from-layer="753" from-port="5" to-layer="820" to-port="0" />
		<edge from-layer="754" from-port="0" to-layer="755" to-port="0" />
		<edge from-layer="755" from-port="1" to-layer="756" to-port="1" />
		<edge from-layer="756" from-port="2" to-layer="764" to-port="0" />
		<edge from-layer="757" from-port="0" to-layer="758" to-port="0" />
		<edge from-layer="758" from-port="1" to-layer="764" to-port="1" />
		<edge from-layer="759" from-port="0" to-layer="760" to-port="0" />
		<edge from-layer="760" from-port="1" to-layer="764" to-port="2" />
		<edge from-layer="761" from-port="0" to-layer="764" to-port="3" />
		<edge from-layer="762" from-port="0" to-layer="763" to-port="0" />
		<edge from-layer="763" from-port="1" to-layer="764" to-port="4" />
		<edge from-layer="764" from-port="5" to-layer="774" to-port="0" />
		<edge from-layer="764" from-port="5" to-layer="771" to-port="0" />
		<edge from-layer="765" from-port="0" to-layer="766" to-port="0" />
		<edge from-layer="766" from-port="1" to-layer="773" to-port="0" />
		<edge from-layer="767" from-port="0" to-layer="768" to-port="0" />
		<edge from-layer="768" from-port="1" to-layer="772" to-port="0" />
		<edge from-layer="769" from-port="0" to-layer="770" to-port="0" />
		<edge from-layer="770" from-port="1" to-layer="771" to-port="1" />
		<edge from-layer="771" from-port="2" to-layer="772" to-port="1" />
		<edge from-layer="772" from-port="2" to-layer="773" to-port="1" />
		<edge from-layer="773" from-port="2" to-layer="774" to-port="1" />
		<edge from-layer="774" from-port="2" to-layer="777" to-port="0" />
		<edge from-layer="775" from-port="0" to-layer="776" to-port="0" />
		<edge from-layer="776" from-port="1" to-layer="777" to-port="1" />
		<edge from-layer="777" from-port="2" to-layer="788" to-port="0" />
		<edge from-layer="778" from-port="0" to-layer="779" to-port="0" />
		<edge from-layer="779" from-port="1" to-layer="781" to-port="0" />
		<edge from-layer="779" from-port="1" to-layer="787" to-port="0" />
		<edge from-layer="780" from-port="0" to-layer="785" to-port="1" />
		<edge from-layer="780" from-port="0" to-layer="786" to-port="0" />
		<edge from-layer="781" from-port="1" to-layer="784" to-port="0" />
		<edge from-layer="782" from-port="0" to-layer="784" to-port="1" />
		<edge from-layer="783" from-port="0" to-layer="784" to-port="2" />
		<edge from-layer="784" from-port="4" to-layer="786" to-port="2" />
		<edge from-layer="784" from-port="3" to-layer="785" to-port="0" />
		<edge from-layer="785" from-port="2" to-layer="786" to-port="1" />
		<edge from-layer="786" from-port="3" to-layer="787" to-port="1" />
		<edge from-layer="787" from-port="2" to-layer="788" to-port="1" />
		<edge from-layer="788" from-port="2" to-layer="796" to-port="0" />
		<edge from-layer="789" from-port="0" to-layer="790" to-port="0" />
		<edge from-layer="790" from-port="1" to-layer="796" to-port="1" />
		<edge from-layer="791" from-port="0" to-layer="796" to-port="2" />
		<edge from-layer="792" from-port="0" to-layer="793" to-port="0" />
		<edge from-layer="793" from-port="1" to-layer="796" to-port="3" />
		<edge from-layer="794" from-port="0" to-layer="795" to-port="0" />
		<edge from-layer="795" from-port="1" to-layer="796" to-port="4" />
		<edge from-layer="796" from-port="5" to-layer="806" to-port="0" />
		<edge from-layer="796" from-port="5" to-layer="803" to-port="0" />
		<edge from-layer="797" from-port="0" to-layer="798" to-port="0" />
		<edge from-layer="798" from-port="1" to-layer="805" to-port="0" />
		<edge from-layer="799" from-port="0" to-layer="800" to-port="0" />
		<edge from-layer="800" from-port="1" to-layer="804" to-port="0" />
		<edge from-layer="801" from-port="0" to-layer="802" to-port="0" />
		<edge from-layer="802" from-port="1" to-layer="803" to-port="1" />
		<edge from-layer="803" from-port="2" to-layer="804" to-port="1" />
		<edge from-layer="804" from-port="2" to-layer="805" to-port="1" />
		<edge from-layer="805" from-port="2" to-layer="806" to-port="1" />
		<edge from-layer="806" from-port="2" to-layer="809" to-port="0" />
		<edge from-layer="807" from-port="0" to-layer="808" to-port="0" />
		<edge from-layer="808" from-port="1" to-layer="809" to-port="1" />
		<edge from-layer="809" from-port="2" to-layer="812" to-port="0" />
		<edge from-layer="810" from-port="0" to-layer="811" to-port="0" />
		<edge from-layer="811" from-port="1" to-layer="812" to-port="1" />
		<edge from-layer="812" from-port="2" to-layer="819" to-port="0" />
		<edge from-layer="813" from-port="0" to-layer="814" to-port="0" />
		<edge from-layer="814" from-port="1" to-layer="819" to-port="1" />
		<edge from-layer="815" from-port="0" to-layer="819" to-port="2" />
		<edge from-layer="816" from-port="0" to-layer="817" to-port="0" />
		<edge from-layer="817" from-port="1" to-layer="819" to-port="3" />
		<edge from-layer="818" from-port="0" to-layer="819" to-port="4" />
		<edge from-layer="819" from-port="5" to-layer="820" to-port="1" />
		<edge from-layer="820" from-port="2" to-layer="888" to-port="0" />
		<edge from-layer="820" from-port="2" to-layer="823" to-port="0" />
		<edge from-layer="821" from-port="0" to-layer="822" to-port="0" />
		<edge from-layer="822" from-port="1" to-layer="823" to-port="1" />
		<edge from-layer="823" from-port="2" to-layer="831" to-port="0" />
		<edge from-layer="824" from-port="0" to-layer="825" to-port="0" />
		<edge from-layer="825" from-port="1" to-layer="831" to-port="1" />
		<edge from-layer="826" from-port="0" to-layer="827" to-port="0" />
		<edge from-layer="827" from-port="1" to-layer="831" to-port="2" />
		<edge from-layer="828" from-port="0" to-layer="831" to-port="3" />
		<edge from-layer="829" from-port="0" to-layer="830" to-port="0" />
		<edge from-layer="830" from-port="1" to-layer="831" to-port="4" />
		<edge from-layer="831" from-port="5" to-layer="838" to-port="0" />
		<edge from-layer="831" from-port="5" to-layer="841" to-port="0" />
		<edge from-layer="832" from-port="0" to-layer="833" to-port="0" />
		<edge from-layer="833" from-port="1" to-layer="840" to-port="0" />
		<edge from-layer="834" from-port="0" to-layer="835" to-port="0" />
		<edge from-layer="835" from-port="1" to-layer="839" to-port="0" />
		<edge from-layer="836" from-port="0" to-layer="837" to-port="0" />
		<edge from-layer="837" from-port="1" to-layer="838" to-port="1" />
		<edge from-layer="838" from-port="2" to-layer="839" to-port="1" />
		<edge from-layer="839" from-port="2" to-layer="840" to-port="1" />
		<edge from-layer="840" from-port="2" to-layer="841" to-port="1" />
		<edge from-layer="841" from-port="2" to-layer="844" to-port="0" />
		<edge from-layer="842" from-port="0" to-layer="843" to-port="0" />
		<edge from-layer="843" from-port="1" to-layer="844" to-port="1" />
		<edge from-layer="844" from-port="2" to-layer="855" to-port="0" />
		<edge from-layer="845" from-port="0" to-layer="846" to-port="0" />
		<edge from-layer="846" from-port="1" to-layer="848" to-port="0" />
		<edge from-layer="846" from-port="1" to-layer="854" to-port="0" />
		<edge from-layer="847" from-port="0" to-layer="852" to-port="1" />
		<edge from-layer="847" from-port="0" to-layer="853" to-port="0" />
		<edge from-layer="848" from-port="1" to-layer="851" to-port="0" />
		<edge from-layer="849" from-port="0" to-layer="851" to-port="1" />
		<edge from-layer="850" from-port="0" to-layer="851" to-port="2" />
		<edge from-layer="851" from-port="4" to-layer="853" to-port="2" />
		<edge from-layer="851" from-port="3" to-layer="852" to-port="0" />
		<edge from-layer="852" from-port="2" to-layer="853" to-port="1" />
		<edge from-layer="853" from-port="3" to-layer="854" to-port="1" />
		<edge from-layer="854" from-port="2" to-layer="855" to-port="1" />
		<edge from-layer="855" from-port="2" to-layer="864" to-port="0" />
		<edge from-layer="856" from-port="0" to-layer="857" to-port="0" />
		<edge from-layer="857" from-port="1" to-layer="864" to-port="1" />
		<edge from-layer="858" from-port="0" to-layer="859" to-port="0" />
		<edge from-layer="859" from-port="1" to-layer="864" to-port="2" />
		<edge from-layer="860" from-port="0" to-layer="861" to-port="0" />
		<edge from-layer="861" from-port="1" to-layer="864" to-port="3" />
		<edge from-layer="862" from-port="0" to-layer="863" to-port="0" />
		<edge from-layer="863" from-port="1" to-layer="864" to-port="4" />
		<edge from-layer="864" from-port="5" to-layer="871" to-port="0" />
		<edge from-layer="864" from-port="5" to-layer="874" to-port="0" />
		<edge from-layer="865" from-port="0" to-layer="866" to-port="0" />
		<edge from-layer="866" from-port="1" to-layer="873" to-port="0" />
		<edge from-layer="867" from-port="0" to-layer="868" to-port="0" />
		<edge from-layer="868" from-port="1" to-layer="872" to-port="0" />
		<edge from-layer="869" from-port="0" to-layer="870" to-port="0" />
		<edge from-layer="870" from-port="1" to-layer="871" to-port="1" />
		<edge from-layer="871" from-port="2" to-layer="872" to-port="1" />
		<edge from-layer="872" from-port="2" to-layer="873" to-port="1" />
		<edge from-layer="873" from-port="2" to-layer="874" to-port="1" />
		<edge from-layer="874" from-port="2" to-layer="877" to-port="0" />
		<edge from-layer="875" from-port="0" to-layer="876" to-port="0" />
		<edge from-layer="876" from-port="1" to-layer="877" to-port="1" />
		<edge from-layer="877" from-port="2" to-layer="880" to-port="0" />
		<edge from-layer="878" from-port="0" to-layer="879" to-port="0" />
		<edge from-layer="879" from-port="1" to-layer="880" to-port="1" />
		<edge from-layer="880" from-port="2" to-layer="887" to-port="0" />
		<edge from-layer="881" from-port="0" to-layer="882" to-port="0" />
		<edge from-layer="882" from-port="1" to-layer="887" to-port="1" />
		<edge from-layer="883" from-port="0" to-layer="887" to-port="2" />
		<edge from-layer="884" from-port="0" to-layer="887" to-port="3" />
		<edge from-layer="885" from-port="0" to-layer="886" to-port="0" />
		<edge from-layer="886" from-port="1" to-layer="887" to-port="4" />
		<edge from-layer="887" from-port="5" to-layer="888" to-port="1" />
		<edge from-layer="888" from-port="2" to-layer="891" to-port="0" />
		<edge from-layer="889" from-port="0" to-layer="890" to-port="0" />
		<edge from-layer="890" from-port="1" to-layer="891" to-port="1" />
		<edge from-layer="891" from-port="2" to-layer="899" to-port="0" />
		<edge from-layer="892" from-port="0" to-layer="893" to-port="0" />
		<edge from-layer="893" from-port="1" to-layer="899" to-port="1" />
		<edge from-layer="894" from-port="0" to-layer="895" to-port="0" />
		<edge from-layer="895" from-port="1" to-layer="899" to-port="2" />
		<edge from-layer="896" from-port="0" to-layer="899" to-port="3" />
		<edge from-layer="897" from-port="0" to-layer="898" to-port="0" />
		<edge from-layer="898" from-port="1" to-layer="899" to-port="4" />
		<edge from-layer="899" from-port="5" to-layer="906" to-port="0" />
		<edge from-layer="899" from-port="5" to-layer="909" to-port="0" />
		<edge from-layer="900" from-port="0" to-layer="901" to-port="0" />
		<edge from-layer="901" from-port="1" to-layer="908" to-port="0" />
		<edge from-layer="902" from-port="0" to-layer="903" to-port="0" />
		<edge from-layer="903" from-port="1" to-layer="907" to-port="0" />
		<edge from-layer="904" from-port="0" to-layer="905" to-port="0" />
		<edge from-layer="905" from-port="1" to-layer="906" to-port="1" />
		<edge from-layer="906" from-port="2" to-layer="907" to-port="1" />
		<edge from-layer="907" from-port="2" to-layer="908" to-port="1" />
		<edge from-layer="908" from-port="2" to-layer="909" to-port="1" />
		<edge from-layer="909" from-port="2" to-layer="912" to-port="0" />
		<edge from-layer="910" from-port="0" to-layer="911" to-port="0" />
		<edge from-layer="911" from-port="1" to-layer="912" to-port="1" />
		<edge from-layer="912" from-port="2" to-layer="915" to-port="0" />
		<edge from-layer="913" from-port="0" to-layer="914" to-port="0" />
		<edge from-layer="914" from-port="1" to-layer="915" to-port="1" />
		<edge from-layer="915" from-port="2" to-layer="917" to-port="0" />
		<edge from-layer="915" from-port="2" to-layer="922" to-port="0" />
		<edge from-layer="915" from-port="2" to-layer="944" to-port="0" />
		<edge from-layer="915" from-port="2" to-layer="943" to-port="0" />
		<edge from-layer="916" from-port="0" to-layer="921" to-port="0" />
		<edge from-layer="917" from-port="1" to-layer="918" to-port="0" />
		<edge from-layer="918" from-port="1" to-layer="919" to-port="0" />
		<edge from-layer="919" from-port="1" to-layer="921" to-port="1" />
		<edge from-layer="920" from-port="0" to-layer="921" to-port="2" />
		<edge from-layer="921" from-port="3" to-layer="922" to-port="1" />
		<edge from-layer="922" from-port="2" to-layer="925" to-port="0" />
		<edge from-layer="923" from-port="0" to-layer="924" to-port="0" />
		<edge from-layer="924" from-port="1" to-layer="925" to-port="1" />
		<edge from-layer="925" from-port="2" to-layer="929" to-port="0" />
		<edge from-layer="926" from-port="0" to-layer="928" to-port="0" />
		<edge from-layer="927" from-port="0" to-layer="928" to-port="1" />
		<edge from-layer="928" from-port="2" to-layer="929" to-port="1" />
		<edge from-layer="929" from-port="2" to-layer="930" to-port="0" />
		<edge from-layer="930" from-port="1" to-layer="933" to-port="0" />
		<edge from-layer="931" from-port="0" to-layer="932" to-port="0" />
		<edge from-layer="932" from-port="1" to-layer="933" to-port="1" />
		<edge from-layer="933" from-port="2" to-layer="938" to-port="0" />
		<edge from-layer="934" from-port="0" to-layer="935" to-port="0" />
		<edge from-layer="935" from-port="1" to-layer="937" to-port="0" />
		<edge from-layer="936" from-port="0" to-layer="937" to-port="1" />
		<edge from-layer="937" from-port="2" to-layer="938" to-port="1" />
		<edge from-layer="938" from-port="2" to-layer="942" to-port="0" />
		<edge from-layer="939" from-port="0" to-layer="942" to-port="1" />
		<edge from-layer="940" from-port="0" to-layer="941" to-port="0" />
		<edge from-layer="941" from-port="1" to-layer="942" to-port="2" />
		<edge from-layer="942" from-port="3" to-layer="943" to-port="1" />
		<edge from-layer="943" from-port="2" to-layer="944" to-port="1" />
		<edge from-layer="944" from-port="2" to-layer="1013" to-port="0" />
		<edge from-layer="944" from-port="2" to-layer="947" to-port="0" />
		<edge from-layer="945" from-port="0" to-layer="946" to-port="0" />
		<edge from-layer="946" from-port="1" to-layer="947" to-port="1" />
		<edge from-layer="947" from-port="2" to-layer="954" to-port="0" />
		<edge from-layer="947" from-port="2" to-layer="949" to-port="0" />
		<edge from-layer="947" from-port="2" to-layer="977" to-port="0" />
		<edge from-layer="947" from-port="2" to-layer="976" to-port="0" />
		<edge from-layer="948" from-port="0" to-layer="953" to-port="0" />
		<edge from-layer="949" from-port="1" to-layer="950" to-port="0" />
		<edge from-layer="950" from-port="1" to-layer="951" to-port="0" />
		<edge from-layer="951" from-port="1" to-layer="953" to-port="1" />
		<edge from-layer="952" from-port="0" to-layer="953" to-port="2" />
		<edge from-layer="953" from-port="3" to-layer="954" to-port="1" />
		<edge from-layer="954" from-port="2" to-layer="957" to-port="0" />
		<edge from-layer="955" from-port="0" to-layer="956" to-port="0" />
		<edge from-layer="956" from-port="1" to-layer="957" to-port="1" />
		<edge from-layer="957" from-port="2" to-layer="962" to-port="0" />
		<edge from-layer="958" from-port="0" to-layer="959" to-port="0" />
		<edge from-layer="959" from-port="1" to-layer="961" to-port="0" />
		<edge from-layer="960" from-port="0" to-layer="961" to-port="1" />
		<edge from-layer="961" from-port="2" to-layer="962" to-port="1" />
		<edge from-layer="962" from-port="2" to-layer="963" to-port="0" />
		<edge from-layer="963" from-port="1" to-layer="966" to-port="0" />
		<edge from-layer="964" from-port="0" to-layer="965" to-port="0" />
		<edge from-layer="965" from-port="1" to-layer="966" to-port="1" />
		<edge from-layer="966" from-port="2" to-layer="971" to-port="0" />
		<edge from-layer="967" from-port="0" to-layer="968" to-port="0" />
		<edge from-layer="968" from-port="1" to-layer="970" to-port="0" />
		<edge from-layer="969" from-port="0" to-layer="970" to-port="1" />
		<edge from-layer="970" from-port="2" to-layer="971" to-port="1" />
		<edge from-layer="971" from-port="2" to-layer="975" to-port="0" />
		<edge from-layer="972" from-port="0" to-layer="975" to-port="1" />
		<edge from-layer="973" from-port="0" to-layer="974" to-port="0" />
		<edge from-layer="974" from-port="1" to-layer="975" to-port="2" />
		<edge from-layer="975" from-port="3" to-layer="976" to-port="1" />
		<edge from-layer="976" from-port="2" to-layer="977" to-port="1" />
		<edge from-layer="977" from-port="2" to-layer="979" to-port="0" />
		<edge from-layer="978" from-port="0" to-layer="979" to-port="1" />
		<edge from-layer="979" from-port="2" to-layer="1186" to-port="0" />
		<edge from-layer="980" from-port="0" to-layer="981" to-port="0" />
		<edge from-layer="981" from-port="1" to-layer="982" to-port="1" />
		<edge from-layer="982" from-port="2" to-layer="984" to-port="0" />
		<edge from-layer="982" from-port="2" to-layer="1011" to-port="0" />
		<edge from-layer="982" from-port="2" to-layer="1010" to-port="0" />
		<edge from-layer="982" from-port="2" to-layer="989" to-port="0" />
		<edge from-layer="983" from-port="0" to-layer="988" to-port="0" />
		<edge from-layer="984" from-port="1" to-layer="985" to-port="0" />
		<edge from-layer="985" from-port="1" to-layer="986" to-port="0" />
		<edge from-layer="986" from-port="1" to-layer="988" to-port="1" />
		<edge from-layer="987" from-port="0" to-layer="988" to-port="2" />
		<edge from-layer="988" from-port="3" to-layer="989" to-port="1" />
		<edge from-layer="989" from-port="2" to-layer="992" to-port="0" />
		<edge from-layer="990" from-port="0" to-layer="991" to-port="0" />
		<edge from-layer="991" from-port="1" to-layer="992" to-port="1" />
		<edge from-layer="992" from-port="2" to-layer="997" to-port="0" />
		<edge from-layer="993" from-port="0" to-layer="994" to-port="0" />
		<edge from-layer="994" from-port="1" to-layer="996" to-port="0" />
		<edge from-layer="995" from-port="0" to-layer="996" to-port="1" />
		<edge from-layer="996" from-port="2" to-layer="997" to-port="1" />
		<edge from-layer="997" from-port="2" to-layer="998" to-port="0" />
		<edge from-layer="998" from-port="1" to-layer="1001" to-port="0" />
		<edge from-layer="999" from-port="0" to-layer="1000" to-port="0" />
		<edge from-layer="1000" from-port="1" to-layer="1001" to-port="1" />
		<edge from-layer="1001" from-port="2" to-layer="1005" to-port="0" />
		<edge from-layer="1002" from-port="0" to-layer="1004" to-port="0" />
		<edge from-layer="1003" from-port="0" to-layer="1004" to-port="1" />
		<edge from-layer="1004" from-port="2" to-layer="1005" to-port="1" />
		<edge from-layer="1005" from-port="2" to-layer="1009" to-port="0" />
		<edge from-layer="1006" from-port="0" to-layer="1009" to-port="1" />
		<edge from-layer="1007" from-port="0" to-layer="1008" to-port="0" />
		<edge from-layer="1008" from-port="1" to-layer="1009" to-port="2" />
		<edge from-layer="1009" from-port="3" to-layer="1010" to-port="1" />
		<edge from-layer="1010" from-port="2" to-layer="1011" to-port="1" />
		<edge from-layer="1011" from-port="2" to-layer="1014" to-port="0" />
		<edge from-layer="1012" from-port="0" to-layer="1013" to-port="1" />
		<edge from-layer="1013" from-port="2" to-layer="1014" to-port="1" />
		<edge from-layer="1014" from-port="2" to-layer="1082" to-port="0" />
		<edge from-layer="1014" from-port="2" to-layer="1017" to-port="0" />
		<edge from-layer="1015" from-port="0" to-layer="1016" to-port="0" />
		<edge from-layer="1016" from-port="1" to-layer="1017" to-port="1" />
		<edge from-layer="1017" from-port="2" to-layer="1019" to-port="0" />
		<edge from-layer="1017" from-port="2" to-layer="1046" to-port="0" />
		<edge from-layer="1017" from-port="2" to-layer="1045" to-port="0" />
		<edge from-layer="1017" from-port="2" to-layer="1024" to-port="0" />
		<edge from-layer="1018" from-port="0" to-layer="1023" to-port="0" />
		<edge from-layer="1019" from-port="1" to-layer="1020" to-port="0" />
		<edge from-layer="1020" from-port="1" to-layer="1021" to-port="0" />
		<edge from-layer="1021" from-port="1" to-layer="1023" to-port="1" />
		<edge from-layer="1022" from-port="0" to-layer="1023" to-port="2" />
		<edge from-layer="1023" from-port="3" to-layer="1024" to-port="1" />
		<edge from-layer="1024" from-port="2" to-layer="1026" to-port="0" />
		<edge from-layer="1025" from-port="0" to-layer="1026" to-port="1" />
		<edge from-layer="1026" from-port="2" to-layer="1031" to-port="0" />
		<edge from-layer="1027" from-port="0" to-layer="1028" to-port="0" />
		<edge from-layer="1028" from-port="1" to-layer="1030" to-port="0" />
		<edge from-layer="1029" from-port="0" to-layer="1030" to-port="1" />
		<edge from-layer="1030" from-port="2" to-layer="1031" to-port="1" />
		<edge from-layer="1031" from-port="2" to-layer="1032" to-port="0" />
		<edge from-layer="1032" from-port="1" to-layer="1035" to-port="0" />
		<edge from-layer="1033" from-port="0" to-layer="1034" to-port="0" />
		<edge from-layer="1034" from-port="1" to-layer="1035" to-port="1" />
		<edge from-layer="1035" from-port="2" to-layer="1040" to-port="0" />
		<edge from-layer="1036" from-port="0" to-layer="1037" to-port="0" />
		<edge from-layer="1037" from-port="1" to-layer="1039" to-port="0" />
		<edge from-layer="1038" from-port="0" to-layer="1039" to-port="1" />
		<edge from-layer="1039" from-port="2" to-layer="1040" to-port="1" />
		<edge from-layer="1040" from-port="2" to-layer="1044" to-port="0" />
		<edge from-layer="1041" from-port="0" to-layer="1044" to-port="1" />
		<edge from-layer="1042" from-port="0" to-layer="1043" to-port="0" />
		<edge from-layer="1043" from-port="1" to-layer="1044" to-port="2" />
		<edge from-layer="1044" from-port="3" to-layer="1045" to-port="1" />
		<edge from-layer="1045" from-port="2" to-layer="1046" to-port="1" />
		<edge from-layer="1046" from-port="2" to-layer="1048" to-port="0" />
		<edge from-layer="1047" from-port="0" to-layer="1048" to-port="1" />
		<edge from-layer="1048" from-port="2" to-layer="1186" to-port="1" />
		<edge from-layer="1049" from-port="0" to-layer="1050" to-port="0" />
		<edge from-layer="1050" from-port="1" to-layer="1051" to-port="1" />
		<edge from-layer="1051" from-port="2" to-layer="1053" to-port="0" />
		<edge from-layer="1051" from-port="2" to-layer="1080" to-port="0" />
		<edge from-layer="1051" from-port="2" to-layer="1079" to-port="0" />
		<edge from-layer="1051" from-port="2" to-layer="1058" to-port="0" />
		<edge from-layer="1052" from-port="0" to-layer="1057" to-port="0" />
		<edge from-layer="1053" from-port="1" to-layer="1054" to-port="0" />
		<edge from-layer="1054" from-port="1" to-layer="1055" to-port="0" />
		<edge from-layer="1055" from-port="1" to-layer="1057" to-port="1" />
		<edge from-layer="1056" from-port="0" to-layer="1057" to-port="2" />
		<edge from-layer="1057" from-port="3" to-layer="1058" to-port="1" />
		<edge from-layer="1058" from-port="2" to-layer="1061" to-port="0" />
		<edge from-layer="1059" from-port="0" to-layer="1060" to-port="0" />
		<edge from-layer="1060" from-port="1" to-layer="1061" to-port="1" />
		<edge from-layer="1061" from-port="2" to-layer="1066" to-port="0" />
		<edge from-layer="1062" from-port="0" to-layer="1063" to-port="0" />
		<edge from-layer="1063" from-port="1" to-layer="1065" to-port="0" />
		<edge from-layer="1064" from-port="0" to-layer="1065" to-port="1" />
		<edge from-layer="1065" from-port="2" to-layer="1066" to-port="1" />
		<edge from-layer="1066" from-port="2" to-layer="1067" to-port="0" />
		<edge from-layer="1067" from-port="1" to-layer="1070" to-port="0" />
		<edge from-layer="1068" from-port="0" to-layer="1069" to-port="0" />
		<edge from-layer="1069" from-port="1" to-layer="1070" to-port="1" />
		<edge from-layer="1070" from-port="2" to-layer="1074" to-port="0" />
		<edge from-layer="1071" from-port="0" to-layer="1073" to-port="0" />
		<edge from-layer="1072" from-port="0" to-layer="1073" to-port="1" />
		<edge from-layer="1073" from-port="2" to-layer="1074" to-port="1" />
		<edge from-layer="1074" from-port="2" to-layer="1078" to-port="0" />
		<edge from-layer="1075" from-port="0" to-layer="1078" to-port="1" />
		<edge from-layer="1076" from-port="0" to-layer="1077" to-port="0" />
		<edge from-layer="1077" from-port="1" to-layer="1078" to-port="2" />
		<edge from-layer="1078" from-port="3" to-layer="1079" to-port="1" />
		<edge from-layer="1079" from-port="2" to-layer="1080" to-port="1" />
		<edge from-layer="1080" from-port="2" to-layer="1083" to-port="0" />
		<edge from-layer="1081" from-port="0" to-layer="1082" to-port="1" />
		<edge from-layer="1082" from-port="2" to-layer="1083" to-port="1" />
		<edge from-layer="1083" from-port="2" to-layer="1086" to-port="0" />
		<edge from-layer="1083" from-port="2" to-layer="1152" to-port="0" />
		<edge from-layer="1084" from-port="0" to-layer="1085" to-port="0" />
		<edge from-layer="1085" from-port="1" to-layer="1086" to-port="1" />
		<edge from-layer="1086" from-port="2" to-layer="1088" to-port="0" />
		<edge from-layer="1086" from-port="2" to-layer="1114" to-port="0" />
		<edge from-layer="1086" from-port="2" to-layer="1115" to-port="0" />
		<edge from-layer="1086" from-port="2" to-layer="1093" to-port="0" />
		<edge from-layer="1087" from-port="0" to-layer="1092" to-port="0" />
		<edge from-layer="1088" from-port="1" to-layer="1089" to-port="0" />
		<edge from-layer="1089" from-port="1" to-layer="1090" to-port="0" />
		<edge from-layer="1090" from-port="1" to-layer="1092" to-port="1" />
		<edge from-layer="1091" from-port="0" to-layer="1092" to-port="2" />
		<edge from-layer="1092" from-port="3" to-layer="1093" to-port="1" />
		<edge from-layer="1093" from-port="2" to-layer="1096" to-port="0" />
		<edge from-layer="1094" from-port="0" to-layer="1095" to-port="0" />
		<edge from-layer="1095" from-port="1" to-layer="1096" to-port="1" />
		<edge from-layer="1096" from-port="2" to-layer="1100" to-port="0" />
		<edge from-layer="1097" from-port="0" to-layer="1099" to-port="0" />
		<edge from-layer="1098" from-port="0" to-layer="1099" to-port="1" />
		<edge from-layer="1099" from-port="2" to-layer="1100" to-port="1" />
		<edge from-layer="1100" from-port="2" to-layer="1101" to-port="0" />
		<edge from-layer="1101" from-port="1" to-layer="1104" to-port="0" />
		<edge from-layer="1102" from-port="0" to-layer="1103" to-port="0" />
		<edge from-layer="1103" from-port="1" to-layer="1104" to-port="1" />
		<edge from-layer="1104" from-port="2" to-layer="1109" to-port="0" />
		<edge from-layer="1105" from-port="0" to-layer="1106" to-port="0" />
		<edge from-layer="1106" from-port="1" to-layer="1108" to-port="0" />
		<edge from-layer="1107" from-port="0" to-layer="1108" to-port="1" />
		<edge from-layer="1108" from-port="2" to-layer="1109" to-port="1" />
		<edge from-layer="1109" from-port="2" to-layer="1113" to-port="0" />
		<edge from-layer="1110" from-port="0" to-layer="1113" to-port="1" />
		<edge from-layer="1111" from-port="0" to-layer="1112" to-port="0" />
		<edge from-layer="1112" from-port="1" to-layer="1113" to-port="2" />
		<edge from-layer="1113" from-port="3" to-layer="1114" to-port="1" />
		<edge from-layer="1114" from-port="2" to-layer="1115" to-port="1" />
		<edge from-layer="1115" from-port="2" to-layer="1117" to-port="0" />
		<edge from-layer="1116" from-port="0" to-layer="1117" to-port="1" />
		<edge from-layer="1117" from-port="2" to-layer="1186" to-port="2" />
		<edge from-layer="1118" from-port="0" to-layer="1119" to-port="0" />
		<edge from-layer="1119" from-port="1" to-layer="1120" to-port="1" />
		<edge from-layer="1120" from-port="2" to-layer="1122" to-port="0" />
		<edge from-layer="1120" from-port="2" to-layer="1150" to-port="0" />
		<edge from-layer="1120" from-port="2" to-layer="1149" to-port="0" />
		<edge from-layer="1120" from-port="2" to-layer="1127" to-port="0" />
		<edge from-layer="1121" from-port="0" to-layer="1126" to-port="0" />
		<edge from-layer="1122" from-port="1" to-layer="1123" to-port="0" />
		<edge from-layer="1123" from-port="1" to-layer="1124" to-port="0" />
		<edge from-layer="1124" from-port="1" to-layer="1126" to-port="1" />
		<edge from-layer="1125" from-port="0" to-layer="1126" to-port="2" />
		<edge from-layer="1126" from-port="3" to-layer="1127" to-port="1" />
		<edge from-layer="1127" from-port="2" to-layer="1130" to-port="0" />
		<edge from-layer="1128" from-port="0" to-layer="1129" to-port="0" />
		<edge from-layer="1129" from-port="1" to-layer="1130" to-port="1" />
		<edge from-layer="1130" from-port="2" to-layer="1135" to-port="0" />
		<edge from-layer="1131" from-port="0" to-layer="1132" to-port="0" />
		<edge from-layer="1132" from-port="1" to-layer="1134" to-port="0" />
		<edge from-layer="1133" from-port="0" to-layer="1134" to-port="1" />
		<edge from-layer="1134" from-port="2" to-layer="1135" to-port="1" />
		<edge from-layer="1135" from-port="2" to-layer="1136" to-port="0" />
		<edge from-layer="1136" from-port="1" to-layer="1139" to-port="0" />
		<edge from-layer="1137" from-port="0" to-layer="1138" to-port="0" />
		<edge from-layer="1138" from-port="1" to-layer="1139" to-port="1" />
		<edge from-layer="1139" from-port="2" to-layer="1144" to-port="0" />
		<edge from-layer="1140" from-port="0" to-layer="1141" to-port="0" />
		<edge from-layer="1141" from-port="1" to-layer="1143" to-port="0" />
		<edge from-layer="1142" from-port="0" to-layer="1143" to-port="1" />
		<edge from-layer="1143" from-port="2" to-layer="1144" to-port="1" />
		<edge from-layer="1144" from-port="2" to-layer="1148" to-port="0" />
		<edge from-layer="1145" from-port="0" to-layer="1148" to-port="1" />
		<edge from-layer="1146" from-port="0" to-layer="1147" to-port="0" />
		<edge from-layer="1147" from-port="1" to-layer="1148" to-port="2" />
		<edge from-layer="1148" from-port="3" to-layer="1149" to-port="1" />
		<edge from-layer="1149" from-port="2" to-layer="1150" to-port="1" />
		<edge from-layer="1150" from-port="2" to-layer="1153" to-port="0" />
		<edge from-layer="1151" from-port="0" to-layer="1152" to-port="1" />
		<edge from-layer="1152" from-port="2" to-layer="1153" to-port="1" />
		<edge from-layer="1153" from-port="2" to-layer="1156" to-port="0" />
		<edge from-layer="1154" from-port="0" to-layer="1155" to-port="0" />
		<edge from-layer="1155" from-port="1" to-layer="1156" to-port="1" />
		<edge from-layer="1156" from-port="2" to-layer="1158" to-port="0" />
		<edge from-layer="1156" from-port="2" to-layer="1184" to-port="0" />
		<edge from-layer="1156" from-port="2" to-layer="1185" to-port="0" />
		<edge from-layer="1156" from-port="2" to-layer="1163" to-port="0" />
		<edge from-layer="1157" from-port="0" to-layer="1162" to-port="0" />
		<edge from-layer="1158" from-port="1" to-layer="1159" to-port="0" />
		<edge from-layer="1159" from-port="1" to-layer="1160" to-port="0" />
		<edge from-layer="1160" from-port="1" to-layer="1162" to-port="1" />
		<edge from-layer="1161" from-port="0" to-layer="1162" to-port="2" />
		<edge from-layer="1162" from-port="3" to-layer="1163" to-port="1" />
		<edge from-layer="1163" from-port="2" to-layer="1166" to-port="0" />
		<edge from-layer="1164" from-port="0" to-layer="1165" to-port="0" />
		<edge from-layer="1165" from-port="1" to-layer="1166" to-port="1" />
		<edge from-layer="1166" from-port="2" to-layer="1170" to-port="0" />
		<edge from-layer="1167" from-port="0" to-layer="1169" to-port="0" />
		<edge from-layer="1168" from-port="0" to-layer="1169" to-port="1" />
		<edge from-layer="1169" from-port="2" to-layer="1170" to-port="1" />
		<edge from-layer="1170" from-port="2" to-layer="1171" to-port="0" />
		<edge from-layer="1171" from-port="1" to-layer="1174" to-port="0" />
		<edge from-layer="1172" from-port="0" to-layer="1173" to-port="0" />
		<edge from-layer="1173" from-port="1" to-layer="1174" to-port="1" />
		<edge from-layer="1174" from-port="2" to-layer="1179" to-port="0" />
		<edge from-layer="1175" from-port="0" to-layer="1176" to-port="0" />
		<edge from-layer="1176" from-port="1" to-layer="1178" to-port="0" />
		<edge from-layer="1177" from-port="0" to-layer="1178" to-port="1" />
		<edge from-layer="1178" from-port="2" to-layer="1179" to-port="1" />
		<edge from-layer="1179" from-port="2" to-layer="1183" to-port="0" />
		<edge from-layer="1180" from-port="0" to-layer="1183" to-port="1" />
		<edge from-layer="1181" from-port="0" to-layer="1182" to-port="0" />
		<edge from-layer="1182" from-port="1" to-layer="1183" to-port="2" />
		<edge from-layer="1183" from-port="3" to-layer="1184" to-port="1" />
		<edge from-layer="1184" from-port="2" to-layer="1185" to-port="1" />
		<edge from-layer="1185" from-port="2" to-layer="1186" to-port="3" />
		<edge from-layer="1186" from-port="4" to-layer="1189" to-port="0" />
		<edge from-layer="1187" from-port="0" to-layer="1188" to-port="0" />
		<edge from-layer="1188" from-port="1" to-layer="1189" to-port="1" />
		<edge from-layer="1189" from-port="2" to-layer="1195" to-port="0" />
		<edge from-layer="1190" from-port="0" to-layer="1191" to-port="0" />
		<edge from-layer="1191" from-port="1" to-layer="1195" to-port="1" />
		<edge from-layer="1192" from-port="0" to-layer="1195" to-port="2" />
		<edge from-layer="1193" from-port="0" to-layer="1195" to-port="3" />
		<edge from-layer="1194" from-port="0" to-layer="1195" to-port="4" />
		<edge from-layer="1195" from-port="5" to-layer="1196" to-port="0" />
		<edge from-layer="1196" from-port="1" to-layer="1199" to-port="0" />
		<edge from-layer="1197" from-port="0" to-layer="1198" to-port="0" />
		<edge from-layer="1198" from-port="1" to-layer="1199" to-port="1" />
		<edge from-layer="1199" from-port="2" to-layer="1204" to-port="0" />
		<edge from-layer="1200" from-port="0" to-layer="1201" to-port="0" />
		<edge from-layer="1201" from-port="1" to-layer="1203" to-port="0" />
		<edge from-layer="1202" from-port="0" to-layer="1203" to-port="1" />
		<edge from-layer="1203" from-port="2" to-layer="1204" to-port="1" />
		<edge from-layer="1204" from-port="2" to-layer="1213" to-port="0" />
		<edge from-layer="1205" from-port="0" to-layer="1206" to-port="0" />
		<edge from-layer="1206" from-port="1" to-layer="1213" to-port="1" />
		<edge from-layer="1207" from-port="0" to-layer="1208" to-port="0" />
		<edge from-layer="1208" from-port="1" to-layer="1213" to-port="2" />
		<edge from-layer="1209" from-port="0" to-layer="1210" to-port="0" />
		<edge from-layer="1210" from-port="1" to-layer="1213" to-port="3" />
		<edge from-layer="1211" from-port="0" to-layer="1212" to-port="0" />
		<edge from-layer="1212" from-port="1" to-layer="1213" to-port="4" />
		<edge from-layer="1213" from-port="5" to-layer="1214" to-port="0" />
		<edge from-layer="1214" from-port="1" to-layer="1217" to-port="0" />
		<edge from-layer="1215" from-port="0" to-layer="1216" to-port="0" />
		<edge from-layer="1216" from-port="1" to-layer="1217" to-port="1" />
		<edge from-layer="1217" from-port="2" to-layer="1221" to-port="0" />
		<edge from-layer="1218" from-port="0" to-layer="1220" to-port="0" />
		<edge from-layer="1219" from-port="0" to-layer="1220" to-port="1" />
		<edge from-layer="1220" from-port="2" to-layer="1221" to-port="1" />
		<edge from-layer="1221" from-port="2" to-layer="1222" to-port="0" />
		<edge from-layer="1222" from-port="1" to-layer="1223" to-port="0" />
	</edges>
	<rt_info>
		<info name="OpenVINO Runtime" value="2026.2.0-21903-52ddc073857-releases/2026/2" />
	</rt_info>
</net>
