<?xml version="1.0"?>
<net name="onnx_Frontend_IR" version="11">
	<layers>
		<layer id="0" name="x" type="Parameter" version="opset1">
			<data shape="?,3,?,?" element_type="f32" />
			<output>
				<port id="0" precision="FP32" names="x">
					<dim>-1</dim>
					<dim>3</dim>
					<dim>-1</dim>
					<dim>-1</dim>
				</port>
			</output>
		</layer>
		<layer id="1" name="conv2d_37.w_0" type="Const" version="opset1">
			<data element_type="f32" shape="16, 3, 3, 3" offset="0" size="1728" />
			<output>
				<port id="0" precision="FP32" names="conv2d_37.w_0">
					<dim>16</dim>
					<dim>3</dim>
					<dim>3</dim>
					<dim>3</dim>
				</port>
			</output>
		</layer>
		<layer id="2" name="Conv_0" type="Convolution" version="opset1">
			<data strides="2, 2" dilations="1, 1" pads_begin="1, 1" pads_end="1, 1" auto_pad="explicit" />
			<input>
				<port id="0" precision="FP32">
					<dim>-1</dim>
					<dim>3</dim>
					<dim>-1</dim>
					<dim>-1</dim>
				</port>
				<port id="1" precision="FP32">
					<dim>16</dim>
					<dim>3</dim>
					<dim>3</dim>
					<dim>3</dim>
				</port>
			</input>
			<output>
				<port id="2" precision="FP32" names="conv2d_97.tmp_0">
					<dim>-1</dim>
					<dim>16</dim>
					<dim>-1</dim>
					<dim>-1</dim>
				</port>
			</output>
		</layer>
		<layer id="3" name="batch_norm_27.w_0" type="Const" version="opset1">
			<data element_type="f32" shape="16" offset="1728" size="64" />
			<output>
				<port id="0" precision="FP32" names="batch_norm_27.w_0">
					<dim>16</dim>
				</port>
			</output>
		</layer>
		<layer id="4" name="batch_norm_27.b_0_compressed" type="Const" version="opset1">
			<data element_type="f16" shape="16" offset="1792" size="32" />
			<output>
				<port id="0" precision="FP16" names="batch_norm_27.b_0">
					<dim>16</dim>
				</port>
			</output>
		</layer>
		<layer id="5" name="batch_norm_27.b_0" type="Convert" version="opset1">
			<data destination_type="f32" />
			<rt_info>
				<attribute name="decompression" version="0" />
			</rt_info>
			<input>
				<port id="0" precision="FP16">
					<dim>16</dim>
				</port>
			</input>
			<output>
				<port id="1" precision="FP32">
					<dim>16</dim>
				</port>
			</output>
		</layer>
		<layer id="6" name="batch_norm_27.w_1_compressed" type="Const" version="opset1">
			<data element_type="f16" shape="16" offset="1824" size="32" />
			<output>
				<port id="0" precision="FP16" names="batch_norm_27.w_1">
					<dim>16</dim>
				</port>
			</output>
		</layer>
		<layer id="7" name="batch_norm_27.w_1" type="Convert" version="opset1">
			<data destination_type="f32" />
			<rt_info>
				<attribute name="decompression" version="0" />
			</rt_info>
			<input>
				<port id="0" precision="FP16">
					<dim>16</dim>
				</port>
			</input>
			<output>
				<port id="1" precision="FP32">
					<dim>16</dim>
				</port>
			</output>
		</layer>
		<layer id="8" name="batch_norm_27.w_2_compressed" type="Const" version="opset1">
			<data element_type="f16" shape="16" offset="1856" size="32" />
			<output>
				<port id="0" precision="FP16" names="batch_norm_27.w_2">
					<dim>16</dim>
				</port>
			</output>
		</layer>
		<layer id="9" name="batch_norm_27.w_2" type="Convert" version="opset1">
			<data destination_type="f32" />
			<rt_info>
				<attribute name="decompression" version="0" />
			</rt_info>
			<input>
				<port id="0" precision="FP16">
					<dim>16</dim>
				</port>
			</input>
			<output>
				<port id="1" precision="FP32">
					<dim>16</dim>
				</port>
			</output>
		</layer>
		<layer id="10" name="BatchNormalization_0" type="BatchNormInference" version="opset5">
			<data epsilon="9.9999997473787516e-06" />
			<input>
				<port id="0" precision="FP32">
					<dim>-1</dim>
					<dim>16</dim>
					<dim>-1</dim>
					<dim>-1</dim>
				</port>
				<port id="1" precision="FP32">
					<dim>16</dim>
				</port>
				<port id="2" precision="FP32">
					<dim>16</dim>
				</port>
				<port id="3" precision="FP32">
					<dim>16</dim>
				</port>
				<port id="4" precision="FP32">
					<dim>16</dim>
				</port>
			</input>
			<output>
				<port id="5" precision="FP32" names="batch_norm_27.tmp_3">
					<dim>-1</dim>
					<dim>16</dim>
					<dim>-1</dim>
					<dim>-1</dim>
				</port>
			</output>
		</layer>
		<layer id="11" name="Constant_3_compressed" type="Const" version="opset1">
			<data element_type="f16" shape="" offset="1888" size="2" />
			<output>
				<port id="0" precision="FP16" names="Constant_3" />
			</output>
		</layer>
		<layer id="12" name="Constant_3" type="Convert" version="opset1">
			<data destination_type="f32" />
			<rt_info>
				<attribute name="decompression" version="0" />
			</rt_info>
			<input>
				<port id="0" precision="FP16" />
			</input>
			<output>
				<port id="1" precision="FP32" />
			</output>
		</layer>
		<layer id="13" name="Constant_2_compressed" type="Const" version="opset1">
			<data element_type="f16" shape="" offset="1890" size="2" />
			<output>
				<port id="0" precision="FP16" names="Constant_2" />
			</output>
		</layer>
		<layer id="14" name="Constant_2" type="Convert" version="opset1">
			<data destination_type="f32" />
			<rt_info>
				<attribute name="decompression" version="0" />
			</rt_info>
			<input>
				<port id="0" precision="FP16" />
			</input>
			<output>
				<port id="1" precision="FP32" />
			</output>
		</layer>
		<layer id="15" name="Constant_1_compressed" type="Const" version="opset1">
			<data element_type="f16" shape="" offset="1892" size="2" />
			<output>
				<port id="0" precision="FP16" names="Constant_1" />
			</output>
		</layer>
		<layer id="16" name="Constant_1" type="Convert" version="opset1">
			<data destination_type="f32" />
			<rt_info>
				<attribute name="decompression" version="0" />
			</rt_info>
			<input>
				<port id="0" precision="FP16" />
			</input>
			<output>
				<port id="1" precision="FP32" />
			</output>
		</layer>
		<layer id="17" name="Add_0" type="Add" version="opset1">
			<data auto_broadcast="numpy" />
			<input>
				<port id="0" precision="FP32">
					<dim>-1</dim>
					<dim>16</dim>
					<dim>-1</dim>
					<dim>-1</dim>
				</port>
				<port id="1" precision="FP32" />
			</input>
			<output>
				<port id="2" precision="FP32" names="Add_0">
					<dim>-1</dim>
					<dim>16</dim>
					<dim>-1</dim>
					<dim>-1</dim>
				</port>
			</output>
		</layer>
		<layer id="18" name="Maximum_8612" type="Maximum" version="opset1">
			<data auto_broadcast="numpy" />
			<input>
				<port id="0" precision="FP32" />
				<port id="1" precision="FP32">
					<dim>-1</dim>
					<dim>16</dim>
					<dim>-1</dim>
					<dim>-1</dim>
				</port>
			</input>
			<output>
				<port id="2" precision="FP32">
					<dim>-1</dim>
					<dim>16</dim>
					<dim>-1</dim>
					<dim>-1</dim>
				</port>
			</output>
		</layer>
		<layer id="19" name="Clip_0" type="Minimum" version="opset1">
			<data auto_broadcast="numpy" />
			<input>
				<port id="0" precision="FP32" />
				<port id="1" precision="FP32">
					<dim>-1</dim>
					<dim>16</dim>
					<dim>-1</dim>
					<dim>-1</dim>
				</port>
			</input>
			<output>
				<port id="2" precision="FP32" names="Clip_0">
					<dim>-1</dim>
					<dim>16</dim>
					<dim>-1</dim>
					<dim>-1</dim>
				</port>
			</output>
		</layer>
		<layer id="20" name="Mul_0" type="Multiply" version="opset1">
			<data auto_broadcast="numpy" />
			<input>
				<port id="0" precision="FP32">
					<dim>-1</dim>
					<dim>16</dim>
					<dim>-1</dim>
					<dim>-1</dim>
				</port>
				<port id="1" precision="FP32">
					<dim>-1</dim>
					<dim>16</dim>
					<dim>-1</dim>
					<dim>-1</dim>
				</port>
			</input>
			<output>
				<port id="2" precision="FP32" names="Mul_0">
					<dim>-1</dim>
					<dim>16</dim>
					<dim>-1</dim>
					<dim>-1</dim>
				</port>
			</output>
		</layer>
		<layer id="21" name="Constant_0_compressed" type="Const" version="opset1">
			<data element_type="f16" shape="" offset="1888" size="2" />
			<output>
				<port id="0" precision="FP16" names="Constant_0" />
			</output>
		</layer>
		<layer id="22" name="Constant_0" type="Convert" version="opset1">
			<data destination_type="f32" />
			<rt_info>
				<attribute name="decompression" version="0" />
			</rt_info>
			<input>
				<port id="0" precision="FP16" />
			</input>
			<output>
				<port id="1" precision="FP32" />
			</output>
		</layer>
		<layer id="23" name="Div_0" type="Divide" version="opset1">
			<data auto_broadcast="numpy" m_pythondiv="true" />
			<input>
				<port id="0" precision="FP32">
					<dim>-1</dim>
					<dim>16</dim>
					<dim>-1</dim>
					<dim>-1</dim>
				</port>
				<port id="1" precision="FP32" />
			</input>
			<output>
				<port id="2" precision="FP32" names="batch_norm_27.tmp_4">
					<dim>-1</dim>
					<dim>16</dim>
					<dim>-1</dim>
					<dim>-1</dim>
				</port>
			</output>
		</layer>
		<layer id="24" name="conv2d_38.w_0_compressed" type="Const" version="opset1">
			<data element_type="f16" shape="16, 1, 3, 3" offset="1894" size="288" />
			<output>
				<port id="0" precision="FP16" names="conv2d_38.w_0">
					<dim>16</dim>
					<dim>1</dim>
					<dim>3</dim>
					<dim>3</dim>
				</port>
			</output>
		</layer>
		<layer id="25" name="conv2d_38.w_0" type="Convert" version="opset1">
			<data destination_type="f32" />
			<rt_info>
				<attribute name="decompression" version="0" />
			</rt_info>
			<input>
				<port id="0" precision="FP16">
					<dim>16</dim>
					<dim>1</dim>
					<dim>3</dim>
					<dim>3</dim>
				</port>
			</input>
			<output>
				<port id="1" precision="FP32">
					<dim>16</dim>
					<dim>1</dim>
					<dim>3</dim>
					<dim>3</dim>
				</port>
			</output>
		</layer>
		<layer id="26" name="Constant_8619" type="Const" version="opset1">
			<data element_type="i64" shape="1" offset="2182" size="8" />
			<rt_info>
				<attribute name="precise" version="0" />
			</rt_info>
			<output>
				<port id="0" precision="I64">
					<dim>1</dim>
				</port>
			</output>
		</layer>
		<layer id="27" name="ShapeOf_8620" type="ShapeOf" version="opset3">
			<data output_type="i64" />
			<input>
				<port id="0" precision="FP32">
					<dim>16</dim>
					<dim>1</dim>
					<dim>3</dim>
					<dim>3</dim>
				</port>
			</input>
			<output>
				<port id="1" precision="I64">
					<dim>4</dim>
				</port>
			</output>
		</layer>
		<layer id="28" name="Constant_8617" type="Const" version="opset1">
			<data element_type="i64" shape="" offset="2190" size="8" />
			<rt_info>
				<attribute name="precise" version="0" />
			</rt_info>
			<output>
				<port id="0" precision="I64" />
			</output>
		</layer>
		<layer id="29" name="Constant_8618" type="Const" version="opset1">
			<data element_type="i64" shape="2" offset="2198" size="16" />
			<rt_info>
				<attribute name="precise" version="0" />
			</rt_info>
			<output>
				<port id="0" precision="I64">
					<dim>2</dim>
				</port>
			</output>
		</layer>
		<layer id="30" name="VariadicSplit_8621" type="VariadicSplit" version="opset1">
			<input>
				<port id="0" precision="I64">
					<dim>4</dim>
				</port>
				<port id="1" precision="I64" />
				<port id="2" precision="I64">
					<dim>2</dim>
				</port>
			</input>
			<output>
				<port id="3" precision="I64">
					<dim>1</dim>
				</port>
				<port id="4" precision="I64">
					<dim>3</dim>
				</port>
			</output>
		</layer>
		<layer id="31" name="Divide_8622" type="Divide" version="opset1">
			<data auto_broadcast="numpy" m_pythondiv="true" />
			<input>
				<port id="0" precision="I64">
					<dim>1</dim>
				</port>
				<port id="1" precision="I64">
					<dim>1</dim>
				</port>
			</input>
			<output>
				<port id="2" precision="I64">
					<dim>1</dim>
				</port>
			</output>
		</layer>
		<layer id="32" name="Concat_8623" type="Concat" version="opset1">
			<data axis="0" />
			<input>
				<port id="0" precision="I64">
					<dim>1</dim>
				</port>
				<port id="1" precision="I64">
					<dim>1</dim>
				</port>
				<port id="2" precision="I64">
					<dim>3</dim>
				</port>
			</input>
			<output>
				<port id="3" precision="I64">
					<dim>5</dim>
				</port>
			</output>
		</layer>
		<layer id="33" name="Reshape_8624" type="Reshape" version="opset1">
			<data special_zero="false" />
			<input>
				<port id="0" precision="FP32">
					<dim>16</dim>
					<dim>1</dim>
					<dim>3</dim>
					<dim>3</dim>
				</port>
				<port id="1" precision="I64">
					<dim>5</dim>
				</port>
			</input>
			<output>
				<port id="2" precision="FP32">
					<dim>16</dim>
					<dim>1</dim>
					<dim>1</dim>
					<dim>3</dim>
					<dim>3</dim>
				</port>
			</output>
		</layer>
		<layer id="34" name="Conv_1" type="GroupConvolution" version="opset1">
			<data strides="1, 1" pads_begin="1, 1" pads_end="1, 1" dilations="1, 1" auto_pad="explicit" />
			<input>
				<port id="0" precision="FP32">
					<dim>-1</dim>
					<dim>16</dim>
					<dim>-1</dim>
					<dim>-1</dim>
				</port>
				<port id="1" precision="FP32">
					<dim>16</dim>
					<dim>1</dim>
					<dim>1</dim>
					<dim>3</dim>
					<dim>3</dim>
				</port>
			</input>
			<output>
				<port id="2" precision="FP32" names="depthwise_conv2d_13.tmp_0">
					<dim>-1</dim>
					<dim>16</dim>
					<dim>-1</dim>
					<dim>-1</dim>
				</port>
			</output>
		</layer>
		<layer id="35" name="batch_norm_28.w_0" type="Const" version="opset1">
			<data element_type="f32" shape="16" offset="2214" size="64" />
			<output>
				<port id="0" precision="FP32" names="batch_norm_28.w_0">
					<dim>16</dim>
				</port>
			</output>
		</layer>
		<layer id="36" name="batch_norm_28.b_0" type="Const" version="opset1">
			<data element_type="f32" shape="16" offset="2278" size="64" />
			<output>
				<port id="0" precision="FP32" names="batch_norm_28.b_0">
					<dim>16</dim>
				</port>
			</output>
		</layer>
		<layer id="37" name="batch_norm_28.w_1" type="Const" version="opset1">
			<data element_type="f32" shape="16" offset="2342" size="64" />
			<output>
				<port id="0" precision="FP32" names="batch_norm_28.w_1">
					<dim>16</dim>
				</port>
			</output>
		</layer>
		<layer id="38" name="batch_norm_28.w_2" type="Const" version="opset1">
			<data element_type="f32" shape="16" offset="2406" size="64" />
			<output>
				<port id="0" precision="FP32" names="batch_norm_28.w_2">
					<dim>16</dim>
				</port>
			</output>
		</layer>
		<layer id="39" name="BatchNormalization_1" type="BatchNormInference" version="opset5">
			<data epsilon="9.9999997473787516e-06" />
			<input>
				<port id="0" precision="FP32">
					<dim>-1</dim>
					<dim>16</dim>
					<dim>-1</dim>
					<dim>-1</dim>
				</port>
				<port id="1" precision="FP32">
					<dim>16</dim>
				</port>
				<port id="2" precision="FP32">
					<dim>16</dim>
				</port>
				<port id="3" precision="FP32">
					<dim>16</dim>
				</port>
				<port id="4" precision="FP32">
					<dim>16</dim>
				</port>
			</input>
			<output>
				<port id="5" precision="FP32" names="batch_norm_28.tmp_3">
					<dim>-1</dim>
					<dim>16</dim>
					<dim>-1</dim>
					<dim>-1</dim>
				</port>
			</output>
		</layer>
		<layer id="40" name="Constant_7_compressed" type="Const" version="opset1">
			<data element_type="f16" shape="" offset="1888" size="2" />
			<output>
				<port id="0" precision="FP16" names="Constant_7" />
			</output>
		</layer>
		<layer id="41" name="Constant_7" type="Convert" version="opset1">
			<data destination_type="f32" />
			<rt_info>
				<attribute name="decompression" version="0" />
			</rt_info>
			<input>
				<port id="0" precision="FP16" />
			</input>
			<output>
				<port id="1" precision="FP32" />
			</output>
		</layer>
		<layer id="42" name="Constant_6_compressed" type="Const" version="opset1">
			<data element_type="f16" shape="" offset="1890" size="2" />
			<output>
				<port id="0" precision="FP16" names="Constant_6" />
			</output>
		</layer>
		<layer id="43" name="Constant_6" type="Convert" version="opset1">
			<data destination_type="f32" />
			<rt_info>
				<attribute name="decompression" version="0" />
			</rt_info>
			<input>
				<port id="0" precision="FP16" />
			</input>
			<output>
				<port id="1" precision="FP32" />
			</output>
		</layer>
		<layer id="44" name="Constant_5_compressed" type="Const" version="opset1">
			<data element_type="f16" shape="" offset="1892" size="2" />
			<output>
				<port id="0" precision="FP16" names="Constant_5" />
			</output>
		</layer>
		<layer id="45" name="Constant_5" type="Convert" version="opset1">
			<data destination_type="f32" />
			<rt_info>
				<attribute name="decompression" version="0" />
			</rt_info>
			<input>
				<port id="0" precision="FP16" />
			</input>
			<output>
				<port id="1" precision="FP32" />
			</output>
		</layer>
		<layer id="46" name="Add_1" type="Add" version="opset1">
			<data auto_broadcast="numpy" />
			<input>
				<port id="0" precision="FP32">
					<dim>-1</dim>
					<dim>16</dim>
					<dim>-1</dim>
					<dim>-1</dim>
				</port>
				<port id="1" precision="FP32" />
			</input>
			<output>
				<port id="2" precision="FP32" names="Add_1">
					<dim>-1</dim>
					<dim>16</dim>
					<dim>-1</dim>
					<dim>-1</dim>
				</port>
			</output>
		</layer>
		<layer id="47" name="Maximum_8666" type="Maximum" version="opset1">
			<data auto_broadcast="numpy" />
			<input>
				<port id="0" precision="FP32" />
				<port id="1" precision="FP32">
					<dim>-1</dim>
					<dim>16</dim>
					<dim>-1</dim>
					<dim>-1</dim>
				</port>
			</input>
			<output>
				<port id="2" precision="FP32">
					<dim>-1</dim>
					<dim>16</dim>
					<dim>-1</dim>
					<dim>-1</dim>
				</port>
			</output>
		</layer>
		<layer id="48" name="Clip_1" type="Minimum" version="opset1">
			<data auto_broadcast="numpy" />
			<input>
				<port id="0" precision="FP32" />
				<port id="1" precision="FP32">
					<dim>-1</dim>
					<dim>16</dim>
					<dim>-1</dim>
					<dim>-1</dim>
				</port>
			</input>
			<output>
				<port id="2" precision="FP32" names="Clip_1">
					<dim>-1</dim>
					<dim>16</dim>
					<dim>-1</dim>
					<dim>-1</dim>
				</port>
			</output>
		</layer>
		<layer id="49" name="Mul_1" type="Multiply" version="opset1">
			<data auto_broadcast="numpy" />
			<input>
				<port id="0" precision="FP32">
					<dim>-1</dim>
					<dim>16</dim>
					<dim>-1</dim>
					<dim>-1</dim>
				</port>
				<port id="1" precision="FP32">
					<dim>-1</dim>
					<dim>16</dim>
					<dim>-1</dim>
					<dim>-1</dim>
				</port>
			</input>
			<output>
				<port id="2" precision="FP32" names="Mul_1">
					<dim>-1</dim>
					<dim>16</dim>
					<dim>-1</dim>
					<dim>-1</dim>
				</port>
			</output>
		</layer>
		<layer id="50" name="Constant_4_compressed" type="Const" version="opset1">
			<data element_type="f16" shape="" offset="1888" size="2" />
			<output>
				<port id="0" precision="FP16" names="Constant_4" />
			</output>
		</layer>
		<layer id="51" name="Constant_4" type="Convert" version="opset1">
			<data destination_type="f32" />
			<rt_info>
				<attribute name="decompression" version="0" />
			</rt_info>
			<input>
				<port id="0" precision="FP16" />
			</input>
			<output>
				<port id="1" precision="FP32" />
			</output>
		</layer>
		<layer id="52" name="Div_1" type="Divide" version="opset1">
			<data auto_broadcast="numpy" m_pythondiv="true" />
			<input>
				<port id="0" precision="FP32">
					<dim>-1</dim>
					<dim>16</dim>
					<dim>-1</dim>
					<dim>-1</dim>
				</port>
				<port id="1" precision="FP32" />
			</input>
			<output>
				<port id="2" precision="FP32" names="batch_norm_28.tmp_4">
					<dim>-1</dim>
					<dim>16</dim>
					<dim>-1</dim>
					<dim>-1</dim>
				</port>
			</output>
		</layer>
		<layer id="53" name="conv2d_39.w_0_compressed" type="Const" version="opset1">
			<data element_type="f16" shape="32, 16, 1, 1" offset="2470" size="1024" />
			<output>
				<port id="0" precision="FP16" names="conv2d_39.w_0">
					<dim>32</dim>
					<dim>16</dim>
					<dim>1</dim>
					<dim>1</dim>
				</port>
			</output>
		</layer>
		<layer id="54" name="conv2d_39.w_0" type="Convert" version="opset1">
			<data destination_type="f32" />
			<rt_info>
				<attribute name="decompression" version="0" />
			</rt_info>
			<input>
				<port id="0" precision="FP16">
					<dim>32</dim>
					<dim>16</dim>
					<dim>1</dim>
					<dim>1</dim>
				</port>
			</input>
			<output>
				<port id="1" precision="FP32">
					<dim>32</dim>
					<dim>16</dim>
					<dim>1</dim>
					<dim>1</dim>
				</port>
			</output>
		</layer>
		<layer id="55" name="Conv_2" type="Convolution" version="opset1">
			<data strides="1, 1" dilations="1, 1" pads_begin="0, 0" pads_end="0, 0" auto_pad="explicit" />
			<input>
				<port id="0" precision="FP32">
					<dim>-1</dim>
					<dim>16</dim>
					<dim>-1</dim>
					<dim>-1</dim>
				</port>
				<port id="1" precision="FP32">
					<dim>32</dim>
					<dim>16</dim>
					<dim>1</dim>
					<dim>1</dim>
				</port>
			</input>
			<output>
				<port id="2" precision="FP32" names="conv2d_98.tmp_0">
					<dim>-1</dim>
					<dim>32</dim>
					<dim>-1</dim>
					<dim>-1</dim>
				</port>
			</output>
		</layer>
		<layer id="56" name="batch_norm_29.w_0_compressed" type="Const" version="opset1">
			<data element_type="f16" shape="32" offset="3494" size="64" />
			<output>
				<port id="0" precision="FP16" names="batch_norm_29.w_0">
					<dim>32</dim>
				</port>
			</output>
		</layer>
		<layer id="57" name="batch_norm_29.w_0" type="Convert" version="opset1">
			<data destination_type="f32" />
			<rt_info>
				<attribute name="decompression" version="0" />
			</rt_info>
			<input>
				<port id="0" precision="FP16">
					<dim>32</dim>
				</port>
			</input>
			<output>
				<port id="1" precision="FP32">
					<dim>32</dim>
				</port>
			</output>
		</layer>
		<layer id="58" name="batch_norm_29.b_0" type="Const" version="opset1">
			<data element_type="f32" shape="32" offset="3558" size="128" />
			<output>
				<port id="0" precision="FP32" names="batch_norm_29.b_0">
					<dim>32</dim>
				</port>
			</output>
		</layer>
		<layer id="59" name="batch_norm_29.w_1_compressed" type="Const" version="opset1">
			<data element_type="f16" shape="32" offset="3686" size="64" />
			<output>
				<port id="0" precision="FP16" names="batch_norm_29.w_1">
					<dim>32</dim>
				</port>
			</output>
		</layer>
		<layer id="60" name="batch_norm_29.w_1" type="Convert" version="opset1">
			<data destination_type="f32" />
			<rt_info>
				<attribute name="decompression" version="0" />
			</rt_info>
			<input>
				<port id="0" precision="FP16">
					<dim>32</dim>
				</port>
			</input>
			<output>
				<port id="1" precision="FP32">
					<dim>32</dim>
				</port>
			</output>
		</layer>
		<layer id="61" name="batch_norm_29.w_2" type="Const" version="opset1">
			<data element_type="f32" shape="32" offset="3750" size="128" />
			<output>
				<port id="0" precision="FP32" names="batch_norm_29.w_2">
					<dim>32</dim>
				</port>
			</output>
		</layer>
		<layer id="62" name="BatchNormalization_2" type="BatchNormInference" version="opset5">
			<data epsilon="9.9999997473787516e-06" />
			<input>
				<port id="0" precision="FP32">
					<dim>-1</dim>
					<dim>32</dim>
					<dim>-1</dim>
					<dim>-1</dim>
				</port>
				<port id="1" precision="FP32">
					<dim>32</dim>
				</port>
				<port id="2" precision="FP32">
					<dim>32</dim>
				</port>
				<port id="3" precision="FP32">
					<dim>32</dim>
				</port>
				<port id="4" precision="FP32">
					<dim>32</dim>
				</port>
			</input>
			<output>
				<port id="5" precision="FP32" names="batch_norm_29.tmp_3">
					<dim>-1</dim>
					<dim>32</dim>
					<dim>-1</dim>
					<dim>-1</dim>
				</port>
			</output>
		</layer>
		<layer id="63" name="Constant_11_compressed" type="Const" version="opset1">
			<data element_type="f16" shape="" offset="1888" size="2" />
			<output>
				<port id="0" precision="FP16" names="Constant_11" />
			</output>
		</layer>
		<layer id="64" name="Constant_11" type="Convert" version="opset1">
			<data destination_type="f32" />
			<rt_info>
				<attribute name="decompression" version="0" />
			</rt_info>
			<input>
				<port id="0" precision="FP16" />
			</input>
			<output>
				<port id="1" precision="FP32" />
			</output>
		</layer>
		<layer id="65" name="Constant_10_compressed" type="Const" version="opset1">
			<data element_type="f16" shape="" offset="1890" size="2" />
			<output>
				<port id="0" precision="FP16" names="Constant_10" />
			</output>
		</layer>
		<layer id="66" name="Constant_10" type="Convert" version="opset1">
			<data destination_type="f32" />
			<rt_info>
				<attribute name="decompression" version="0" />
			</rt_info>
			<input>
				<port id="0" precision="FP16" />
			</input>
			<output>
				<port id="1" precision="FP32" />
			</output>
		</layer>
		<layer id="67" name="Constant_9_compressed" type="Const" version="opset1">
			<data element_type="f16" shape="" offset="1892" size="2" />
			<output>
				<port id="0" precision="FP16" names="Constant_9" />
			</output>
		</layer>
		<layer id="68" name="Constant_9" type="Convert" version="opset1">
			<data destination_type="f32" />
			<rt_info>
				<attribute name="decompression" version="0" />
			</rt_info>
			<input>
				<port id="0" precision="FP16" />
			</input>
			<output>
				<port id="1" precision="FP32" />
			</output>
		</layer>
		<layer id="69" name="Add_2" type="Add" version="opset1">
			<data auto_broadcast="numpy" />
			<input>
				<port id="0" precision="FP32">
					<dim>-1</dim>
					<dim>32</dim>
					<dim>-1</dim>
					<dim>-1</dim>
				</port>
				<port id="1" precision="FP32" />
			</input>
			<output>
				<port id="2" precision="FP32" names="Add_2">
					<dim>-1</dim>
					<dim>32</dim>
					<dim>-1</dim>
					<dim>-1</dim>
				</port>
			</output>
		</layer>
		<layer id="70" name="Maximum_8674" type="Maximum" version="opset1">
			<data auto_broadcast="numpy" />
			<input>
				<port id="0" precision="FP32" />
				<port id="1" precision="FP32">
					<dim>-1</dim>
					<dim>32</dim>
					<dim>-1</dim>
					<dim>-1</dim>
				</port>
			</input>
			<output>
				<port id="2" precision="FP32">
					<dim>-1</dim>
					<dim>32</dim>
					<dim>-1</dim>
					<dim>-1</dim>
				</port>
			</output>
		</layer>
		<layer id="71" name="Clip_2" type="Minimum" version="opset1">
			<data auto_broadcast="numpy" />
			<input>
				<port id="0" precision="FP32" />
				<port id="1" precision="FP32">
					<dim>-1</dim>
					<dim>32</dim>
					<dim>-1</dim>
					<dim>-1</dim>
				</port>
			</input>
			<output>
				<port id="2" precision="FP32" names="Clip_2">
					<dim>-1</dim>
					<dim>32</dim>
					<dim>-1</dim>
					<dim>-1</dim>
				</port>
			</output>
		</layer>
		<layer id="72" name="Mul_2" type="Multiply" version="opset1">
			<data auto_broadcast="numpy" />
			<input>
				<port id="0" precision="FP32">
					<dim>-1</dim>
					<dim>32</dim>
					<dim>-1</dim>
					<dim>-1</dim>
				</port>
				<port id="1" precision="FP32">
					<dim>-1</dim>
					<dim>32</dim>
					<dim>-1</dim>
					<dim>-1</dim>
				</port>
			</input>
			<output>
				<port id="2" precision="FP32" names="Mul_2">
					<dim>-1</dim>
					<dim>32</dim>
					<dim>-1</dim>
					<dim>-1</dim>
				</port>
			</output>
		</layer>
		<layer id="73" name="Constant_8_compressed" type="Const" version="opset1">
			<data element_type="f16" shape="" offset="1888" size="2" />
			<output>
				<port id="0" precision="FP16" names="Constant_8" />
			</output>
		</layer>
		<layer id="74" name="Constant_8" type="Convert" version="opset1">
			<data destination_type="f32" />
			<rt_info>
				<attribute name="decompression" version="0" />
			</rt_info>
			<input>
				<port id="0" precision="FP16" />
			</input>
			<output>
				<port id="1" precision="FP32" />
			</output>
		</layer>
		<layer id="75" name="Div_2" type="Divide" version="opset1">
			<data auto_broadcast="numpy" m_pythondiv="true" />
			<input>
				<port id="0" precision="FP32">
					<dim>-1</dim>
					<dim>32</dim>
					<dim>-1</dim>
					<dim>-1</dim>
				</port>
				<port id="1" precision="FP32" />
			</input>
			<output>
				<port id="2" precision="FP32" names="batch_norm_29.tmp_4">
					<dim>-1</dim>
					<dim>32</dim>
					<dim>-1</dim>
					<dim>-1</dim>
				</port>
			</output>
		</layer>
		<layer id="76" name="conv2d_40.w_0_compressed" type="Const" version="opset1">
			<data element_type="f16" shape="32, 1, 3, 3" offset="3878" size="576" />
			<output>
				<port id="0" precision="FP16" names="conv2d_40.w_0">
					<dim>32</dim>
					<dim>1</dim>
					<dim>3</dim>
					<dim>3</dim>
				</port>
			</output>
		</layer>
		<layer id="77" name="conv2d_40.w_0" type="Convert" version="opset1">
			<data destination_type="f32" />
			<rt_info>
				<attribute name="decompression" version="0" />
			</rt_info>
			<input>
				<port id="0" precision="FP16">
					<dim>32</dim>
					<dim>1</dim>
					<dim>3</dim>
					<dim>3</dim>
				</port>
			</input>
			<output>
				<port id="1" precision="FP32">
					<dim>32</dim>
					<dim>1</dim>
					<dim>3</dim>
					<dim>3</dim>
				</port>
			</output>
		</layer>
		<layer id="78" name="Constant_8681" type="Const" version="opset1">
			<data element_type="i64" shape="1" offset="4454" size="8" />
			<rt_info>
				<attribute name="precise" version="0" />
			</rt_info>
			<output>
				<port id="0" precision="I64">
					<dim>1</dim>
				</port>
			</output>
		</layer>
		<layer id="79" name="ShapeOf_8682" type="ShapeOf" version="opset3">
			<data output_type="i64" />
			<input>
				<port id="0" precision="FP32">
					<dim>32</dim>
					<dim>1</dim>
					<dim>3</dim>
					<dim>3</dim>
				</port>
			</input>
			<output>
				<port id="1" precision="I64">
					<dim>4</dim>
				</port>
			</output>
		</layer>
		<layer id="80" name="Constant_8679" type="Const" version="opset1">
			<data element_type="i64" shape="" offset="2190" size="8" />
			<rt_info>
				<attribute name="precise" version="0" />
			</rt_info>
			<output>
				<port id="0" precision="I64" />
			</output>
		</layer>
		<layer id="81" name="Constant_8680" type="Const" version="opset1">
			<data element_type="i64" shape="2" offset="2198" size="16" />
			<rt_info>
				<attribute name="precise" version="0" />
			</rt_info>
			<output>
				<port id="0" precision="I64">
					<dim>2</dim>
				</port>
			</output>
		</layer>
		<layer id="82" name="VariadicSplit_8683" type="VariadicSplit" version="opset1">
			<input>
				<port id="0" precision="I64">
					<dim>4</dim>
				</port>
				<port id="1" precision="I64" />
				<port id="2" precision="I64">
					<dim>2</dim>
				</port>
			</input>
			<output>
				<port id="3" precision="I64">
					<dim>1</dim>
				</port>
				<port id="4" precision="I64">
					<dim>3</dim>
				</port>
			</output>
		</layer>
		<layer id="83" name="Divide_8684" type="Divide" version="opset1">
			<data auto_broadcast="numpy" m_pythondiv="true" />
			<input>
				<port id="0" precision="I64">
					<dim>1</dim>
				</port>
				<port id="1" precision="I64">
					<dim>1</dim>
				</port>
			</input>
			<output>
				<port id="2" precision="I64">
					<dim>1</dim>
				</port>
			</output>
		</layer>
		<layer id="84" name="Concat_8685" type="Concat" version="opset1">
			<data axis="0" />
			<input>
				<port id="0" precision="I64">
					<dim>1</dim>
				</port>
				<port id="1" precision="I64">
					<dim>1</dim>
				</port>
				<port id="2" precision="I64">
					<dim>3</dim>
				</port>
			</input>
			<output>
				<port id="3" precision="I64">
					<dim>5</dim>
				</port>
			</output>
		</layer>
		<layer id="85" name="Reshape_8686" type="Reshape" version="opset1">
			<data special_zero="false" />
			<input>
				<port id="0" precision="FP32">
					<dim>32</dim>
					<dim>1</dim>
					<dim>3</dim>
					<dim>3</dim>
				</port>
				<port id="1" precision="I64">
					<dim>5</dim>
				</port>
			</input>
			<output>
				<port id="2" precision="FP32">
					<dim>32</dim>
					<dim>1</dim>
					<dim>1</dim>
					<dim>3</dim>
					<dim>3</dim>
				</port>
			</output>
		</layer>
		<layer id="86" name="Conv_3" type="GroupConvolution" version="opset1">
			<data strides="1, 1" pads_begin="1, 1" pads_end="1, 1" dilations="1, 1" auto_pad="explicit" />
			<input>
				<port id="0" precision="FP32">
					<dim>-1</dim>
					<dim>32</dim>
					<dim>-1</dim>
					<dim>-1</dim>
				</port>
				<port id="1" precision="FP32">
					<dim>32</dim>
					<dim>1</dim>
					<dim>1</dim>
					<dim>3</dim>
					<dim>3</dim>
				</port>
			</input>
			<output>
				<port id="2" precision="FP32" names="depthwise_conv2d_14.tmp_0">
					<dim>-1</dim>
					<dim>32</dim>
					<dim>-1</dim>
					<dim>-1</dim>
				</port>
			</output>
		</layer>
		<layer id="87" name="batch_norm_30.w_0" type="Const" version="opset1">
			<data element_type="f32" shape="32" offset="4462" size="128" />
			<output>
				<port id="0" precision="FP32" names="batch_norm_30.w_0">
					<dim>32</dim>
				</port>
			</output>
		</layer>
		<layer id="88" name="batch_norm_30.b_0_compressed" type="Const" version="opset1">
			<data element_type="f16" shape="32" offset="4590" size="64" />
			<output>
				<port id="0" precision="FP16" names="batch_norm_30.b_0">
					<dim>32</dim>
				</port>
			</output>
		</layer>
		<layer id="89" name="batch_norm_30.b_0" type="Convert" version="opset1">
			<data destination_type="f32" />
			<rt_info>
				<attribute name="decompression" version="0" />
			</rt_info>
			<input>
				<port id="0" precision="FP16">
					<dim>32</dim>
				</port>
			</input>
			<output>
				<port id="1" precision="FP32">
					<dim>32</dim>
				</port>
			</output>
		</layer>
		<layer id="90" name="batch_norm_30.w_1" type="Const" version="opset1">
			<data element_type="f32" shape="32" offset="4654" size="128" />
			<output>
				<port id="0" precision="FP32" names="batch_norm_30.w_1">
					<dim>32</dim>
				</port>
			</output>
		</layer>
		<layer id="91" name="batch_norm_30.w_2_compressed" type="Const" version="opset1">
			<data element_type="f16" shape="32" offset="4782" size="64" />
			<output>
				<port id="0" precision="FP16" names="batch_norm_30.w_2">
					<dim>32</dim>
				</port>
			</output>
		</layer>
		<layer id="92" name="batch_norm_30.w_2" type="Convert" version="opset1">
			<data destination_type="f32" />
			<rt_info>
				<attribute name="decompression" version="0" />
			</rt_info>
			<input>
				<port id="0" precision="FP16">
					<dim>32</dim>
				</port>
			</input>
			<output>
				<port id="1" precision="FP32">
					<dim>32</dim>
				</port>
			</output>
		</layer>
		<layer id="93" name="BatchNormalization_3" type="BatchNormInference" version="opset5">
			<data epsilon="9.9999997473787516e-06" />
			<input>
				<port id="0" precision="FP32">
					<dim>-1</dim>
					<dim>32</dim>
					<dim>-1</dim>
					<dim>-1</dim>
				</port>
				<port id="1" precision="FP32">
					<dim>32</dim>
				</port>
				<port id="2" precision="FP32">
					<dim>32</dim>
				</port>
				<port id="3" precision="FP32">
					<dim>32</dim>
				</port>
				<port id="4" precision="FP32">
					<dim>32</dim>
				</port>
			</input>
			<output>
				<port id="5" precision="FP32" names="batch_norm_30.tmp_3">
					<dim>-1</dim>
					<dim>32</dim>
					<dim>-1</dim>
					<dim>-1</dim>
				</port>
			</output>
		</layer>
		<layer id="94" name="Constant_15_compressed" type="Const" version="opset1">
			<data element_type="f16" shape="" offset="1888" size="2" />
			<output>
				<port id="0" precision="FP16" names="Constant_15" />
			</output>
		</layer>
		<layer id="95" name="Constant_15" type="Convert" version="opset1">
			<data destination_type="f32" />
			<rt_info>
				<attribute name="decompression" version="0" />
			</rt_info>
			<input>
				<port id="0" precision="FP16" />
			</input>
			<output>
				<port id="1" precision="FP32" />
			</output>
		</layer>
		<layer id="96" name="Constant_14_compressed" type="Const" version="opset1">
			<data element_type="f16" shape="" offset="1890" size="2" />
			<output>
				<port id="0" precision="FP16" names="Constant_14" />
			</output>
		</layer>
		<layer id="97" name="Constant_14" type="Convert" version="opset1">
			<data destination_type="f32" />
			<rt_info>
				<attribute name="decompression" version="0" />
			</rt_info>
			<input>
				<port id="0" precision="FP16" />
			</input>
			<output>
				<port id="1" precision="FP32" />
			</output>
		</layer>
		<layer id="98" name="Constant_13_compressed" type="Const" version="opset1">
			<data element_type="f16" shape="" offset="1892" size="2" />
			<output>
				<port id="0" precision="FP16" names="Constant_13" />
			</output>
		</layer>
		<layer id="99" name="Constant_13" type="Convert" version="opset1">
			<data destination_type="f32" />
			<rt_info>
				<attribute name="decompression" version="0" />
			</rt_info>
			<input>
				<port id="0" precision="FP16" />
			</input>
			<output>
				<port id="1" precision="FP32" />
			</output>
		</layer>
		<layer id="100" name="Add_3" type="Add" version="opset1">
			<data auto_broadcast="numpy" />
			<input>
				<port id="0" precision="FP32">
					<dim>-1</dim>
					<dim>32</dim>
					<dim>-1</dim>
					<dim>-1</dim>
				</port>
				<port id="1" precision="FP32" />
			</input>
			<output>
				<port id="2" precision="FP32" names="Add_3">
					<dim>-1</dim>
					<dim>32</dim>
					<dim>-1</dim>
					<dim>-1</dim>
				</port>
			</output>
		</layer>
		<layer id="101" name="Maximum_8728" type="Maximum" version="opset1">
			<data auto_broadcast="numpy" />
			<input>
				<port id="0" precision="FP32" />
				<port id="1" precision="FP32">
					<dim>-1</dim>
					<dim>32</dim>
					<dim>-1</dim>
					<dim>-1</dim>
				</port>
			</input>
			<output>
				<port id="2" precision="FP32">
					<dim>-1</dim>
					<dim>32</dim>
					<dim>-1</dim>
					<dim>-1</dim>
				</port>
			</output>
		</layer>
		<layer id="102" name="Clip_3" type="Minimum" version="opset1">
			<data auto_broadcast="numpy" />
			<input>
				<port id="0" precision="FP32" />
				<port id="1" precision="FP32">
					<dim>-1</dim>
					<dim>32</dim>
					<dim>-1</dim>
					<dim>-1</dim>
				</port>
			</input>
			<output>
				<port id="2" precision="FP32" names="Clip_3">
					<dim>-1</dim>
					<dim>32</dim>
					<dim>-1</dim>
					<dim>-1</dim>
				</port>
			</output>
		</layer>
		<layer id="103" name="Mul_3" type="Multiply" version="opset1">
			<data auto_broadcast="numpy" />
			<input>
				<port id="0" precision="FP32">
					<dim>-1</dim>
					<dim>32</dim>
					<dim>-1</dim>
					<dim>-1</dim>
				</port>
				<port id="1" precision="FP32">
					<dim>-1</dim>
					<dim>32</dim>
					<dim>-1</dim>
					<dim>-1</dim>
				</port>
			</input>
			<output>
				<port id="2" precision="FP32" names="Mul_3">
					<dim>-1</dim>
					<dim>32</dim>
					<dim>-1</dim>
					<dim>-1</dim>
				</port>
			</output>
		</layer>
		<layer id="104" name="Constant_12_compressed" type="Const" version="opset1">
			<data element_type="f16" shape="" offset="1888" size="2" />
			<output>
				<port id="0" precision="FP16" names="Constant_12" />
			</output>
		</layer>
		<layer id="105" name="Constant_12" type="Convert" version="opset1">
			<data destination_type="f32" />
			<rt_info>
				<attribute name="decompression" version="0" />
			</rt_info>
			<input>
				<port id="0" precision="FP16" />
			</input>
			<output>
				<port id="1" precision="FP32" />
			</output>
		</layer>
		<layer id="106" name="Div_3" type="Divide" version="opset1">
			<data auto_broadcast="numpy" m_pythondiv="true" />
			<input>
				<port id="0" precision="FP32">
					<dim>-1</dim>
					<dim>32</dim>
					<dim>-1</dim>
					<dim>-1</dim>
				</port>
				<port id="1" precision="FP32" />
			</input>
			<output>
				<port id="2" precision="FP32" names="batch_norm_30.tmp_4">
					<dim>-1</dim>
					<dim>32</dim>
					<dim>-1</dim>
					<dim>-1</dim>
				</port>
			</output>
		</layer>
		<layer id="107" name="conv2d_41.w_0_compressed" type="Const" version="opset1">
			<data element_type="f16" shape="64, 32, 1, 1" offset="4846" size="4096" />
			<output>
				<port id="0" precision="FP16" names="conv2d_41.w_0">
					<dim>64</dim>
					<dim>32</dim>
					<dim>1</dim>
					<dim>1</dim>
				</port>
			</output>
		</layer>
		<layer id="108" name="conv2d_41.w_0" type="Convert" version="opset1">
			<data destination_type="f32" />
			<rt_info>
				<attribute name="decompression" version="0" />
			</rt_info>
			<input>
				<port id="0" precision="FP16">
					<dim>64</dim>
					<dim>32</dim>
					<dim>1</dim>
					<dim>1</dim>
				</port>
			</input>
			<output>
				<port id="1" precision="FP32">
					<dim>64</dim>
					<dim>32</dim>
					<dim>1</dim>
					<dim>1</dim>
				</port>
			</output>
		</layer>
		<layer id="109" name="Conv_4" type="Convolution" version="opset1">
			<data strides="1, 1" dilations="1, 1" pads_begin="0, 0" pads_end="0, 0" auto_pad="explicit" />
			<input>
				<port id="0" precision="FP32">
					<dim>-1</dim>
					<dim>32</dim>
					<dim>-1</dim>
					<dim>-1</dim>
				</port>
				<port id="1" precision="FP32">
					<dim>64</dim>
					<dim>32</dim>
					<dim>1</dim>
					<dim>1</dim>
				</port>
			</input>
			<output>
				<port id="2" precision="FP32" names="conv2d_99.tmp_0">
					<dim>-1</dim>
					<dim>64</dim>
					<dim>-1</dim>
					<dim>-1</dim>
				</port>
			</output>
		</layer>
		<layer id="110" name="batch_norm_31.w_0_compressed" type="Const" version="opset1">
			<data element_type="f16" shape="64" offset="8942" size="128" />
			<output>
				<port id="0" precision="FP16" names="batch_norm_31.w_0">
					<dim>64</dim>
				</port>
			</output>
		</layer>
		<layer id="111" name="batch_norm_31.w_0" type="Convert" version="opset1">
			<data destination_type="f32" />
			<rt_info>
				<attribute name="decompression" version="0" />
			</rt_info>
			<input>
				<port id="0" precision="FP16">
					<dim>64</dim>
				</port>
			</input>
			<output>
				<port id="1" precision="FP32">
					<dim>64</dim>
				</port>
			</output>
		</layer>
		<layer id="112" name="batch_norm_31.b_0" type="Const" version="opset1">
			<data element_type="f32" shape="64" offset="9070" size="256" />
			<output>
				<port id="0" precision="FP32" names="batch_norm_31.b_0">
					<dim>64</dim>
				</port>
			</output>
		</layer>
		<layer id="113" name="batch_norm_31.w_1_compressed" type="Const" version="opset1">
			<data element_type="f16" shape="64" offset="9326" size="128" />
			<output>
				<port id="0" precision="FP16" names="batch_norm_31.w_1">
					<dim>64</dim>
				</port>
			</output>
		</layer>
		<layer id="114" name="batch_norm_31.w_1" type="Convert" version="opset1">
			<data destination_type="f32" />
			<rt_info>
				<attribute name="decompression" version="0" />
			</rt_info>
			<input>
				<port id="0" precision="FP16">
					<dim>64</dim>
				</port>
			</input>
			<output>
				<port id="1" precision="FP32">
					<dim>64</dim>
				</port>
			</output>
		</layer>
		<layer id="115" name="batch_norm_31.w_2" type="Const" version="opset1">
			<data element_type="f32" shape="64" offset="9454" size="256" />
			<output>
				<port id="0" precision="FP32" names="batch_norm_31.w_2">
					<dim>64</dim>
				</port>
			</output>
		</layer>
		<layer id="116" name="BatchNormalization_4" type="BatchNormInference" version="opset5">
			<data epsilon="9.9999997473787516e-06" />
			<input>
				<port id="0" precision="FP32">
					<dim>-1</dim>
					<dim>64</dim>
					<dim>-1</dim>
					<dim>-1</dim>
				</port>
				<port id="1" precision="FP32">
					<dim>64</dim>
				</port>
				<port id="2" precision="FP32">
					<dim>64</dim>
				</port>
				<port id="3" precision="FP32">
					<dim>64</dim>
				</port>
				<port id="4" precision="FP32">
					<dim>64</dim>
				</port>
			</input>
			<output>
				<port id="5" precision="FP32" names="batch_norm_31.tmp_3">
					<dim>-1</dim>
					<dim>64</dim>
					<dim>-1</dim>
					<dim>-1</dim>
				</port>
			</output>
		</layer>
		<layer id="117" name="Constant_19_compressed" type="Const" version="opset1">
			<data element_type="f16" shape="" offset="1888" size="2" />
			<output>
				<port id="0" precision="FP16" names="Constant_19" />
			</output>
		</layer>
		<layer id="118" name="Constant_19" type="Convert" version="opset1">
			<data destination_type="f32" />
			<rt_info>
				<attribute name="decompression" version="0" />
			</rt_info>
			<input>
				<port id="0" precision="FP16" />
			</input>
			<output>
				<port id="1" precision="FP32" />
			</output>
		</layer>
		<layer id="119" name="Constant_18_compressed" type="Const" version="opset1">
			<data element_type="f16" shape="" offset="1890" size="2" />
			<output>
				<port id="0" precision="FP16" names="Constant_18" />
			</output>
		</layer>
		<layer id="120" name="Constant_18" type="Convert" version="opset1">
			<data destination_type="f32" />
			<rt_info>
				<attribute name="decompression" version="0" />
			</rt_info>
			<input>
				<port id="0" precision="FP16" />
			</input>
			<output>
				<port id="1" precision="FP32" />
			</output>
		</layer>
		<layer id="121" name="Constant_17_compressed" type="Const" version="opset1">
			<data element_type="f16" shape="" offset="1892" size="2" />
			<output>
				<port id="0" precision="FP16" names="Constant_17" />
			</output>
		</layer>
		<layer id="122" name="Constant_17" type="Convert" version="opset1">
			<data destination_type="f32" />
			<rt_info>
				<attribute name="decompression" version="0" />
			</rt_info>
			<input>
				<port id="0" precision="FP16" />
			</input>
			<output>
				<port id="1" precision="FP32" />
			</output>
		</layer>
		<layer id="123" name="Add_4" type="Add" version="opset1">
			<data auto_broadcast="numpy" />
			<input>
				<port id="0" precision="FP32">
					<dim>-1</dim>
					<dim>64</dim>
					<dim>-1</dim>
					<dim>-1</dim>
				</port>
				<port id="1" precision="FP32" />
			</input>
			<output>
				<port id="2" precision="FP32" names="Add_4">
					<dim>-1</dim>
					<dim>64</dim>
					<dim>-1</dim>
					<dim>-1</dim>
				</port>
			</output>
		</layer>
		<layer id="124" name="Maximum_8736" type="Maximum" version="opset1">
			<data auto_broadcast="numpy" />
			<input>
				<port id="0" precision="FP32" />
				<port id="1" precision="FP32">
					<dim>-1</dim>
					<dim>64</dim>
					<dim>-1</dim>
					<dim>-1</dim>
				</port>
			</input>
			<output>
				<port id="2" precision="FP32">
					<dim>-1</dim>
					<dim>64</dim>
					<dim>-1</dim>
					<dim>-1</dim>
				</port>
			</output>
		</layer>
		<layer id="125" name="Clip_4" type="Minimum" version="opset1">
			<data auto_broadcast="numpy" />
			<input>
				<port id="0" precision="FP32" />
				<port id="1" precision="FP32">
					<dim>-1</dim>
					<dim>64</dim>
					<dim>-1</dim>
					<dim>-1</dim>
				</port>
			</input>
			<output>
				<port id="2" precision="FP32" names="Clip_4">
					<dim>-1</dim>
					<dim>64</dim>
					<dim>-1</dim>
					<dim>-1</dim>
				</port>
			</output>
		</layer>
		<layer id="126" name="Mul_4" type="Multiply" version="opset1">
			<data auto_broadcast="numpy" />
			<input>
				<port id="0" precision="FP32">
					<dim>-1</dim>
					<dim>64</dim>
					<dim>-1</dim>
					<dim>-1</dim>
				</port>
				<port id="1" precision="FP32">
					<dim>-1</dim>
					<dim>64</dim>
					<dim>-1</dim>
					<dim>-1</dim>
				</port>
			</input>
			<output>
				<port id="2" precision="FP32" names="Mul_4">
					<dim>-1</dim>
					<dim>64</dim>
					<dim>-1</dim>
					<dim>-1</dim>
				</port>
			</output>
		</layer>
		<layer id="127" name="Constant_16_compressed" type="Const" version="opset1">
			<data element_type="f16" shape="" offset="1888" size="2" />
			<output>
				<port id="0" precision="FP16" names="Constant_16" />
			</output>
		</layer>
		<layer id="128" name="Constant_16" type="Convert" version="opset1">
			<data destination_type="f32" />
			<rt_info>
				<attribute name="decompression" version="0" />
			</rt_info>
			<input>
				<port id="0" precision="FP16" />
			</input>
			<output>
				<port id="1" precision="FP32" />
			</output>
		</layer>
		<layer id="129" name="Div_4" type="Divide" version="opset1">
			<data auto_broadcast="numpy" m_pythondiv="true" />
			<input>
				<port id="0" precision="FP32">
					<dim>-1</dim>
					<dim>64</dim>
					<dim>-1</dim>
					<dim>-1</dim>
				</port>
				<port id="1" precision="FP32" />
			</input>
			<output>
				<port id="2" precision="FP32" names="batch_norm_31.tmp_4">
					<dim>-1</dim>
					<dim>64</dim>
					<dim>-1</dim>
					<dim>-1</dim>
				</port>
			</output>
		</layer>
		<layer id="130" name="conv2d_42.w_0_compressed" type="Const" version="opset1">
			<data element_type="f16" shape="64, 1, 3, 3" offset="9710" size="1152" />
			<output>
				<port id="0" precision="FP16" names="conv2d_42.w_0">
					<dim>64</dim>
					<dim>1</dim>
					<dim>3</dim>
					<dim>3</dim>
				</port>
			</output>
		</layer>
		<layer id="131" name="conv2d_42.w_0" type="Convert" version="opset1">
			<data destination_type="f32" />
			<rt_info>
				<attribute name="decompression" version="0" />
			</rt_info>
			<input>
				<port id="0" precision="FP16">
					<dim>64</dim>
					<dim>1</dim>
					<dim>3</dim>
					<dim>3</dim>
				</port>
			</input>
			<output>
				<port id="1" precision="FP32">
					<dim>64</dim>
					<dim>1</dim>
					<dim>3</dim>
					<dim>3</dim>
				</port>
			</output>
		</layer>
		<layer id="132" name="Constant_8743" type="Const" version="opset1">
			<data element_type="i64" shape="1" offset="10862" size="8" />
			<rt_info>
				<attribute name="precise" version="0" />
			</rt_info>
			<output>
				<port id="0" precision="I64">
					<dim>1</dim>
				</port>
			</output>
		</layer>
		<layer id="133" name="ShapeOf_8744" type="ShapeOf" version="opset3">
			<data output_type="i64" />
			<input>
				<port id="0" precision="FP32">
					<dim>64</dim>
					<dim>1</dim>
					<dim>3</dim>
					<dim>3</dim>
				</port>
			</input>
			<output>
				<port id="1" precision="I64">
					<dim>4</dim>
				</port>
			</output>
		</layer>
		<layer id="134" name="Constant_8741" type="Const" version="opset1">
			<data element_type="i64" shape="" offset="2190" size="8" />
			<rt_info>
				<attribute name="precise" version="0" />
			</rt_info>
			<output>
				<port id="0" precision="I64" />
			</output>
		</layer>
		<layer id="135" name="Constant_8742" type="Const" version="opset1">
			<data element_type="i64" shape="2" offset="2198" size="16" />
			<rt_info>
				<attribute name="precise" version="0" />
			</rt_info>
			<output>
				<port id="0" precision="I64">
					<dim>2</dim>
				</port>
			</output>
		</layer>
		<layer id="136" name="VariadicSplit_8745" type="VariadicSplit" version="opset1">
			<input>
				<port id="0" precision="I64">
					<dim>4</dim>
				</port>
				<port id="1" precision="I64" />
				<port id="2" precision="I64">
					<dim>2</dim>
				</port>
			</input>
			<output>
				<port id="3" precision="I64">
					<dim>1</dim>
				</port>
				<port id="4" precision="I64">
					<dim>3</dim>
				</port>
			</output>
		</layer>
		<layer id="137" name="Divide_8746" type="Divide" version="opset1">
			<data auto_broadcast="numpy" m_pythondiv="true" />
			<input>
				<port id="0" precision="I64">
					<dim>1</dim>
				</port>
				<port id="1" precision="I64">
					<dim>1</dim>
				</port>
			</input>
			<output>
				<port id="2" precision="I64">
					<dim>1</dim>
				</port>
			</output>
		</layer>
		<layer id="138" name="Concat_8747" type="Concat" version="opset1">
			<data axis="0" />
			<input>
				<port id="0" precision="I64">
					<dim>1</dim>
				</port>
				<port id="1" precision="I64">
					<dim>1</dim>
				</port>
				<port id="2" precision="I64">
					<dim>3</dim>
				</port>
			</input>
			<output>
				<port id="3" precision="I64">
					<dim>5</dim>
				</port>
			</output>
		</layer>
		<layer id="139" name="Reshape_8748" type="Reshape" version="opset1">
			<data special_zero="false" />
			<input>
				<port id="0" precision="FP32">
					<dim>64</dim>
					<dim>1</dim>
					<dim>3</dim>
					<dim>3</dim>
				</port>
				<port id="1" precision="I64">
					<dim>5</dim>
				</port>
			</input>
			<output>
				<port id="2" precision="FP32">
					<dim>64</dim>
					<dim>1</dim>
					<dim>1</dim>
					<dim>3</dim>
					<dim>3</dim>
				</port>
			</output>
		</layer>
		<layer id="140" name="Conv_5" type="GroupConvolution" version="opset1">
			<data strides="1, 1" pads_begin="1, 1" pads_end="1, 1" dilations="1, 1" auto_pad="explicit" />
			<input>
				<port id="0" precision="FP32">
					<dim>-1</dim>
					<dim>64</dim>
					<dim>-1</dim>
					<dim>-1</dim>
				</port>
				<port id="1" precision="FP32">
					<dim>64</dim>
					<dim>1</dim>
					<dim>1</dim>
					<dim>3</dim>
					<dim>3</dim>
				</port>
			</input>
			<output>
				<port id="2" precision="FP32" names="depthwise_conv2d_15.tmp_0">
					<dim>-1</dim>
					<dim>64</dim>
					<dim>-1</dim>
					<dim>-1</dim>
				</port>
			</output>
		</layer>
		<layer id="141" name="batch_norm_32.w_0_compressed" type="Const" version="opset1">
			<data element_type="f16" shape="64" offset="10870" size="128" />
			<output>
				<port id="0" precision="FP16" names="batch_norm_32.w_0">
					<dim>64</dim>
				</port>
			</output>
		</layer>
		<layer id="142" name="batch_norm_32.w_0" type="Convert" version="opset1">
			<data destination_type="f32" />
			<rt_info>
				<attribute name="decompression" version="0" />
			</rt_info>
			<input>
				<port id="0" precision="FP16">
					<dim>64</dim>
				</port>
			</input>
			<output>
				<port id="1" precision="FP32">
					<dim>64</dim>
				</port>
			</output>
		</layer>
		<layer id="143" name="batch_norm_32.b_0_compressed" type="Const" version="opset1">
			<data element_type="f16" shape="64" offset="10998" size="128" />
			<output>
				<port id="0" precision="FP16" names="batch_norm_32.b_0">
					<dim>64</dim>
				</port>
			</output>
		</layer>
		<layer id="144" name="batch_norm_32.b_0" type="Convert" version="opset1">
			<data destination_type="f32" />
			<rt_info>
				<attribute name="decompression" version="0" />
			</rt_info>
			<input>
				<port id="0" precision="FP16">
					<dim>64</dim>
				</port>
			</input>
			<output>
				<port id="1" precision="FP32">
					<dim>64</dim>
				</port>
			</output>
		</layer>
		<layer id="145" name="batch_norm_32.w_1_compressed" type="Const" version="opset1">
			<data element_type="f16" shape="64" offset="11126" size="128" />
			<output>
				<port id="0" precision="FP16" names="batch_norm_32.w_1">
					<dim>64</dim>
				</port>
			</output>
		</layer>
		<layer id="146" name="batch_norm_32.w_1" type="Convert" version="opset1">
			<data destination_type="f32" />
			<rt_info>
				<attribute name="decompression" version="0" />
			</rt_info>
			<input>
				<port id="0" precision="FP16">
					<dim>64</dim>
				</port>
			</input>
			<output>
				<port id="1" precision="FP32">
					<dim>64</dim>
				</port>
			</output>
		</layer>
		<layer id="147" name="batch_norm_32.w_2_compressed" type="Const" version="opset1">
			<data element_type="f16" shape="64" offset="11254" size="128" />
			<output>
				<port id="0" precision="FP16" names="batch_norm_32.w_2">
					<dim>64</dim>
				</port>
			</output>
		</layer>
		<layer id="148" name="batch_norm_32.w_2" type="Convert" version="opset1">
			<data destination_type="f32" />
			<rt_info>
				<attribute name="decompression" version="0" />
			</rt_info>
			<input>
				<port id="0" precision="FP16">
					<dim>64</dim>
				</port>
			</input>
			<output>
				<port id="1" precision="FP32">
					<dim>64</dim>
				</port>
			</output>
		</layer>
		<layer id="149" name="BatchNormalization_5" type="BatchNormInference" version="opset5">
			<data epsilon="9.9999997473787516e-06" />
			<input>
				<port id="0" precision="FP32">
					<dim>-1</dim>
					<dim>64</dim>
					<dim>-1</dim>
					<dim>-1</dim>
				</port>
				<port id="1" precision="FP32">
					<dim>64</dim>
				</port>
				<port id="2" precision="FP32">
					<dim>64</dim>
				</port>
				<port id="3" precision="FP32">
					<dim>64</dim>
				</port>
				<port id="4" precision="FP32">
					<dim>64</dim>
				</port>
			</input>
			<output>
				<port id="5" precision="FP32" names="batch_norm_32.tmp_3">
					<dim>-1</dim>
					<dim>64</dim>
					<dim>-1</dim>
					<dim>-1</dim>
				</port>
			</output>
		</layer>
		<layer id="150" name="Constant_23_compressed" type="Const" version="opset1">
			<data element_type="f16" shape="" offset="1888" size="2" />
			<output>
				<port id="0" precision="FP16" names="Constant_23" />
			</output>
		</layer>
		<layer id="151" name="Constant_23" type="Convert" version="opset1">
			<data destination_type="f32" />
			<rt_info>
				<attribute name="decompression" version="0" />
			</rt_info>
			<input>
				<port id="0" precision="FP16" />
			</input>
			<output>
				<port id="1" precision="FP32" />
			</output>
		</layer>
		<layer id="152" name="Constant_22_compressed" type="Const" version="opset1">
			<data element_type="f16" shape="" offset="1890" size="2" />
			<output>
				<port id="0" precision="FP16" names="Constant_22" />
			</output>
		</layer>
		<layer id="153" name="Constant_22" type="Convert" version="opset1">
			<data destination_type="f32" />
			<rt_info>
				<attribute name="decompression" version="0" />
			</rt_info>
			<input>
				<port id="0" precision="FP16" />
			</input>
			<output>
				<port id="1" precision="FP32" />
			</output>
		</layer>
		<layer id="154" name="Constant_21_compressed" type="Const" version="opset1">
			<data element_type="f16" shape="" offset="1892" size="2" />
			<output>
				<port id="0" precision="FP16" names="Constant_21" />
			</output>
		</layer>
		<layer id="155" name="Constant_21" type="Convert" version="opset1">
			<data destination_type="f32" />
			<rt_info>
				<attribute name="decompression" version="0" />
			</rt_info>
			<input>
				<port id="0" precision="FP16" />
			</input>
			<output>
				<port id="1" precision="FP32" />
			</output>
		</layer>
		<layer id="156" name="Add_5" type="Add" version="opset1">
			<data auto_broadcast="numpy" />
			<input>
				<port id="0" precision="FP32">
					<dim>-1</dim>
					<dim>64</dim>
					<dim>-1</dim>
					<dim>-1</dim>
				</port>
				<port id="1" precision="FP32" />
			</input>
			<output>
				<port id="2" precision="FP32" names="Add_5">
					<dim>-1</dim>
					<dim>64</dim>
					<dim>-1</dim>
					<dim>-1</dim>
				</port>
			</output>
		</layer>
		<layer id="157" name="Maximum_8790" type="Maximum" version="opset1">
			<data auto_broadcast="numpy" />
			<input>
				<port id="0" precision="FP32" />
				<port id="1" precision="FP32">
					<dim>-1</dim>
					<dim>64</dim>
					<dim>-1</dim>
					<dim>-1</dim>
				</port>
			</input>
			<output>
				<port id="2" precision="FP32">
					<dim>-1</dim>
					<dim>64</dim>
					<dim>-1</dim>
					<dim>-1</dim>
				</port>
			</output>
		</layer>
		<layer id="158" name="Clip_5" type="Minimum" version="opset1">
			<data auto_broadcast="numpy" />
			<input>
				<port id="0" precision="FP32" />
				<port id="1" precision="FP32">
					<dim>-1</dim>
					<dim>64</dim>
					<dim>-1</dim>
					<dim>-1</dim>
				</port>
			</input>
			<output>
				<port id="2" precision="FP32" names="Clip_5">
					<dim>-1</dim>
					<dim>64</dim>
					<dim>-1</dim>
					<dim>-1</dim>
				</port>
			</output>
		</layer>
		<layer id="159" name="Mul_5" type="Multiply" version="opset1">
			<data auto_broadcast="numpy" />
			<input>
				<port id="0" precision="FP32">
					<dim>-1</dim>
					<dim>64</dim>
					<dim>-1</dim>
					<dim>-1</dim>
				</port>
				<port id="1" precision="FP32">
					<dim>-1</dim>
					<dim>64</dim>
					<dim>-1</dim>
					<dim>-1</dim>
				</port>
			</input>
			<output>
				<port id="2" precision="FP32" names="Mul_5">
					<dim>-1</dim>
					<dim>64</dim>
					<dim>-1</dim>
					<dim>-1</dim>
				</port>
			</output>
		</layer>
		<layer id="160" name="Constant_20_compressed" type="Const" version="opset1">
			<data element_type="f16" shape="" offset="1888" size="2" />
			<output>
				<port id="0" precision="FP16" names="Constant_20" />
			</output>
		</layer>
		<layer id="161" name="Constant_20" type="Convert" version="opset1">
			<data destination_type="f32" />
			<rt_info>
				<attribute name="decompression" version="0" />
			</rt_info>
			<input>
				<port id="0" precision="FP16" />
			</input>
			<output>
				<port id="1" precision="FP32" />
			</output>
		</layer>
		<layer id="162" name="Div_5" type="Divide" version="opset1">
			<data auto_broadcast="numpy" m_pythondiv="true" />
			<input>
				<port id="0" precision="FP32">
					<dim>-1</dim>
					<dim>64</dim>
					<dim>-1</dim>
					<dim>-1</dim>
				</port>
				<port id="1" precision="FP32" />
			</input>
			<output>
				<port id="2" precision="FP32" names="batch_norm_32.tmp_4">
					<dim>-1</dim>
					<dim>64</dim>
					<dim>-1</dim>
					<dim>-1</dim>
				</port>
			</output>
		</layer>
		<layer id="163" name="conv2d_43.w_0_compressed" type="Const" version="opset1">
			<data element_type="f16" shape="64, 64, 1, 1" offset="11382" size="8192" />
			<output>
				<port id="0" precision="FP16" names="conv2d_43.w_0">
					<dim>64</dim>
					<dim>64</dim>
					<dim>1</dim>
					<dim>1</dim>
				</port>
			</output>
		</layer>
		<layer id="164" name="conv2d_43.w_0" type="Convert" version="opset1">
			<data destination_type="f32" />
			<rt_info>
				<attribute name="decompression" version="0" />
			</rt_info>
			<input>
				<port id="0" precision="FP16">
					<dim>64</dim>
					<dim>64</dim>
					<dim>1</dim>
					<dim>1</dim>
				</port>
			</input>
			<output>
				<port id="1" precision="FP32">
					<dim>64</dim>
					<dim>64</dim>
					<dim>1</dim>
					<dim>1</dim>
				</port>
			</output>
		</layer>
		<layer id="165" name="Conv_6" type="Convolution" version="opset1">
			<data strides="1, 1" dilations="1, 1" pads_begin="0, 0" pads_end="0, 0" auto_pad="explicit" />
			<input>
				<port id="0" precision="FP32">
					<dim>-1</dim>
					<dim>64</dim>
					<dim>-1</dim>
					<dim>-1</dim>
				</port>
				<port id="1" precision="FP32">
					<dim>64</dim>
					<dim>64</dim>
					<dim>1</dim>
					<dim>1</dim>
				</port>
			</input>
			<output>
				<port id="2" precision="FP32" names="conv2d_100.tmp_0">
					<dim>-1</dim>
					<dim>64</dim>
					<dim>-1</dim>
					<dim>-1</dim>
				</port>
			</output>
		</layer>
		<layer id="166" name="batch_norm_33.w_0_compressed" type="Const" version="opset1">
			<data element_type="f16" shape="64" offset="19574" size="128" />
			<output>
				<port id="0" precision="FP16" names="batch_norm_33.w_0">
					<dim>64</dim>
				</port>
			</output>
		</layer>
		<layer id="167" name="batch_norm_33.w_0" type="Convert" version="opset1">
			<data destination_type="f32" />
			<rt_info>
				<attribute name="decompression" version="0" />
			</rt_info>
			<input>
				<port id="0" precision="FP16">
					<dim>64</dim>
				</port>
			</input>
			<output>
				<port id="1" precision="FP32">
					<dim>64</dim>
				</port>
			</output>
		</layer>
		<layer id="168" name="batch_norm_33.b_0_compressed" type="Const" version="opset1">
			<data element_type="f16" shape="64" offset="19702" size="128" />
			<output>
				<port id="0" precision="FP16" names="batch_norm_33.b_0">
					<dim>64</dim>
				</port>
			</output>
		</layer>
		<layer id="169" name="batch_norm_33.b_0" type="Convert" version="opset1">
			<data destination_type="f32" />
			<rt_info>
				<attribute name="decompression" version="0" />
			</rt_info>
			<input>
				<port id="0" precision="FP16">
					<dim>64</dim>
				</port>
			</input>
			<output>
				<port id="1" precision="FP32">
					<dim>64</dim>
				</port>
			</output>
		</layer>
		<layer id="170" name="batch_norm_33.w_1_compressed" type="Const" version="opset1">
			<data element_type="f16" shape="64" offset="19830" size="128" />
			<output>
				<port id="0" precision="FP16" names="batch_norm_33.w_1">
					<dim>64</dim>
				</port>
			</output>
		</layer>
		<layer id="171" name="batch_norm_33.w_1" type="Convert" version="opset1">
			<data destination_type="f32" />
			<rt_info>
				<attribute name="decompression" version="0" />
			</rt_info>
			<input>
				<port id="0" precision="FP16">
					<dim>64</dim>
				</port>
			</input>
			<output>
				<port id="1" precision="FP32">
					<dim>64</dim>
				</port>
			</output>
		</layer>
		<layer id="172" name="batch_norm_33.w_2_compressed" type="Const" version="opset1">
			<data element_type="f16" shape="64" offset="19958" size="128" />
			<output>
				<port id="0" precision="FP16" names="batch_norm_33.w_2">
					<dim>64</dim>
				</port>
			</output>
		</layer>
		<layer id="173" name="batch_norm_33.w_2" type="Convert" version="opset1">
			<data destination_type="f32" />
			<rt_info>
				<attribute name="decompression" version="0" />
			</rt_info>
			<input>
				<port id="0" precision="FP16">
					<dim>64</dim>
				</port>
			</input>
			<output>
				<port id="1" precision="FP32">
					<dim>64</dim>
				</port>
			</output>
		</layer>
		<layer id="174" name="BatchNormalization_6" type="BatchNormInference" version="opset5">
			<data epsilon="9.9999997473787516e-06" />
			<input>
				<port id="0" precision="FP32">
					<dim>-1</dim>
					<dim>64</dim>
					<dim>-1</dim>
					<dim>-1</dim>
				</port>
				<port id="1" precision="FP32">
					<dim>64</dim>
				</port>
				<port id="2" precision="FP32">
					<dim>64</dim>
				</port>
				<port id="3" precision="FP32">
					<dim>64</dim>
				</port>
				<port id="4" precision="FP32">
					<dim>64</dim>
				</port>
			</input>
			<output>
				<port id="5" precision="FP32" names="batch_norm_33.tmp_3">
					<dim>-1</dim>
					<dim>64</dim>
					<dim>-1</dim>
					<dim>-1</dim>
				</port>
			</output>
		</layer>
		<layer id="175" name="Constant_27_compressed" type="Const" version="opset1">
			<data element_type="f16" shape="" offset="1888" size="2" />
			<output>
				<port id="0" precision="FP16" names="Constant_27" />
			</output>
		</layer>
		<layer id="176" name="Constant_27" type="Convert" version="opset1">
			<data destination_type="f32" />
			<rt_info>
				<attribute name="decompression" version="0" />
			</rt_info>
			<input>
				<port id="0" precision="FP16" />
			</input>
			<output>
				<port id="1" precision="FP32" />
			</output>
		</layer>
		<layer id="177" name="Constant_26_compressed" type="Const" version="opset1">
			<data element_type="f16" shape="" offset="1890" size="2" />
			<output>
				<port id="0" precision="FP16" names="Constant_26" />
			</output>
		</layer>
		<layer id="178" name="Constant_26" type="Convert" version="opset1">
			<data destination_type="f32" />
			<rt_info>
				<attribute name="decompression" version="0" />
			</rt_info>
			<input>
				<port id="0" precision="FP16" />
			</input>
			<output>
				<port id="1" precision="FP32" />
			</output>
		</layer>
		<layer id="179" name="Constant_25_compressed" type="Const" version="opset1">
			<data element_type="f16" shape="" offset="1892" size="2" />
			<output>
				<port id="0" precision="FP16" names="Constant_25" />
			</output>
		</layer>
		<layer id="180" name="Constant_25" type="Convert" version="opset1">
			<data destination_type="f32" />
			<rt_info>
				<attribute name="decompression" version="0" />
			</rt_info>
			<input>
				<port id="0" precision="FP16" />
			</input>
			<output>
				<port id="1" precision="FP32" />
			</output>
		</layer>
		<layer id="181" name="Add_6" type="Add" version="opset1">
			<data auto_broadcast="numpy" />
			<input>
				<port id="0" precision="FP32">
					<dim>-1</dim>
					<dim>64</dim>
					<dim>-1</dim>
					<dim>-1</dim>
				</port>
				<port id="1" precision="FP32" />
			</input>
			<output>
				<port id="2" precision="FP32" names="Add_6">
					<dim>-1</dim>
					<dim>64</dim>
					<dim>-1</dim>
					<dim>-1</dim>
				</port>
			</output>
		</layer>
		<layer id="182" name="Maximum_8798" type="Maximum" version="opset1">
			<data auto_broadcast="numpy" />
			<input>
				<port id="0" precision="FP32" />
				<port id="1" precision="FP32">
					<dim>-1</dim>
					<dim>64</dim>
					<dim>-1</dim>
					<dim>-1</dim>
				</port>
			</input>
			<output>
				<port id="2" precision="FP32">
					<dim>-1</dim>
					<dim>64</dim>
					<dim>-1</dim>
					<dim>-1</dim>
				</port>
			</output>
		</layer>
		<layer id="183" name="Clip_6" type="Minimum" version="opset1">
			<data auto_broadcast="numpy" />
			<input>
				<port id="0" precision="FP32" />
				<port id="1" precision="FP32">
					<dim>-1</dim>
					<dim>64</dim>
					<dim>-1</dim>
					<dim>-1</dim>
				</port>
			</input>
			<output>
				<port id="2" precision="FP32" names="Clip_6">
					<dim>-1</dim>
					<dim>64</dim>
					<dim>-1</dim>
					<dim>-1</dim>
				</port>
			</output>
		</layer>
		<layer id="184" name="Mul_6" type="Multiply" version="opset1">
			<data auto_broadcast="numpy" />
			<input>
				<port id="0" precision="FP32">
					<dim>-1</dim>
					<dim>64</dim>
					<dim>-1</dim>
					<dim>-1</dim>
				</port>
				<port id="1" precision="FP32">
					<dim>-1</dim>
					<dim>64</dim>
					<dim>-1</dim>
					<dim>-1</dim>
				</port>
			</input>
			<output>
				<port id="2" precision="FP32" names="Mul_6">
					<dim>-1</dim>
					<dim>64</dim>
					<dim>-1</dim>
					<dim>-1</dim>
				</port>
			</output>
		</layer>
		<layer id="185" name="Constant_24_compressed" type="Const" version="opset1">
			<data element_type="f16" shape="" offset="1888" size="2" />
			<output>
				<port id="0" precision="FP16" names="Constant_24" />
			</output>
		</layer>
		<layer id="186" name="Constant_24" type="Convert" version="opset1">
			<data destination_type="f32" />
			<rt_info>
				<attribute name="decompression" version="0" />
			</rt_info>
			<input>
				<port id="0" precision="FP16" />
			</input>
			<output>
				<port id="1" precision="FP32" />
			</output>
		</layer>
		<layer id="187" name="Div_6" type="Divide" version="opset1">
			<data auto_broadcast="numpy" m_pythondiv="true" />
			<input>
				<port id="0" precision="FP32">
					<dim>-1</dim>
					<dim>64</dim>
					<dim>-1</dim>
					<dim>-1</dim>
				</port>
				<port id="1" precision="FP32" />
			</input>
			<output>
				<port id="2" precision="FP32" names="batch_norm_33.tmp_4">
					<dim>-1</dim>
					<dim>64</dim>
					<dim>-1</dim>
					<dim>-1</dim>
				</port>
			</output>
		</layer>
		<layer id="188" name="conv2d_44.w_0_compressed" type="Const" version="opset1">
			<data element_type="f16" shape="64, 1, 3, 3" offset="20086" size="1152" />
			<output>
				<port id="0" precision="FP16" names="conv2d_44.w_0">
					<dim>64</dim>
					<dim>1</dim>
					<dim>3</dim>
					<dim>3</dim>
				</port>
			</output>
		</layer>
		<layer id="189" name="conv2d_44.w_0" type="Convert" version="opset1">
			<data destination_type="f32" />
			<rt_info>
				<attribute name="decompression" version="0" />
			</rt_info>
			<input>
				<port id="0" precision="FP16">
					<dim>64</dim>
					<dim>1</dim>
					<dim>3</dim>
					<dim>3</dim>
				</port>
			</input>
			<output>
				<port id="1" precision="FP32">
					<dim>64</dim>
					<dim>1</dim>
					<dim>3</dim>
					<dim>3</dim>
				</port>
			</output>
		</layer>
		<layer id="190" name="Constant_8805" type="Const" version="opset1">
			<data element_type="i64" shape="1" offset="10862" size="8" />
			<rt_info>
				<attribute name="precise" version="0" />
			</rt_info>
			<output>
				<port id="0" precision="I64">
					<dim>1</dim>
				</port>
			</output>
		</layer>
		<layer id="191" name="ShapeOf_8806" type="ShapeOf" version="opset3">
			<data output_type="i64" />
			<input>
				<port id="0" precision="FP32">
					<dim>64</dim>
					<dim>1</dim>
					<dim>3</dim>
					<dim>3</dim>
				</port>
			</input>
			<output>
				<port id="1" precision="I64">
					<dim>4</dim>
				</port>
			</output>
		</layer>
		<layer id="192" name="Constant_8803" type="Const" version="opset1">
			<data element_type="i64" shape="" offset="2190" size="8" />
			<rt_info>
				<attribute name="precise" version="0" />
			</rt_info>
			<output>
				<port id="0" precision="I64" />
			</output>
		</layer>
		<layer id="193" name="Constant_8804" type="Const" version="opset1">
			<data element_type="i64" shape="2" offset="2198" size="16" />
			<rt_info>
				<attribute name="precise" version="0" />
			</rt_info>
			<output>
				<port id="0" precision="I64">
					<dim>2</dim>
				</port>
			</output>
		</layer>
		<layer id="194" name="VariadicSplit_8807" type="VariadicSplit" version="opset1">
			<input>
				<port id="0" precision="I64">
					<dim>4</dim>
				</port>
				<port id="1" precision="I64" />
				<port id="2" precision="I64">
					<dim>2</dim>
				</port>
			</input>
			<output>
				<port id="3" precision="I64">
					<dim>1</dim>
				</port>
				<port id="4" precision="I64">
					<dim>3</dim>
				</port>
			</output>
		</layer>
		<layer id="195" name="Divide_8808" type="Divide" version="opset1">
			<data auto_broadcast="numpy" m_pythondiv="true" />
			<input>
				<port id="0" precision="I64">
					<dim>1</dim>
				</port>
				<port id="1" precision="I64">
					<dim>1</dim>
				</port>
			</input>
			<output>
				<port id="2" precision="I64">
					<dim>1</dim>
				</port>
			</output>
		</layer>
		<layer id="196" name="Concat_8809" type="Concat" version="opset1">
			<data axis="0" />
			<input>
				<port id="0" precision="I64">
					<dim>1</dim>
				</port>
				<port id="1" precision="I64">
					<dim>1</dim>
				</port>
				<port id="2" precision="I64">
					<dim>3</dim>
				</port>
			</input>
			<output>
				<port id="3" precision="I64">
					<dim>5</dim>
				</port>
			</output>
		</layer>
		<layer id="197" name="Reshape_8810" type="Reshape" version="opset1">
			<data special_zero="false" />
			<input>
				<port id="0" precision="FP32">
					<dim>64</dim>
					<dim>1</dim>
					<dim>3</dim>
					<dim>3</dim>
				</port>
				<port id="1" precision="I64">
					<dim>5</dim>
				</port>
			</input>
			<output>
				<port id="2" precision="FP32">
					<dim>64</dim>
					<dim>1</dim>
					<dim>1</dim>
					<dim>3</dim>
					<dim>3</dim>
				</port>
			</output>
		</layer>
		<layer id="198" name="Conv_7" type="GroupConvolution" version="opset1">
			<data strides="2, 1" pads_begin="1, 1" pads_end="1, 1" dilations="1, 1" auto_pad="explicit" />
			<input>
				<port id="0" precision="FP32">
					<dim>-1</dim>
					<dim>64</dim>
					<dim>-1</dim>
					<dim>-1</dim>
				</port>
				<port id="1" precision="FP32">
					<dim>64</dim>
					<dim>1</dim>
					<dim>1</dim>
					<dim>3</dim>
					<dim>3</dim>
				</port>
			</input>
			<output>
				<port id="2" precision="FP32" names="depthwise_conv2d_16.tmp_0">
					<dim>-1</dim>
					<dim>64</dim>
					<dim>-1</dim>
					<dim>-1</dim>
				</port>
			</output>
		</layer>
		<layer id="199" name="batch_norm_34.w_0_compressed" type="Const" version="opset1">
			<data element_type="f16" shape="64" offset="21238" size="128" />
			<output>
				<port id="0" precision="FP16" names="batch_norm_34.w_0">
					<dim>64</dim>
				</port>
			</output>
		</layer>
		<layer id="200" name="batch_norm_34.w_0" type="Convert" version="opset1">
			<data destination_type="f32" />
			<rt_info>
				<attribute name="decompression" version="0" />
			</rt_info>
			<input>
				<port id="0" precision="FP16">
					<dim>64</dim>
				</port>
			</input>
			<output>
				<port id="1" precision="FP32">
					<dim>64</dim>
				</port>
			</output>
		</layer>
		<layer id="201" name="batch_norm_34.b_0" type="Const" version="opset1">
			<data element_type="f32" shape="64" offset="21366" size="256" />
			<output>
				<port id="0" precision="FP32" names="batch_norm_34.b_0">
					<dim>64</dim>
				</port>
			</output>
		</layer>
		<layer id="202" name="batch_norm_34.w_1_compressed" type="Const" version="opset1">
			<data element_type="f16" shape="64" offset="21622" size="128" />
			<output>
				<port id="0" precision="FP16" names="batch_norm_34.w_1">
					<dim>64</dim>
				</port>
			</output>
		</layer>
		<layer id="203" name="batch_norm_34.w_1" type="Convert" version="opset1">
			<data destination_type="f32" />
			<rt_info>
				<attribute name="decompression" version="0" />
			</rt_info>
			<input>
				<port id="0" precision="FP16">
					<dim>64</dim>
				</port>
			</input>
			<output>
				<port id="1" precision="FP32">
					<dim>64</dim>
				</port>
			</output>
		</layer>
		<layer id="204" name="batch_norm_34.w_2" type="Const" version="opset1">
			<data element_type="f32" shape="64" offset="21750" size="256" />
			<output>
				<port id="0" precision="FP32" names="batch_norm_34.w_2">
					<dim>64</dim>
				</port>
			</output>
		</layer>
		<layer id="205" name="BatchNormalization_7" type="BatchNormInference" version="opset5">
			<data epsilon="9.9999997473787516e-06" />
			<input>
				<port id="0" precision="FP32">
					<dim>-1</dim>
					<dim>64</dim>
					<dim>-1</dim>
					<dim>-1</dim>
				</port>
				<port id="1" precision="FP32">
					<dim>64</dim>
				</port>
				<port id="2" precision="FP32">
					<dim>64</dim>
				</port>
				<port id="3" precision="FP32">
					<dim>64</dim>
				</port>
				<port id="4" precision="FP32">
					<dim>64</dim>
				</port>
			</input>
			<output>
				<port id="5" precision="FP32" names="batch_norm_34.tmp_3">
					<dim>-1</dim>
					<dim>64</dim>
					<dim>-1</dim>
					<dim>-1</dim>
				</port>
			</output>
		</layer>
		<layer id="206" name="Constant_31_compressed" type="Const" version="opset1">
			<data element_type="f16" shape="" offset="1888" size="2" />
			<output>
				<port id="0" precision="FP16" names="Constant_31" />
			</output>
		</layer>
		<layer id="207" name="Constant_31" type="Convert" version="opset1">
			<data destination_type="f32" />
			<rt_info>
				<attribute name="decompression" version="0" />
			</rt_info>
			<input>
				<port id="0" precision="FP16" />
			</input>
			<output>
				<port id="1" precision="FP32" />
			</output>
		</layer>
		<layer id="208" name="Constant_30_compressed" type="Const" version="opset1">
			<data element_type="f16" shape="" offset="1890" size="2" />
			<output>
				<port id="0" precision="FP16" names="Constant_30" />
			</output>
		</layer>
		<layer id="209" name="Constant_30" type="Convert" version="opset1">
			<data destination_type="f32" />
			<rt_info>
				<attribute name="decompression" version="0" />
			</rt_info>
			<input>
				<port id="0" precision="FP16" />
			</input>
			<output>
				<port id="1" precision="FP32" />
			</output>
		</layer>
		<layer id="210" name="Constant_29_compressed" type="Const" version="opset1">
			<data element_type="f16" shape="" offset="1892" size="2" />
			<output>
				<port id="0" precision="FP16" names="Constant_29" />
			</output>
		</layer>
		<layer id="211" name="Constant_29" type="Convert" version="opset1">
			<data destination_type="f32" />
			<rt_info>
				<attribute name="decompression" version="0" />
			</rt_info>
			<input>
				<port id="0" precision="FP16" />
			</input>
			<output>
				<port id="1" precision="FP32" />
			</output>
		</layer>
		<layer id="212" name="Add_7" type="Add" version="opset1">
			<data auto_broadcast="numpy" />
			<input>
				<port id="0" precision="FP32">
					<dim>-1</dim>
					<dim>64</dim>
					<dim>-1</dim>
					<dim>-1</dim>
				</port>
				<port id="1" precision="FP32" />
			</input>
			<output>
				<port id="2" precision="FP32" names="Add_7">
					<dim>-1</dim>
					<dim>64</dim>
					<dim>-1</dim>
					<dim>-1</dim>
				</port>
			</output>
		</layer>
		<layer id="213" name="Maximum_8852" type="Maximum" version="opset1">
			<data auto_broadcast="numpy" />
			<input>
				<port id="0" precision="FP32" />
				<port id="1" precision="FP32">
					<dim>-1</dim>
					<dim>64</dim>
					<dim>-1</dim>
					<dim>-1</dim>
				</port>
			</input>
			<output>
				<port id="2" precision="FP32">
					<dim>-1</dim>
					<dim>64</dim>
					<dim>-1</dim>
					<dim>-1</dim>
				</port>
			</output>
		</layer>
		<layer id="214" name="Clip_7" type="Minimum" version="opset1">
			<data auto_broadcast="numpy" />
			<input>
				<port id="0" precision="FP32" />
				<port id="1" precision="FP32">
					<dim>-1</dim>
					<dim>64</dim>
					<dim>-1</dim>
					<dim>-1</dim>
				</port>
			</input>
			<output>
				<port id="2" precision="FP32" names="Clip_7">
					<dim>-1</dim>
					<dim>64</dim>
					<dim>-1</dim>
					<dim>-1</dim>
				</port>
			</output>
		</layer>
		<layer id="215" name="Mul_7" type="Multiply" version="opset1">
			<data auto_broadcast="numpy" />
			<input>
				<port id="0" precision="FP32">
					<dim>-1</dim>
					<dim>64</dim>
					<dim>-1</dim>
					<dim>-1</dim>
				</port>
				<port id="1" precision="FP32">
					<dim>-1</dim>
					<dim>64</dim>
					<dim>-1</dim>
					<dim>-1</dim>
				</port>
			</input>
			<output>
				<port id="2" precision="FP32" names="Mul_7">
					<dim>-1</dim>
					<dim>64</dim>
					<dim>-1</dim>
					<dim>-1</dim>
				</port>
			</output>
		</layer>
		<layer id="216" name="Constant_28_compressed" type="Const" version="opset1">
			<data element_type="f16" shape="" offset="1888" size="2" />
			<output>
				<port id="0" precision="FP16" names="Constant_28" />
			</output>
		</layer>
		<layer id="217" name="Constant_28" type="Convert" version="opset1">
			<data destination_type="f32" />
			<rt_info>
				<attribute name="decompression" version="0" />
			</rt_info>
			<input>
				<port id="0" precision="FP16" />
			</input>
			<output>
				<port id="1" precision="FP32" />
			</output>
		</layer>
		<layer id="218" name="Div_7" type="Divide" version="opset1">
			<data auto_broadcast="numpy" m_pythondiv="true" />
			<input>
				<port id="0" precision="FP32">
					<dim>-1</dim>
					<dim>64</dim>
					<dim>-1</dim>
					<dim>-1</dim>
				</port>
				<port id="1" precision="FP32" />
			</input>
			<output>
				<port id="2" precision="FP32" names="batch_norm_34.tmp_4">
					<dim>-1</dim>
					<dim>64</dim>
					<dim>-1</dim>
					<dim>-1</dim>
				</port>
			</output>
		</layer>
		<layer id="219" name="conv2d_45.w_0_compressed" type="Const" version="opset1">
			<data element_type="f16" shape="128, 64, 1, 1" offset="22006" size="16384" />
			<output>
				<port id="0" precision="FP16" names="conv2d_45.w_0">
					<dim>128</dim>
					<dim>64</dim>
					<dim>1</dim>
					<dim>1</dim>
				</port>
			</output>
		</layer>
		<layer id="220" name="conv2d_45.w_0" type="Convert" version="opset1">
			<data destination_type="f32" />
			<rt_info>
				<attribute name="decompression" version="0" />
			</rt_info>
			<input>
				<port id="0" precision="FP16">
					<dim>128</dim>
					<dim>64</dim>
					<dim>1</dim>
					<dim>1</dim>
				</port>
			</input>
			<output>
				<port id="1" precision="FP32">
					<dim>128</dim>
					<dim>64</dim>
					<dim>1</dim>
					<dim>1</dim>
				</port>
			</output>
		</layer>
		<layer id="221" name="Conv_8" type="Convolution" version="opset1">
			<data strides="1, 1" dilations="1, 1" pads_begin="0, 0" pads_end="0, 0" auto_pad="explicit" />
			<input>
				<port id="0" precision="FP32">
					<dim>-1</dim>
					<dim>64</dim>
					<dim>-1</dim>
					<dim>-1</dim>
				</port>
				<port id="1" precision="FP32">
					<dim>128</dim>
					<dim>64</dim>
					<dim>1</dim>
					<dim>1</dim>
				</port>
			</input>
			<output>
				<port id="2" precision="FP32" names="conv2d_101.tmp_0">
					<dim>-1</dim>
					<dim>128</dim>
					<dim>-1</dim>
					<dim>-1</dim>
				</port>
			</output>
		</layer>
		<layer id="222" name="batch_norm_35.w_0_compressed" type="Const" version="opset1">
			<data element_type="f16" shape="128" offset="38390" size="256" />
			<output>
				<port id="0" precision="FP16" names="batch_norm_35.w_0">
					<dim>128</dim>
				</port>
			</output>
		</layer>
		<layer id="223" name="batch_norm_35.w_0" type="Convert" version="opset1">
			<data destination_type="f32" />
			<rt_info>
				<attribute name="decompression" version="0" />
			</rt_info>
			<input>
				<port id="0" precision="FP16">
					<dim>128</dim>
				</port>
			</input>
			<output>
				<port id="1" precision="FP32">
					<dim>128</dim>
				</port>
			</output>
		</layer>
		<layer id="224" name="batch_norm_35.b_0_compressed" type="Const" version="opset1">
			<data element_type="f16" shape="128" offset="38646" size="256" />
			<output>
				<port id="0" precision="FP16" names="batch_norm_35.b_0">
					<dim>128</dim>
				</port>
			</output>
		</layer>
		<layer id="225" name="batch_norm_35.b_0" type="Convert" version="opset1">
			<data destination_type="f32" />
			<rt_info>
				<attribute name="decompression" version="0" />
			</rt_info>
			<input>
				<port id="0" precision="FP16">
					<dim>128</dim>
				</port>
			</input>
			<output>
				<port id="1" precision="FP32">
					<dim>128</dim>
				</port>
			</output>
		</layer>
		<layer id="226" name="batch_norm_35.w_1_compressed" type="Const" version="opset1">
			<data element_type="f16" shape="128" offset="38902" size="256" />
			<output>
				<port id="0" precision="FP16" names="batch_norm_35.w_1">
					<dim>128</dim>
				</port>
			</output>
		</layer>
		<layer id="227" name="batch_norm_35.w_1" type="Convert" version="opset1">
			<data destination_type="f32" />
			<rt_info>
				<attribute name="decompression" version="0" />
			</rt_info>
			<input>
				<port id="0" precision="FP16">
					<dim>128</dim>
				</port>
			</input>
			<output>
				<port id="1" precision="FP32">
					<dim>128</dim>
				</port>
			</output>
		</layer>
		<layer id="228" name="batch_norm_35.w_2_compressed" type="Const" version="opset1">
			<data element_type="f16" shape="128" offset="39158" size="256" />
			<output>
				<port id="0" precision="FP16" names="batch_norm_35.w_2">
					<dim>128</dim>
				</port>
			</output>
		</layer>
		<layer id="229" name="batch_norm_35.w_2" type="Convert" version="opset1">
			<data destination_type="f32" />
			<rt_info>
				<attribute name="decompression" version="0" />
			</rt_info>
			<input>
				<port id="0" precision="FP16">
					<dim>128</dim>
				</port>
			</input>
			<output>
				<port id="1" precision="FP32">
					<dim>128</dim>
				</port>
			</output>
		</layer>
		<layer id="230" name="BatchNormalization_8" type="BatchNormInference" version="opset5">
			<data epsilon="9.9999997473787516e-06" />
			<input>
				<port id="0" precision="FP32">
					<dim>-1</dim>
					<dim>128</dim>
					<dim>-1</dim>
					<dim>-1</dim>
				</port>
				<port id="1" precision="FP32">
					<dim>128</dim>
				</port>
				<port id="2" precision="FP32">
					<dim>128</dim>
				</port>
				<port id="3" precision="FP32">
					<dim>128</dim>
				</port>
				<port id="4" precision="FP32">
					<dim>128</dim>
				</port>
			</input>
			<output>
				<port id="5" precision="FP32" names="batch_norm_35.tmp_3">
					<dim>-1</dim>
					<dim>128</dim>
					<dim>-1</dim>
					<dim>-1</dim>
				</port>
			</output>
		</layer>
		<layer id="231" name="Constant_35_compressed" type="Const" version="opset1">
			<data element_type="f16" shape="" offset="1888" size="2" />
			<output>
				<port id="0" precision="FP16" names="Constant_35" />
			</output>
		</layer>
		<layer id="232" name="Constant_35" type="Convert" version="opset1">
			<data destination_type="f32" />
			<rt_info>
				<attribute name="decompression" version="0" />
			</rt_info>
			<input>
				<port id="0" precision="FP16" />
			</input>
			<output>
				<port id="1" precision="FP32" />
			</output>
		</layer>
		<layer id="233" name="Constant_34_compressed" type="Const" version="opset1">
			<data element_type="f16" shape="" offset="1890" size="2" />
			<output>
				<port id="0" precision="FP16" names="Constant_34" />
			</output>
		</layer>
		<layer id="234" name="Constant_34" type="Convert" version="opset1">
			<data destination_type="f32" />
			<rt_info>
				<attribute name="decompression" version="0" />
			</rt_info>
			<input>
				<port id="0" precision="FP16" />
			</input>
			<output>
				<port id="1" precision="FP32" />
			</output>
		</layer>
		<layer id="235" name="Constant_33_compressed" type="Const" version="opset1">
			<data element_type="f16" shape="" offset="1892" size="2" />
			<output>
				<port id="0" precision="FP16" names="Constant_33" />
			</output>
		</layer>
		<layer id="236" name="Constant_33" type="Convert" version="opset1">
			<data destination_type="f32" />
			<rt_info>
				<attribute name="decompression" version="0" />
			</rt_info>
			<input>
				<port id="0" precision="FP16" />
			</input>
			<output>
				<port id="1" precision="FP32" />
			</output>
		</layer>
		<layer id="237" name="Add_8" type="Add" version="opset1">
			<data auto_broadcast="numpy" />
			<input>
				<port id="0" precision="FP32">
					<dim>-1</dim>
					<dim>128</dim>
					<dim>-1</dim>
					<dim>-1</dim>
				</port>
				<port id="1" precision="FP32" />
			</input>
			<output>
				<port id="2" precision="FP32" names="Add_8">
					<dim>-1</dim>
					<dim>128</dim>
					<dim>-1</dim>
					<dim>-1</dim>
				</port>
			</output>
		</layer>
		<layer id="238" name="Maximum_8860" type="Maximum" version="opset1">
			<data auto_broadcast="numpy" />
			<input>
				<port id="0" precision="FP32" />
				<port id="1" precision="FP32">
					<dim>-1</dim>
					<dim>128</dim>
					<dim>-1</dim>
					<dim>-1</dim>
				</port>
			</input>
			<output>
				<port id="2" precision="FP32">
					<dim>-1</dim>
					<dim>128</dim>
					<dim>-1</dim>
					<dim>-1</dim>
				</port>
			</output>
		</layer>
		<layer id="239" name="Clip_8" type="Minimum" version="opset1">
			<data auto_broadcast="numpy" />
			<input>
				<port id="0" precision="FP32" />
				<port id="1" precision="FP32">
					<dim>-1</dim>
					<dim>128</dim>
					<dim>-1</dim>
					<dim>-1</dim>
				</port>
			</input>
			<output>
				<port id="2" precision="FP32" names="Clip_8">
					<dim>-1</dim>
					<dim>128</dim>
					<dim>-1</dim>
					<dim>-1</dim>
				</port>
			</output>
		</layer>
		<layer id="240" name="Mul_8" type="Multiply" version="opset1">
			<data auto_broadcast="numpy" />
			<input>
				<port id="0" precision="FP32">
					<dim>-1</dim>
					<dim>128</dim>
					<dim>-1</dim>
					<dim>-1</dim>
				</port>
				<port id="1" precision="FP32">
					<dim>-1</dim>
					<dim>128</dim>
					<dim>-1</dim>
					<dim>-1</dim>
				</port>
			</input>
			<output>
				<port id="2" precision="FP32" names="Mul_8">
					<dim>-1</dim>
					<dim>128</dim>
					<dim>-1</dim>
					<dim>-1</dim>
				</port>
			</output>
		</layer>
		<layer id="241" name="Constant_32_compressed" type="Const" version="opset1">
			<data element_type="f16" shape="" offset="1888" size="2" />
			<output>
				<port id="0" precision="FP16" names="Constant_32" />
			</output>
		</layer>
		<layer id="242" name="Constant_32" type="Convert" version="opset1">
			<data destination_type="f32" />
			<rt_info>
				<attribute name="decompression" version="0" />
			</rt_info>
			<input>
				<port id="0" precision="FP16" />
			</input>
			<output>
				<port id="1" precision="FP32" />
			</output>
		</layer>
		<layer id="243" name="Div_8" type="Divide" version="opset1">
			<data auto_broadcast="numpy" m_pythondiv="true" />
			<input>
				<port id="0" precision="FP32">
					<dim>-1</dim>
					<dim>128</dim>
					<dim>-1</dim>
					<dim>-1</dim>
				</port>
				<port id="1" precision="FP32" />
			</input>
			<output>
				<port id="2" precision="FP32" names="batch_norm_35.tmp_4">
					<dim>-1</dim>
					<dim>128</dim>
					<dim>-1</dim>
					<dim>-1</dim>
				</port>
			</output>
		</layer>
		<layer id="244" name="conv2d_46.w_0_compressed" type="Const" version="opset1">
			<data element_type="f16" shape="128, 1, 3, 3" offset="39414" size="2304" />
			<output>
				<port id="0" precision="FP16" names="conv2d_46.w_0">
					<dim>128</dim>
					<dim>1</dim>
					<dim>3</dim>
					<dim>3</dim>
				</port>
			</output>
		</layer>
		<layer id="245" name="conv2d_46.w_0" type="Convert" version="opset1">
			<data destination_type="f32" />
			<rt_info>
				<attribute name="decompression" version="0" />
			</rt_info>
			<input>
				<port id="0" precision="FP16">
					<dim>128</dim>
					<dim>1</dim>
					<dim>3</dim>
					<dim>3</dim>
				</port>
			</input>
			<output>
				<port id="1" precision="FP32">
					<dim>128</dim>
					<dim>1</dim>
					<dim>3</dim>
					<dim>3</dim>
				</port>
			</output>
		</layer>
		<layer id="246" name="Constant_8867" type="Const" version="opset1">
			<data element_type="i64" shape="1" offset="41718" size="8" />
			<rt_info>
				<attribute name="precise" version="0" />
			</rt_info>
			<output>
				<port id="0" precision="I64">
					<dim>1</dim>
				</port>
			</output>
		</layer>
		<layer id="247" name="ShapeOf_8868" type="ShapeOf" version="opset3">
			<data output_type="i64" />
			<input>
				<port id="0" precision="FP32">
					<dim>128</dim>
					<dim>1</dim>
					<dim>3</dim>
					<dim>3</dim>
				</port>
			</input>
			<output>
				<port id="1" precision="I64">
					<dim>4</dim>
				</port>
			</output>
		</layer>
		<layer id="248" name="Constant_8865" type="Const" version="opset1">
			<data element_type="i64" shape="" offset="2190" size="8" />
			<rt_info>
				<attribute name="precise" version="0" />
			</rt_info>
			<output>
				<port id="0" precision="I64" />
			</output>
		</layer>
		<layer id="249" name="Constant_8866" type="Const" version="opset1">
			<data element_type="i64" shape="2" offset="2198" size="16" />
			<rt_info>
				<attribute name="precise" version="0" />
			</rt_info>
			<output>
				<port id="0" precision="I64">
					<dim>2</dim>
				</port>
			</output>
		</layer>
		<layer id="250" name="VariadicSplit_8869" type="VariadicSplit" version="opset1">
			<input>
				<port id="0" precision="I64">
					<dim>4</dim>
				</port>
				<port id="1" precision="I64" />
				<port id="2" precision="I64">
					<dim>2</dim>
				</port>
			</input>
			<output>
				<port id="3" precision="I64">
					<dim>1</dim>
				</port>
				<port id="4" precision="I64">
					<dim>3</dim>
				</port>
			</output>
		</layer>
		<layer id="251" name="Divide_8870" type="Divide" version="opset1">
			<data auto_broadcast="numpy" m_pythondiv="true" />
			<input>
				<port id="0" precision="I64">
					<dim>1</dim>
				</port>
				<port id="1" precision="I64">
					<dim>1</dim>
				</port>
			</input>
			<output>
				<port id="2" precision="I64">
					<dim>1</dim>
				</port>
			</output>
		</layer>
		<layer id="252" name="Concat_8871" type="Concat" version="opset1">
			<data axis="0" />
			<input>
				<port id="0" precision="I64">
					<dim>1</dim>
				</port>
				<port id="1" precision="I64">
					<dim>1</dim>
				</port>
				<port id="2" precision="I64">
					<dim>3</dim>
				</port>
			</input>
			<output>
				<port id="3" precision="I64">
					<dim>5</dim>
				</port>
			</output>
		</layer>
		<layer id="253" name="Reshape_8872" type="Reshape" version="opset1">
			<data special_zero="false" />
			<input>
				<port id="0" precision="FP32">
					<dim>128</dim>
					<dim>1</dim>
					<dim>3</dim>
					<dim>3</dim>
				</port>
				<port id="1" precision="I64">
					<dim>5</dim>
				</port>
			</input>
			<output>
				<port id="2" precision="FP32">
					<dim>128</dim>
					<dim>1</dim>
					<dim>1</dim>
					<dim>3</dim>
					<dim>3</dim>
				</port>
			</output>
		</layer>
		<layer id="254" name="Conv_9" type="GroupConvolution" version="opset1">
			<data strides="1, 1" pads_begin="1, 1" pads_end="1, 1" dilations="1, 1" auto_pad="explicit" />
			<input>
				<port id="0" precision="FP32">
					<dim>-1</dim>
					<dim>128</dim>
					<dim>-1</dim>
					<dim>-1</dim>
				</port>
				<port id="1" precision="FP32">
					<dim>128</dim>
					<dim>1</dim>
					<dim>1</dim>
					<dim>3</dim>
					<dim>3</dim>
				</port>
			</input>
			<output>
				<port id="2" precision="FP32" names="depthwise_conv2d_17.tmp_0">
					<dim>-1</dim>
					<dim>128</dim>
					<dim>-1</dim>
					<dim>-1</dim>
				</port>
			</output>
		</layer>
		<layer id="255" name="batch_norm_36.w_0_compressed" type="Const" version="opset1">
			<data element_type="f16" shape="128" offset="41726" size="256" />
			<output>
				<port id="0" precision="FP16" names="batch_norm_36.w_0">
					<dim>128</dim>
				</port>
			</output>
		</layer>
		<layer id="256" name="batch_norm_36.w_0" type="Convert" version="opset1">
			<data destination_type="f32" />
			<rt_info>
				<attribute name="decompression" version="0" />
			</rt_info>
			<input>
				<port id="0" precision="FP16">
					<dim>128</dim>
				</port>
			</input>
			<output>
				<port id="1" precision="FP32">
					<dim>128</dim>
				</port>
			</output>
		</layer>
		<layer id="257" name="batch_norm_36.b_0" type="Const" version="opset1">
			<data element_type="f32" shape="128" offset="41982" size="512" />
			<output>
				<port id="0" precision="FP32" names="batch_norm_36.b_0">
					<dim>128</dim>
				</port>
			</output>
		</layer>
		<layer id="258" name="batch_norm_36.w_1_compressed" type="Const" version="opset1">
			<data element_type="f16" shape="128" offset="42494" size="256" />
			<output>
				<port id="0" precision="FP16" names="batch_norm_36.w_1">
					<dim>128</dim>
				</port>
			</output>
		</layer>
		<layer id="259" name="batch_norm_36.w_1" type="Convert" version="opset1">
			<data destination_type="f32" />
			<rt_info>
				<attribute name="decompression" version="0" />
			</rt_info>
			<input>
				<port id="0" precision="FP16">
					<dim>128</dim>
				</port>
			</input>
			<output>
				<port id="1" precision="FP32">
					<dim>128</dim>
				</port>
			</output>
		</layer>
		<layer id="260" name="batch_norm_36.w_2_compressed" type="Const" version="opset1">
			<data element_type="f16" shape="128" offset="42750" size="256" />
			<output>
				<port id="0" precision="FP16" names="batch_norm_36.w_2">
					<dim>128</dim>
				</port>
			</output>
		</layer>
		<layer id="261" name="batch_norm_36.w_2" type="Convert" version="opset1">
			<data destination_type="f32" />
			<rt_info>
				<attribute name="decompression" version="0" />
			</rt_info>
			<input>
				<port id="0" precision="FP16">
					<dim>128</dim>
				</port>
			</input>
			<output>
				<port id="1" precision="FP32">
					<dim>128</dim>
				</port>
			</output>
		</layer>
		<layer id="262" name="BatchNormalization_9" type="BatchNormInference" version="opset5">
			<data epsilon="9.9999997473787516e-06" />
			<input>
				<port id="0" precision="FP32">
					<dim>-1</dim>
					<dim>128</dim>
					<dim>-1</dim>
					<dim>-1</dim>
				</port>
				<port id="1" precision="FP32">
					<dim>128</dim>
				</port>
				<port id="2" precision="FP32">
					<dim>128</dim>
				</port>
				<port id="3" precision="FP32">
					<dim>128</dim>
				</port>
				<port id="4" precision="FP32">
					<dim>128</dim>
				</port>
			</input>
			<output>
				<port id="5" precision="FP32" names="batch_norm_36.tmp_3">
					<dim>-1</dim>
					<dim>128</dim>
					<dim>-1</dim>
					<dim>-1</dim>
				</port>
			</output>
		</layer>
		<layer id="263" name="Constant_39_compressed" type="Const" version="opset1">
			<data element_type="f16" shape="" offset="1888" size="2" />
			<output>
				<port id="0" precision="FP16" names="Constant_39" />
			</output>
		</layer>
		<layer id="264" name="Constant_39" type="Convert" version="opset1">
			<data destination_type="f32" />
			<rt_info>
				<attribute name="decompression" version="0" />
			</rt_info>
			<input>
				<port id="0" precision="FP16" />
			</input>
			<output>
				<port id="1" precision="FP32" />
			</output>
		</layer>
		<layer id="265" name="Constant_38_compressed" type="Const" version="opset1">
			<data element_type="f16" shape="" offset="1890" size="2" />
			<output>
				<port id="0" precision="FP16" names="Constant_38" />
			</output>
		</layer>
		<layer id="266" name="Constant_38" type="Convert" version="opset1">
			<data destination_type="f32" />
			<rt_info>
				<attribute name="decompression" version="0" />
			</rt_info>
			<input>
				<port id="0" precision="FP16" />
			</input>
			<output>
				<port id="1" precision="FP32" />
			</output>
		</layer>
		<layer id="267" name="Constant_37_compressed" type="Const" version="opset1">
			<data element_type="f16" shape="" offset="1892" size="2" />
			<output>
				<port id="0" precision="FP16" names="Constant_37" />
			</output>
		</layer>
		<layer id="268" name="Constant_37" type="Convert" version="opset1">
			<data destination_type="f32" />
			<rt_info>
				<attribute name="decompression" version="0" />
			</rt_info>
			<input>
				<port id="0" precision="FP16" />
			</input>
			<output>
				<port id="1" precision="FP32" />
			</output>
		</layer>
		<layer id="269" name="Add_9" type="Add" version="opset1">
			<data auto_broadcast="numpy" />
			<input>
				<port id="0" precision="FP32">
					<dim>-1</dim>
					<dim>128</dim>
					<dim>-1</dim>
					<dim>-1</dim>
				</port>
				<port id="1" precision="FP32" />
			</input>
			<output>
				<port id="2" precision="FP32" names="Add_9">
					<dim>-1</dim>
					<dim>128</dim>
					<dim>-1</dim>
					<dim>-1</dim>
				</port>
			</output>
		</layer>
		<layer id="270" name="Maximum_8914" type="Maximum" version="opset1">
			<data auto_broadcast="numpy" />
			<input>
				<port id="0" precision="FP32" />
				<port id="1" precision="FP32">
					<dim>-1</dim>
					<dim>128</dim>
					<dim>-1</dim>
					<dim>-1</dim>
				</port>
			</input>
			<output>
				<port id="2" precision="FP32">
					<dim>-1</dim>
					<dim>128</dim>
					<dim>-1</dim>
					<dim>-1</dim>
				</port>
			</output>
		</layer>
		<layer id="271" name="Clip_9" type="Minimum" version="opset1">
			<data auto_broadcast="numpy" />
			<input>
				<port id="0" precision="FP32" />
				<port id="1" precision="FP32">
					<dim>-1</dim>
					<dim>128</dim>
					<dim>-1</dim>
					<dim>-1</dim>
				</port>
			</input>
			<output>
				<port id="2" precision="FP32" names="Clip_9">
					<dim>-1</dim>
					<dim>128</dim>
					<dim>-1</dim>
					<dim>-1</dim>
				</port>
			</output>
		</layer>
		<layer id="272" name="Mul_9" type="Multiply" version="opset1">
			<data auto_broadcast="numpy" />
			<input>
				<port id="0" precision="FP32">
					<dim>-1</dim>
					<dim>128</dim>
					<dim>-1</dim>
					<dim>-1</dim>
				</port>
				<port id="1" precision="FP32">
					<dim>-1</dim>
					<dim>128</dim>
					<dim>-1</dim>
					<dim>-1</dim>
				</port>
			</input>
			<output>
				<port id="2" precision="FP32" names="Mul_9">
					<dim>-1</dim>
					<dim>128</dim>
					<dim>-1</dim>
					<dim>-1</dim>
				</port>
			</output>
		</layer>
		<layer id="273" name="Constant_36_compressed" type="Const" version="opset1">
			<data element_type="f16" shape="" offset="1888" size="2" />
			<output>
				<port id="0" precision="FP16" names="Constant_36" />
			</output>
		</layer>
		<layer id="274" name="Constant_36" type="Convert" version="opset1">
			<data destination_type="f32" />
			<rt_info>
				<attribute name="decompression" version="0" />
			</rt_info>
			<input>
				<port id="0" precision="FP16" />
			</input>
			<output>
				<port id="1" precision="FP32" />
			</output>
		</layer>
		<layer id="275" name="Div_9" type="Divide" version="opset1">
			<data auto_broadcast="numpy" m_pythondiv="true" />
			<input>
				<port id="0" precision="FP32">
					<dim>-1</dim>
					<dim>128</dim>
					<dim>-1</dim>
					<dim>-1</dim>
				</port>
				<port id="1" precision="FP32" />
			</input>
			<output>
				<port id="2" precision="FP32" names="batch_norm_36.tmp_4">
					<dim>-1</dim>
					<dim>128</dim>
					<dim>-1</dim>
					<dim>-1</dim>
				</port>
			</output>
		</layer>
		<layer id="276" name="conv2d_47.w_0_compressed" type="Const" version="opset1">
			<data element_type="f16" shape="128, 128, 1, 1" offset="43006" size="32768" />
			<output>
				<port id="0" precision="FP16" names="conv2d_47.w_0">
					<dim>128</dim>
					<dim>128</dim>
					<dim>1</dim>
					<dim>1</dim>
				</port>
			</output>
		</layer>
		<layer id="277" name="conv2d_47.w_0" type="Convert" version="opset1">
			<data destination_type="f32" />
			<rt_info>
				<attribute name="decompression" version="0" />
			</rt_info>
			<input>
				<port id="0" precision="FP16">
					<dim>128</dim>
					<dim>128</dim>
					<dim>1</dim>
					<dim>1</dim>
				</port>
			</input>
			<output>
				<port id="1" precision="FP32">
					<dim>128</dim>
					<dim>128</dim>
					<dim>1</dim>
					<dim>1</dim>
				</port>
			</output>
		</layer>
		<layer id="278" name="Conv_10" type="Convolution" version="opset1">
			<data strides="1, 1" dilations="1, 1" pads_begin="0, 0" pads_end="0, 0" auto_pad="explicit" />
			<input>
				<port id="0" precision="FP32">
					<dim>-1</dim>
					<dim>128</dim>
					<dim>-1</dim>
					<dim>-1</dim>
				</port>
				<port id="1" precision="FP32">
					<dim>128</dim>
					<dim>128</dim>
					<dim>1</dim>
					<dim>1</dim>
				</port>
			</input>
			<output>
				<port id="2" precision="FP32" names="conv2d_102.tmp_0">
					<dim>-1</dim>
					<dim>128</dim>
					<dim>-1</dim>
					<dim>-1</dim>
				</port>
			</output>
		</layer>
		<layer id="279" name="batch_norm_37.w_0_compressed" type="Const" version="opset1">
			<data element_type="f16" shape="128" offset="75774" size="256" />
			<output>
				<port id="0" precision="FP16" names="batch_norm_37.w_0">
					<dim>128</dim>
				</port>
			</output>
		</layer>
		<layer id="280" name="batch_norm_37.w_0" type="Convert" version="opset1">
			<data destination_type="f32" />
			<rt_info>
				<attribute name="decompression" version="0" />
			</rt_info>
			<input>
				<port id="0" precision="FP16">
					<dim>128</dim>
				</port>
			</input>
			<output>
				<port id="1" precision="FP32">
					<dim>128</dim>
				</port>
			</output>
		</layer>
		<layer id="281" name="batch_norm_37.b_0_compressed" type="Const" version="opset1">
			<data element_type="f16" shape="128" offset="76030" size="256" />
			<output>
				<port id="0" precision="FP16" names="batch_norm_37.b_0">
					<dim>128</dim>
				</port>
			</output>
		</layer>
		<layer id="282" name="batch_norm_37.b_0" type="Convert" version="opset1">
			<data destination_type="f32" />
			<rt_info>
				<attribute name="decompression" version="0" />
			</rt_info>
			<input>
				<port id="0" precision="FP16">
					<dim>128</dim>
				</port>
			</input>
			<output>
				<port id="1" precision="FP32">
					<dim>128</dim>
				</port>
			</output>
		</layer>
		<layer id="283" name="batch_norm_37.w_1_compressed" type="Const" version="opset1">
			<data element_type="f16" shape="128" offset="76286" size="256" />
			<output>
				<port id="0" precision="FP16" names="batch_norm_37.w_1">
					<dim>128</dim>
				</port>
			</output>
		</layer>
		<layer id="284" name="batch_norm_37.w_1" type="Convert" version="opset1">
			<data destination_type="f32" />
			<rt_info>
				<attribute name="decompression" version="0" />
			</rt_info>
			<input>
				<port id="0" precision="FP16">
					<dim>128</dim>
				</port>
			</input>
			<output>
				<port id="1" precision="FP32">
					<dim>128</dim>
				</port>
			</output>
		</layer>
		<layer id="285" name="batch_norm_37.w_2_compressed" type="Const" version="opset1">
			<data element_type="f16" shape="128" offset="76542" size="256" />
			<output>
				<port id="0" precision="FP16" names="batch_norm_37.w_2">
					<dim>128</dim>
				</port>
			</output>
		</layer>
		<layer id="286" name="batch_norm_37.w_2" type="Convert" version="opset1">
			<data destination_type="f32" />
			<rt_info>
				<attribute name="decompression" version="0" />
			</rt_info>
			<input>
				<port id="0" precision="FP16">
					<dim>128</dim>
				</port>
			</input>
			<output>
				<port id="1" precision="FP32">
					<dim>128</dim>
				</port>
			</output>
		</layer>
		<layer id="287" name="BatchNormalization_10" type="BatchNormInference" version="opset5">
			<data epsilon="9.9999997473787516e-06" />
			<input>
				<port id="0" precision="FP32">
					<dim>-1</dim>
					<dim>128</dim>
					<dim>-1</dim>
					<dim>-1</dim>
				</port>
				<port id="1" precision="FP32">
					<dim>128</dim>
				</port>
				<port id="2" precision="FP32">
					<dim>128</dim>
				</port>
				<port id="3" precision="FP32">
					<dim>128</dim>
				</port>
				<port id="4" precision="FP32">
					<dim>128</dim>
				</port>
			</input>
			<output>
				<port id="5" precision="FP32" names="batch_norm_37.tmp_3">
					<dim>-1</dim>
					<dim>128</dim>
					<dim>-1</dim>
					<dim>-1</dim>
				</port>
			</output>
		</layer>
		<layer id="288" name="Constant_43_compressed" type="Const" version="opset1">
			<data element_type="f16" shape="" offset="1888" size="2" />
			<output>
				<port id="0" precision="FP16" names="Constant_43" />
			</output>
		</layer>
		<layer id="289" name="Constant_43" type="Convert" version="opset1">
			<data destination_type="f32" />
			<rt_info>
				<attribute name="decompression" version="0" />
			</rt_info>
			<input>
				<port id="0" precision="FP16" />
			</input>
			<output>
				<port id="1" precision="FP32" />
			</output>
		</layer>
		<layer id="290" name="Constant_42_compressed" type="Const" version="opset1">
			<data element_type="f16" shape="" offset="1890" size="2" />
			<output>
				<port id="0" precision="FP16" names="Constant_42" />
			</output>
		</layer>
		<layer id="291" name="Constant_42" type="Convert" version="opset1">
			<data destination_type="f32" />
			<rt_info>
				<attribute name="decompression" version="0" />
			</rt_info>
			<input>
				<port id="0" precision="FP16" />
			</input>
			<output>
				<port id="1" precision="FP32" />
			</output>
		</layer>
		<layer id="292" name="Constant_41_compressed" type="Const" version="opset1">
			<data element_type="f16" shape="" offset="1892" size="2" />
			<output>
				<port id="0" precision="FP16" names="Constant_41" />
			</output>
		</layer>
		<layer id="293" name="Constant_41" type="Convert" version="opset1">
			<data destination_type="f32" />
			<rt_info>
				<attribute name="decompression" version="0" />
			</rt_info>
			<input>
				<port id="0" precision="FP16" />
			</input>
			<output>
				<port id="1" precision="FP32" />
			</output>
		</layer>
		<layer id="294" name="Add_10" type="Add" version="opset1">
			<data auto_broadcast="numpy" />
			<input>
				<port id="0" precision="FP32">
					<dim>-1</dim>
					<dim>128</dim>
					<dim>-1</dim>
					<dim>-1</dim>
				</port>
				<port id="1" precision="FP32" />
			</input>
			<output>
				<port id="2" precision="FP32" names="Add_10">
					<dim>-1</dim>
					<dim>128</dim>
					<dim>-1</dim>
					<dim>-1</dim>
				</port>
			</output>
		</layer>
		<layer id="295" name="Maximum_8922" type="Maximum" version="opset1">
			<data auto_broadcast="numpy" />
			<input>
				<port id="0" precision="FP32" />
				<port id="1" precision="FP32">
					<dim>-1</dim>
					<dim>128</dim>
					<dim>-1</dim>
					<dim>-1</dim>
				</port>
			</input>
			<output>
				<port id="2" precision="FP32">
					<dim>-1</dim>
					<dim>128</dim>
					<dim>-1</dim>
					<dim>-1</dim>
				</port>
			</output>
		</layer>
		<layer id="296" name="Clip_10" type="Minimum" version="opset1">
			<data auto_broadcast="numpy" />
			<input>
				<port id="0" precision="FP32" />
				<port id="1" precision="FP32">
					<dim>-1</dim>
					<dim>128</dim>
					<dim>-1</dim>
					<dim>-1</dim>
				</port>
			</input>
			<output>
				<port id="2" precision="FP32" names="Clip_10">
					<dim>-1</dim>
					<dim>128</dim>
					<dim>-1</dim>
					<dim>-1</dim>
				</port>
			</output>
		</layer>
		<layer id="297" name="Mul_10" type="Multiply" version="opset1">
			<data auto_broadcast="numpy" />
			<input>
				<port id="0" precision="FP32">
					<dim>-1</dim>
					<dim>128</dim>
					<dim>-1</dim>
					<dim>-1</dim>
				</port>
				<port id="1" precision="FP32">
					<dim>-1</dim>
					<dim>128</dim>
					<dim>-1</dim>
					<dim>-1</dim>
				</port>
			</input>
			<output>
				<port id="2" precision="FP32" names="Mul_10">
					<dim>-1</dim>
					<dim>128</dim>
					<dim>-1</dim>
					<dim>-1</dim>
				</port>
			</output>
		</layer>
		<layer id="298" name="Constant_40_compressed" type="Const" version="opset1">
			<data element_type="f16" shape="" offset="1888" size="2" />
			<output>
				<port id="0" precision="FP16" names="Constant_40" />
			</output>
		</layer>
		<layer id="299" name="Constant_40" type="Convert" version="opset1">
			<data destination_type="f32" />
			<rt_info>
				<attribute name="decompression" version="0" />
			</rt_info>
			<input>
				<port id="0" precision="FP16" />
			</input>
			<output>
				<port id="1" precision="FP32" />
			</output>
		</layer>
		<layer id="300" name="Div_10" type="Divide" version="opset1">
			<data auto_broadcast="numpy" m_pythondiv="true" />
			<input>
				<port id="0" precision="FP32">
					<dim>-1</dim>
					<dim>128</dim>
					<dim>-1</dim>
					<dim>-1</dim>
				</port>
				<port id="1" precision="FP32" />
			</input>
			<output>
				<port id="2" precision="FP32" names="batch_norm_37.tmp_4">
					<dim>-1</dim>
					<dim>128</dim>
					<dim>-1</dim>
					<dim>-1</dim>
				</port>
			</output>
		</layer>
		<layer id="301" name="conv2d_48.w_0_compressed" type="Const" version="opset1">
			<data element_type="f16" shape="128, 1, 3, 3" offset="76798" size="2304" />
			<output>
				<port id="0" precision="FP16" names="conv2d_48.w_0">
					<dim>128</dim>
					<dim>1</dim>
					<dim>3</dim>
					<dim>3</dim>
				</port>
			</output>
		</layer>
		<layer id="302" name="conv2d_48.w_0" type="Convert" version="opset1">
			<data destination_type="f32" />
			<rt_info>
				<attribute name="decompression" version="0" />
			</rt_info>
			<input>
				<port id="0" precision="FP16">
					<dim>128</dim>
					<dim>1</dim>
					<dim>3</dim>
					<dim>3</dim>
				</port>
			</input>
			<output>
				<port id="1" precision="FP32">
					<dim>128</dim>
					<dim>1</dim>
					<dim>3</dim>
					<dim>3</dim>
				</port>
			</output>
		</layer>
		<layer id="303" name="Constant_8929" type="Const" version="opset1">
			<data element_type="i64" shape="1" offset="41718" size="8" />
			<rt_info>
				<attribute name="precise" version="0" />
			</rt_info>
			<output>
				<port id="0" precision="I64">
					<dim>1</dim>
				</port>
			</output>
		</layer>
		<layer id="304" name="ShapeOf_8930" type="ShapeOf" version="opset3">
			<data output_type="i64" />
			<input>
				<port id="0" precision="FP32">
					<dim>128</dim>
					<dim>1</dim>
					<dim>3</dim>
					<dim>3</dim>
				</port>
			</input>
			<output>
				<port id="1" precision="I64">
					<dim>4</dim>
				</port>
			</output>
		</layer>
		<layer id="305" name="Constant_8927" type="Const" version="opset1">
			<data element_type="i64" shape="" offset="2190" size="8" />
			<rt_info>
				<attribute name="precise" version="0" />
			</rt_info>
			<output>
				<port id="0" precision="I64" />
			</output>
		</layer>
		<layer id="306" name="Constant_8928" type="Const" version="opset1">
			<data element_type="i64" shape="2" offset="2198" size="16" />
			<rt_info>
				<attribute name="precise" version="0" />
			</rt_info>
			<output>
				<port id="0" precision="I64">
					<dim>2</dim>
				</port>
			</output>
		</layer>
		<layer id="307" name="VariadicSplit_8931" type="VariadicSplit" version="opset1">
			<input>
				<port id="0" precision="I64">
					<dim>4</dim>
				</port>
				<port id="1" precision="I64" />
				<port id="2" precision="I64">
					<dim>2</dim>
				</port>
			</input>
			<output>
				<port id="3" precision="I64">
					<dim>1</dim>
				</port>
				<port id="4" precision="I64">
					<dim>3</dim>
				</port>
			</output>
		</layer>
		<layer id="308" name="Divide_8932" type="Divide" version="opset1">
			<data auto_broadcast="numpy" m_pythondiv="true" />
			<input>
				<port id="0" precision="I64">
					<dim>1</dim>
				</port>
				<port id="1" precision="I64">
					<dim>1</dim>
				</port>
			</input>
			<output>
				<port id="2" precision="I64">
					<dim>1</dim>
				</port>
			</output>
		</layer>
		<layer id="309" name="Concat_8933" type="Concat" version="opset1">
			<data axis="0" />
			<input>
				<port id="0" precision="I64">
					<dim>1</dim>
				</port>
				<port id="1" precision="I64">
					<dim>1</dim>
				</port>
				<port id="2" precision="I64">
					<dim>3</dim>
				</port>
			</input>
			<output>
				<port id="3" precision="I64">
					<dim>5</dim>
				</port>
			</output>
		</layer>
		<layer id="310" name="Reshape_8934" type="Reshape" version="opset1">
			<data special_zero="false" />
			<input>
				<port id="0" precision="FP32">
					<dim>128</dim>
					<dim>1</dim>
					<dim>3</dim>
					<dim>3</dim>
				</port>
				<port id="1" precision="I64">
					<dim>5</dim>
				</port>
			</input>
			<output>
				<port id="2" precision="FP32">
					<dim>128</dim>
					<dim>1</dim>
					<dim>1</dim>
					<dim>3</dim>
					<dim>3</dim>
				</port>
			</output>
		</layer>
		<layer id="311" name="Conv_11" type="GroupConvolution" version="opset1">
			<data strides="2, 1" pads_begin="1, 1" pads_end="1, 1" dilations="1, 1" auto_pad="explicit" />
			<input>
				<port id="0" precision="FP32">
					<dim>-1</dim>
					<dim>128</dim>
					<dim>-1</dim>
					<dim>-1</dim>
				</port>
				<port id="1" precision="FP32">
					<dim>128</dim>
					<dim>1</dim>
					<dim>1</dim>
					<dim>3</dim>
					<dim>3</dim>
				</port>
			</input>
			<output>
				<port id="2" precision="FP32" names="depthwise_conv2d_18.tmp_0">
					<dim>-1</dim>
					<dim>128</dim>
					<dim>-1</dim>
					<dim>-1</dim>
				</port>
			</output>
		</layer>
		<layer id="312" name="batch_norm_38.w_0_compressed" type="Const" version="opset1">
			<data element_type="f16" shape="128" offset="79102" size="256" />
			<output>
				<port id="0" precision="FP16" names="batch_norm_38.w_0">
					<dim>128</dim>
				</port>
			</output>
		</layer>
		<layer id="313" name="batch_norm_38.w_0" type="Convert" version="opset1">
			<data destination_type="f32" />
			<rt_info>
				<attribute name="decompression" version="0" />
			</rt_info>
			<input>
				<port id="0" precision="FP16">
					<dim>128</dim>
				</port>
			</input>
			<output>
				<port id="1" precision="FP32">
					<dim>128</dim>
				</port>
			</output>
		</layer>
		<layer id="314" name="batch_norm_38.b_0_compressed" type="Const" version="opset1">
			<data element_type="f16" shape="128" offset="79358" size="256" />
			<output>
				<port id="0" precision="FP16" names="batch_norm_38.b_0">
					<dim>128</dim>
				</port>
			</output>
		</layer>
		<layer id="315" name="batch_norm_38.b_0" type="Convert" version="opset1">
			<data destination_type="f32" />
			<rt_info>
				<attribute name="decompression" version="0" />
			</rt_info>
			<input>
				<port id="0" precision="FP16">
					<dim>128</dim>
				</port>
			</input>
			<output>
				<port id="1" precision="FP32">
					<dim>128</dim>
				</port>
			</output>
		</layer>
		<layer id="316" name="batch_norm_38.w_1_compressed" type="Const" version="opset1">
			<data element_type="f16" shape="128" offset="79614" size="256" />
			<output>
				<port id="0" precision="FP16" names="batch_norm_38.w_1">
					<dim>128</dim>
				</port>
			</output>
		</layer>
		<layer id="317" name="batch_norm_38.w_1" type="Convert" version="opset1">
			<data destination_type="f32" />
			<rt_info>
				<attribute name="decompression" version="0" />
			</rt_info>
			<input>
				<port id="0" precision="FP16">
					<dim>128</dim>
				</port>
			</input>
			<output>
				<port id="1" precision="FP32">
					<dim>128</dim>
				</port>
			</output>
		</layer>
		<layer id="318" name="batch_norm_38.w_2_compressed" type="Const" version="opset1">
			<data element_type="f16" shape="128" offset="79870" size="256" />
			<output>
				<port id="0" precision="FP16" names="batch_norm_38.w_2">
					<dim>128</dim>
				</port>
			</output>
		</layer>
		<layer id="319" name="batch_norm_38.w_2" type="Convert" version="opset1">
			<data destination_type="f32" />
			<rt_info>
				<attribute name="decompression" version="0" />
			</rt_info>
			<input>
				<port id="0" precision="FP16">
					<dim>128</dim>
				</port>
			</input>
			<output>
				<port id="1" precision="FP32">
					<dim>128</dim>
				</port>
			</output>
		</layer>
		<layer id="320" name="BatchNormalization_11" type="BatchNormInference" version="opset5">
			<data epsilon="9.9999997473787516e-06" />
			<input>
				<port id="0" precision="FP32">
					<dim>-1</dim>
					<dim>128</dim>
					<dim>-1</dim>
					<dim>-1</dim>
				</port>
				<port id="1" precision="FP32">
					<dim>128</dim>
				</port>
				<port id="2" precision="FP32">
					<dim>128</dim>
				</port>
				<port id="3" precision="FP32">
					<dim>128</dim>
				</port>
				<port id="4" precision="FP32">
					<dim>128</dim>
				</port>
			</input>
			<output>
				<port id="5" precision="FP32" names="batch_norm_38.tmp_3">
					<dim>-1</dim>
					<dim>128</dim>
					<dim>-1</dim>
					<dim>-1</dim>
				</port>
			</output>
		</layer>
		<layer id="321" name="Constant_47_compressed" type="Const" version="opset1">
			<data element_type="f16" shape="" offset="1888" size="2" />
			<output>
				<port id="0" precision="FP16" names="Constant_47" />
			</output>
		</layer>
		<layer id="322" name="Constant_47" type="Convert" version="opset1">
			<data destination_type="f32" />
			<rt_info>
				<attribute name="decompression" version="0" />
			</rt_info>
			<input>
				<port id="0" precision="FP16" />
			</input>
			<output>
				<port id="1" precision="FP32" />
			</output>
		</layer>
		<layer id="323" name="Constant_46_compressed" type="Const" version="opset1">
			<data element_type="f16" shape="" offset="1890" size="2" />
			<output>
				<port id="0" precision="FP16" names="Constant_46" />
			</output>
		</layer>
		<layer id="324" name="Constant_46" type="Convert" version="opset1">
			<data destination_type="f32" />
			<rt_info>
				<attribute name="decompression" version="0" />
			</rt_info>
			<input>
				<port id="0" precision="FP16" />
			</input>
			<output>
				<port id="1" precision="FP32" />
			</output>
		</layer>
		<layer id="325" name="Constant_45_compressed" type="Const" version="opset1">
			<data element_type="f16" shape="" offset="1892" size="2" />
			<output>
				<port id="0" precision="FP16" names="Constant_45" />
			</output>
		</layer>
		<layer id="326" name="Constant_45" type="Convert" version="opset1">
			<data destination_type="f32" />
			<rt_info>
				<attribute name="decompression" version="0" />
			</rt_info>
			<input>
				<port id="0" precision="FP16" />
			</input>
			<output>
				<port id="1" precision="FP32" />
			</output>
		</layer>
		<layer id="327" name="Add_11" type="Add" version="opset1">
			<data auto_broadcast="numpy" />
			<input>
				<port id="0" precision="FP32">
					<dim>-1</dim>
					<dim>128</dim>
					<dim>-1</dim>
					<dim>-1</dim>
				</port>
				<port id="1" precision="FP32" />
			</input>
			<output>
				<port id="2" precision="FP32" names="Add_11">
					<dim>-1</dim>
					<dim>128</dim>
					<dim>-1</dim>
					<dim>-1</dim>
				</port>
			</output>
		</layer>
		<layer id="328" name="Maximum_8976" type="Maximum" version="opset1">
			<data auto_broadcast="numpy" />
			<input>
				<port id="0" precision="FP32" />
				<port id="1" precision="FP32">
					<dim>-1</dim>
					<dim>128</dim>
					<dim>-1</dim>
					<dim>-1</dim>
				</port>
			</input>
			<output>
				<port id="2" precision="FP32">
					<dim>-1</dim>
					<dim>128</dim>
					<dim>-1</dim>
					<dim>-1</dim>
				</port>
			</output>
		</layer>
		<layer id="329" name="Clip_11" type="Minimum" version="opset1">
			<data auto_broadcast="numpy" />
			<input>
				<port id="0" precision="FP32" />
				<port id="1" precision="FP32">
					<dim>-1</dim>
					<dim>128</dim>
					<dim>-1</dim>
					<dim>-1</dim>
				</port>
			</input>
			<output>
				<port id="2" precision="FP32" names="Clip_11">
					<dim>-1</dim>
					<dim>128</dim>
					<dim>-1</dim>
					<dim>-1</dim>
				</port>
			</output>
		</layer>
		<layer id="330" name="Mul_11" type="Multiply" version="opset1">
			<data auto_broadcast="numpy" />
			<input>
				<port id="0" precision="FP32">
					<dim>-1</dim>
					<dim>128</dim>
					<dim>-1</dim>
					<dim>-1</dim>
				</port>
				<port id="1" precision="FP32">
					<dim>-1</dim>
					<dim>128</dim>
					<dim>-1</dim>
					<dim>-1</dim>
				</port>
			</input>
			<output>
				<port id="2" precision="FP32" names="Mul_11">
					<dim>-1</dim>
					<dim>128</dim>
					<dim>-1</dim>
					<dim>-1</dim>
				</port>
			</output>
		</layer>
		<layer id="331" name="Constant_44_compressed" type="Const" version="opset1">
			<data element_type="f16" shape="" offset="1888" size="2" />
			<output>
				<port id="0" precision="FP16" names="Constant_44" />
			</output>
		</layer>
		<layer id="332" name="Constant_44" type="Convert" version="opset1">
			<data destination_type="f32" />
			<rt_info>
				<attribute name="decompression" version="0" />
			</rt_info>
			<input>
				<port id="0" precision="FP16" />
			</input>
			<output>
				<port id="1" precision="FP32" />
			</output>
		</layer>
		<layer id="333" name="Div_11" type="Divide" version="opset1">
			<data auto_broadcast="numpy" m_pythondiv="true" />
			<input>
				<port id="0" precision="FP32">
					<dim>-1</dim>
					<dim>128</dim>
					<dim>-1</dim>
					<dim>-1</dim>
				</port>
				<port id="1" precision="FP32" />
			</input>
			<output>
				<port id="2" precision="FP32" names="batch_norm_38.tmp_4">
					<dim>-1</dim>
					<dim>128</dim>
					<dim>-1</dim>
					<dim>-1</dim>
				</port>
			</output>
		</layer>
		<layer id="334" name="conv2d_49.w_0_compressed" type="Const" version="opset1">
			<data element_type="f16" shape="256, 128, 1, 1" offset="80126" size="65536" />
			<output>
				<port id="0" precision="FP16" names="conv2d_49.w_0">
					<dim>256</dim>
					<dim>128</dim>
					<dim>1</dim>
					<dim>1</dim>
				</port>
			</output>
		</layer>
		<layer id="335" name="conv2d_49.w_0" type="Convert" version="opset1">
			<data destination_type="f32" />
			<rt_info>
				<attribute name="decompression" version="0" />
			</rt_info>
			<input>
				<port id="0" precision="FP16">
					<dim>256</dim>
					<dim>128</dim>
					<dim>1</dim>
					<dim>1</dim>
				</port>
			</input>
			<output>
				<port id="1" precision="FP32">
					<dim>256</dim>
					<dim>128</dim>
					<dim>1</dim>
					<dim>1</dim>
				</port>
			</output>
		</layer>
		<layer id="336" name="Conv_12" type="Convolution" version="opset1">
			<data strides="1, 1" dilations="1, 1" pads_begin="0, 0" pads_end="0, 0" auto_pad="explicit" />
			<input>
				<port id="0" precision="FP32">
					<dim>-1</dim>
					<dim>128</dim>
					<dim>-1</dim>
					<dim>-1</dim>
				</port>
				<port id="1" precision="FP32">
					<dim>256</dim>
					<dim>128</dim>
					<dim>1</dim>
					<dim>1</dim>
				</port>
			</input>
			<output>
				<port id="2" precision="FP32" names="conv2d_103.tmp_0">
					<dim>-1</dim>
					<dim>256</dim>
					<dim>-1</dim>
					<dim>-1</dim>
				</port>
			</output>
		</layer>
		<layer id="337" name="batch_norm_39.w_0_compressed" type="Const" version="opset1">
			<data element_type="f16" shape="256" offset="145662" size="512" />
			<output>
				<port id="0" precision="FP16" names="batch_norm_39.w_0">
					<dim>256</dim>
				</port>
			</output>
		</layer>
		<layer id="338" name="batch_norm_39.w_0" type="Convert" version="opset1">
			<data destination_type="f32" />
			<rt_info>
				<attribute name="decompression" version="0" />
			</rt_info>
			<input>
				<port id="0" precision="FP16">
					<dim>256</dim>
				</port>
			</input>
			<output>
				<port id="1" precision="FP32">
					<dim>256</dim>
				</port>
			</output>
		</layer>
		<layer id="339" name="batch_norm_39.b_0_compressed" type="Const" version="opset1">
			<data element_type="f16" shape="256" offset="146174" size="512" />
			<output>
				<port id="0" precision="FP16" names="batch_norm_39.b_0">
					<dim>256</dim>
				</port>
			</output>
		</layer>
		<layer id="340" name="batch_norm_39.b_0" type="Convert" version="opset1">
			<data destination_type="f32" />
			<rt_info>
				<attribute name="decompression" version="0" />
			</rt_info>
			<input>
				<port id="0" precision="FP16">
					<dim>256</dim>
				</port>
			</input>
			<output>
				<port id="1" precision="FP32">
					<dim>256</dim>
				</port>
			</output>
		</layer>
		<layer id="341" name="batch_norm_39.w_1_compressed" type="Const" version="opset1">
			<data element_type="f16" shape="256" offset="146686" size="512" />
			<output>
				<port id="0" precision="FP16" names="batch_norm_39.w_1">
					<dim>256</dim>
				</port>
			</output>
		</layer>
		<layer id="342" name="batch_norm_39.w_1" type="Convert" version="opset1">
			<data destination_type="f32" />
			<rt_info>
				<attribute name="decompression" version="0" />
			</rt_info>
			<input>
				<port id="0" precision="FP16">
					<dim>256</dim>
				</port>
			</input>
			<output>
				<port id="1" precision="FP32">
					<dim>256</dim>
				</port>
			</output>
		</layer>
		<layer id="343" name="batch_norm_39.w_2_compressed" type="Const" version="opset1">
			<data element_type="f16" shape="256" offset="147198" size="512" />
			<output>
				<port id="0" precision="FP16" names="batch_norm_39.w_2">
					<dim>256</dim>
				</port>
			</output>
		</layer>
		<layer id="344" name="batch_norm_39.w_2" type="Convert" version="opset1">
			<data destination_type="f32" />
			<rt_info>
				<attribute name="decompression" version="0" />
			</rt_info>
			<input>
				<port id="0" precision="FP16">
					<dim>256</dim>
				</port>
			</input>
			<output>
				<port id="1" precision="FP32">
					<dim>256</dim>
				</port>
			</output>
		</layer>
		<layer id="345" name="BatchNormalization_12" type="BatchNormInference" version="opset5">
			<data epsilon="9.9999997473787516e-06" />
			<input>
				<port id="0" precision="FP32">
					<dim>-1</dim>
					<dim>256</dim>
					<dim>-1</dim>
					<dim>-1</dim>
				</port>
				<port id="1" precision="FP32">
					<dim>256</dim>
				</port>
				<port id="2" precision="FP32">
					<dim>256</dim>
				</port>
				<port id="3" precision="FP32">
					<dim>256</dim>
				</port>
				<port id="4" precision="FP32">
					<dim>256</dim>
				</port>
			</input>
			<output>
				<port id="5" precision="FP32" names="batch_norm_39.tmp_3">
					<dim>-1</dim>
					<dim>256</dim>
					<dim>-1</dim>
					<dim>-1</dim>
				</port>
			</output>
		</layer>
		<layer id="346" name="Constant_51_compressed" type="Const" version="opset1">
			<data element_type="f16" shape="" offset="1888" size="2" />
			<output>
				<port id="0" precision="FP16" names="Constant_51" />
			</output>
		</layer>
		<layer id="347" name="Constant_51" type="Convert" version="opset1">
			<data destination_type="f32" />
			<rt_info>
				<attribute name="decompression" version="0" />
			</rt_info>
			<input>
				<port id="0" precision="FP16" />
			</input>
			<output>
				<port id="1" precision="FP32" />
			</output>
		</layer>
		<layer id="348" name="Constant_50_compressed" type="Const" version="opset1">
			<data element_type="f16" shape="" offset="1890" size="2" />
			<output>
				<port id="0" precision="FP16" names="Constant_50" />
			</output>
		</layer>
		<layer id="349" name="Constant_50" type="Convert" version="opset1">
			<data destination_type="f32" />
			<rt_info>
				<attribute name="decompression" version="0" />
			</rt_info>
			<input>
				<port id="0" precision="FP16" />
			</input>
			<output>
				<port id="1" precision="FP32" />
			</output>
		</layer>
		<layer id="350" name="Constant_49_compressed" type="Const" version="opset1">
			<data element_type="f16" shape="" offset="1892" size="2" />
			<output>
				<port id="0" precision="FP16" names="Constant_49" />
			</output>
		</layer>
		<layer id="351" name="Constant_49" type="Convert" version="opset1">
			<data destination_type="f32" />
			<rt_info>
				<attribute name="decompression" version="0" />
			</rt_info>
			<input>
				<port id="0" precision="FP16" />
			</input>
			<output>
				<port id="1" precision="FP32" />
			</output>
		</layer>
		<layer id="352" name="Add_12" type="Add" version="opset1">
			<data auto_broadcast="numpy" />
			<input>
				<port id="0" precision="FP32">
					<dim>-1</dim>
					<dim>256</dim>
					<dim>-1</dim>
					<dim>-1</dim>
				</port>
				<port id="1" precision="FP32" />
			</input>
			<output>
				<port id="2" precision="FP32" names="Add_12">
					<dim>-1</dim>
					<dim>256</dim>
					<dim>-1</dim>
					<dim>-1</dim>
				</port>
			</output>
		</layer>
		<layer id="353" name="Maximum_8984" type="Maximum" version="opset1">
			<data auto_broadcast="numpy" />
			<input>
				<port id="0" precision="FP32" />
				<port id="1" precision="FP32">
					<dim>-1</dim>
					<dim>256</dim>
					<dim>-1</dim>
					<dim>-1</dim>
				</port>
			</input>
			<output>
				<port id="2" precision="FP32">
					<dim>-1</dim>
					<dim>256</dim>
					<dim>-1</dim>
					<dim>-1</dim>
				</port>
			</output>
		</layer>
		<layer id="354" name="Clip_12" type="Minimum" version="opset1">
			<data auto_broadcast="numpy" />
			<input>
				<port id="0" precision="FP32" />
				<port id="1" precision="FP32">
					<dim>-1</dim>
					<dim>256</dim>
					<dim>-1</dim>
					<dim>-1</dim>
				</port>
			</input>
			<output>
				<port id="2" precision="FP32" names="Clip_12">
					<dim>-1</dim>
					<dim>256</dim>
					<dim>-1</dim>
					<dim>-1</dim>
				</port>
			</output>
		</layer>
		<layer id="355" name="Mul_12" type="Multiply" version="opset1">
			<data auto_broadcast="numpy" />
			<input>
				<port id="0" precision="FP32">
					<dim>-1</dim>
					<dim>256</dim>
					<dim>-1</dim>
					<dim>-1</dim>
				</port>
				<port id="1" precision="FP32">
					<dim>-1</dim>
					<dim>256</dim>
					<dim>-1</dim>
					<dim>-1</dim>
				</port>
			</input>
			<output>
				<port id="2" precision="FP32" names="Mul_12">
					<dim>-1</dim>
					<dim>256</dim>
					<dim>-1</dim>
					<dim>-1</dim>
				</port>
			</output>
		</layer>
		<layer id="356" name="Constant_48_compressed" type="Const" version="opset1">
			<data element_type="f16" shape="" offset="1888" size="2" />
			<output>
				<port id="0" precision="FP16" names="Constant_48" />
			</output>
		</layer>
		<layer id="357" name="Constant_48" type="Convert" version="opset1">
			<data destination_type="f32" />
			<rt_info>
				<attribute name="decompression" version="0" />
			</rt_info>
			<input>
				<port id="0" precision="FP16" />
			</input>
			<output>
				<port id="1" precision="FP32" />
			</output>
		</layer>
		<layer id="358" name="Div_12" type="Divide" version="opset1">
			<data auto_broadcast="numpy" m_pythondiv="true" />
			<input>
				<port id="0" precision="FP32">
					<dim>-1</dim>
					<dim>256</dim>
					<dim>-1</dim>
					<dim>-1</dim>
				</port>
				<port id="1" precision="FP32" />
			</input>
			<output>
				<port id="2" precision="FP32" names="batch_norm_39.tmp_4">
					<dim>-1</dim>
					<dim>256</dim>
					<dim>-1</dim>
					<dim>-1</dim>
				</port>
			</output>
		</layer>
		<layer id="359" name="conv2d_50.w_0_compressed" type="Const" version="opset1">
			<data element_type="f16" shape="256, 1, 5, 5" offset="147710" size="12800" />
			<output>
				<port id="0" precision="FP16" names="conv2d_50.w_0">
					<dim>256</dim>
					<dim>1</dim>
					<dim>5</dim>
					<dim>5</dim>
				</port>
			</output>
		</layer>
		<layer id="360" name="conv2d_50.w_0" type="Convert" version="opset1">
			<data destination_type="f32" />
			<rt_info>
				<attribute name="decompression" version="0" />
			</rt_info>
			<input>
				<port id="0" precision="FP16">
					<dim>256</dim>
					<dim>1</dim>
					<dim>5</dim>
					<dim>5</dim>
				</port>
			</input>
			<output>
				<port id="1" precision="FP32">
					<dim>256</dim>
					<dim>1</dim>
					<dim>5</dim>
					<dim>5</dim>
				</port>
			</output>
		</layer>
		<layer id="361" name="Constant_8991" type="Const" version="opset1">
			<data element_type="i64" shape="1" offset="160510" size="8" />
			<rt_info>
				<attribute name="precise" version="0" />
			</rt_info>
			<output>
				<port id="0" precision="I64">
					<dim>1</dim>
				</port>
			</output>
		</layer>
		<layer id="362" name="ShapeOf_8992" type="ShapeOf" version="opset3">
			<data output_type="i64" />
			<input>
				<port id="0" precision="FP32">
					<dim>256</dim>
					<dim>1</dim>
					<dim>5</dim>
					<dim>5</dim>
				</port>
			</input>
			<output>
				<port id="1" precision="I64">
					<dim>4</dim>
				</port>
			</output>
		</layer>
		<layer id="363" name="Constant_8989" type="Const" version="opset1">
			<data element_type="i64" shape="" offset="2190" size="8" />
			<rt_info>
				<attribute name="precise" version="0" />
			</rt_info>
			<output>
				<port id="0" precision="I64" />
			</output>
		</layer>
		<layer id="364" name="Constant_8990" type="Const" version="opset1">
			<data element_type="i64" shape="2" offset="2198" size="16" />
			<rt_info>
				<attribute name="precise" version="0" />
			</rt_info>
			<output>
				<port id="0" precision="I64">
					<dim>2</dim>
				</port>
			</output>
		</layer>
		<layer id="365" name="VariadicSplit_8993" type="VariadicSplit" version="opset1">
			<input>
				<port id="0" precision="I64">
					<dim>4</dim>
				</port>
				<port id="1" precision="I64" />
				<port id="2" precision="I64">
					<dim>2</dim>
				</port>
			</input>
			<output>
				<port id="3" precision="I64">
					<dim>1</dim>
				</port>
				<port id="4" precision="I64">
					<dim>3</dim>
				</port>
			</output>
		</layer>
		<layer id="366" name="Divide_8994" type="Divide" version="opset1">
			<data auto_broadcast="numpy" m_pythondiv="true" />
			<input>
				<port id="0" precision="I64">
					<dim>1</dim>
				</port>
				<port id="1" precision="I64">
					<dim>1</dim>
				</port>
			</input>
			<output>
				<port id="2" precision="I64">
					<dim>1</dim>
				</port>
			</output>
		</layer>
		<layer id="367" name="Concat_8995" type="Concat" version="opset1">
			<data axis="0" />
			<input>
				<port id="0" precision="I64">
					<dim>1</dim>
				</port>
				<port id="1" precision="I64">
					<dim>1</dim>
				</port>
				<port id="2" precision="I64">
					<dim>3</dim>
				</port>
			</input>
			<output>
				<port id="3" precision="I64">
					<dim>5</dim>
				</port>
			</output>
		</layer>
		<layer id="368" name="Reshape_8996" type="Reshape" version="opset1">
			<data special_zero="false" />
			<input>
				<port id="0" precision="FP32">
					<dim>256</dim>
					<dim>1</dim>
					<dim>5</dim>
					<dim>5</dim>
				</port>
				<port id="1" precision="I64">
					<dim>5</dim>
				</port>
			</input>
			<output>
				<port id="2" precision="FP32">
					<dim>256</dim>
					<dim>1</dim>
					<dim>1</dim>
					<dim>5</dim>
					<dim>5</dim>
				</port>
			</output>
		</layer>
		<layer id="369" name="Conv_13" type="GroupConvolution" version="opset1">
			<data strides="1, 1" pads_begin="2, 2" pads_end="2, 2" dilations="1, 1" auto_pad="explicit" />
			<input>
				<port id="0" precision="FP32">
					<dim>-1</dim>
					<dim>256</dim>
					<dim>-1</dim>
					<dim>-1</dim>
				</port>
				<port id="1" precision="FP32">
					<dim>256</dim>
					<dim>1</dim>
					<dim>1</dim>
					<dim>5</dim>
					<dim>5</dim>
				</port>
			</input>
			<output>
				<port id="2" precision="FP32" names="depthwise_conv2d_19.tmp_0">
					<dim>-1</dim>
					<dim>256</dim>
					<dim>-1</dim>
					<dim>-1</dim>
				</port>
			</output>
		</layer>
		<layer id="370" name="batch_norm_40.w_0_compressed" type="Const" version="opset1">
			<data element_type="f16" shape="256" offset="160518" size="512" />
			<output>
				<port id="0" precision="FP16" names="batch_norm_40.w_0">
					<dim>256</dim>
				</port>
			</output>
		</layer>
		<layer id="371" name="batch_norm_40.w_0" type="Convert" version="opset1">
			<data destination_type="f32" />
			<rt_info>
				<attribute name="decompression" version="0" />
			</rt_info>
			<input>
				<port id="0" precision="FP16">
					<dim>256</dim>
				</port>
			</input>
			<output>
				<port id="1" precision="FP32">
					<dim>256</dim>
				</port>
			</output>
		</layer>
		<layer id="372" name="batch_norm_40.b_0_compressed" type="Const" version="opset1">
			<data element_type="f16" shape="256" offset="161030" size="512" />
			<output>
				<port id="0" precision="FP16" names="batch_norm_40.b_0">
					<dim>256</dim>
				</port>
			</output>
		</layer>
		<layer id="373" name="batch_norm_40.b_0" type="Convert" version="opset1">
			<data destination_type="f32" />
			<rt_info>
				<attribute name="decompression" version="0" />
			</rt_info>
			<input>
				<port id="0" precision="FP16">
					<dim>256</dim>
				</port>
			</input>
			<output>
				<port id="1" precision="FP32">
					<dim>256</dim>
				</port>
			</output>
		</layer>
		<layer id="374" name="batch_norm_40.w_1_compressed" type="Const" version="opset1">
			<data element_type="f16" shape="256" offset="161542" size="512" />
			<output>
				<port id="0" precision="FP16" names="batch_norm_40.w_1">
					<dim>256</dim>
				</port>
			</output>
		</layer>
		<layer id="375" name="batch_norm_40.w_1" type="Convert" version="opset1">
			<data destination_type="f32" />
			<rt_info>
				<attribute name="decompression" version="0" />
			</rt_info>
			<input>
				<port id="0" precision="FP16">
					<dim>256</dim>
				</port>
			</input>
			<output>
				<port id="1" precision="FP32">
					<dim>256</dim>
				</port>
			</output>
		</layer>
		<layer id="376" name="batch_norm_40.w_2_compressed" type="Const" version="opset1">
			<data element_type="f16" shape="256" offset="162054" size="512" />
			<output>
				<port id="0" precision="FP16" names="batch_norm_40.w_2">
					<dim>256</dim>
				</port>
			</output>
		</layer>
		<layer id="377" name="batch_norm_40.w_2" type="Convert" version="opset1">
			<data destination_type="f32" />
			<rt_info>
				<attribute name="decompression" version="0" />
			</rt_info>
			<input>
				<port id="0" precision="FP16">
					<dim>256</dim>
				</port>
			</input>
			<output>
				<port id="1" precision="FP32">
					<dim>256</dim>
				</port>
			</output>
		</layer>
		<layer id="378" name="BatchNormalization_13" type="BatchNormInference" version="opset5">
			<data epsilon="9.9999997473787516e-06" />
			<input>
				<port id="0" precision="FP32">
					<dim>-1</dim>
					<dim>256</dim>
					<dim>-1</dim>
					<dim>-1</dim>
				</port>
				<port id="1" precision="FP32">
					<dim>256</dim>
				</port>
				<port id="2" precision="FP32">
					<dim>256</dim>
				</port>
				<port id="3" precision="FP32">
					<dim>256</dim>
				</port>
				<port id="4" precision="FP32">
					<dim>256</dim>
				</port>
			</input>
			<output>
				<port id="5" precision="FP32" names="batch_norm_40.tmp_3">
					<dim>-1</dim>
					<dim>256</dim>
					<dim>-1</dim>
					<dim>-1</dim>
				</port>
			</output>
		</layer>
		<layer id="379" name="Constant_55_compressed" type="Const" version="opset1">
			<data element_type="f16" shape="" offset="1888" size="2" />
			<output>
				<port id="0" precision="FP16" names="Constant_55" />
			</output>
		</layer>
		<layer id="380" name="Constant_55" type="Convert" version="opset1">
			<data destination_type="f32" />
			<rt_info>
				<attribute name="decompression" version="0" />
			</rt_info>
			<input>
				<port id="0" precision="FP16" />
			</input>
			<output>
				<port id="1" precision="FP32" />
			</output>
		</layer>
		<layer id="381" name="Constant_54_compressed" type="Const" version="opset1">
			<data element_type="f16" shape="" offset="1890" size="2" />
			<output>
				<port id="0" precision="FP16" names="Constant_54" />
			</output>
		</layer>
		<layer id="382" name="Constant_54" type="Convert" version="opset1">
			<data destination_type="f32" />
			<rt_info>
				<attribute name="decompression" version="0" />
			</rt_info>
			<input>
				<port id="0" precision="FP16" />
			</input>
			<output>
				<port id="1" precision="FP32" />
			</output>
		</layer>
		<layer id="383" name="Constant_53_compressed" type="Const" version="opset1">
			<data element_type="f16" shape="" offset="1892" size="2" />
			<output>
				<port id="0" precision="FP16" names="Constant_53" />
			</output>
		</layer>
		<layer id="384" name="Constant_53" type="Convert" version="opset1">
			<data destination_type="f32" />
			<rt_info>
				<attribute name="decompression" version="0" />
			</rt_info>
			<input>
				<port id="0" precision="FP16" />
			</input>
			<output>
				<port id="1" precision="FP32" />
			</output>
		</layer>
		<layer id="385" name="Add_13" type="Add" version="opset1">
			<data auto_broadcast="numpy" />
			<input>
				<port id="0" precision="FP32">
					<dim>-1</dim>
					<dim>256</dim>
					<dim>-1</dim>
					<dim>-1</dim>
				</port>
				<port id="1" precision="FP32" />
			</input>
			<output>
				<port id="2" precision="FP32" names="Add_13">
					<dim>-1</dim>
					<dim>256</dim>
					<dim>-1</dim>
					<dim>-1</dim>
				</port>
			</output>
		</layer>
		<layer id="386" name="Maximum_9038" type="Maximum" version="opset1">
			<data auto_broadcast="numpy" />
			<input>
				<port id="0" precision="FP32" />
				<port id="1" precision="FP32">
					<dim>-1</dim>
					<dim>256</dim>
					<dim>-1</dim>
					<dim>-1</dim>
				</port>
			</input>
			<output>
				<port id="2" precision="FP32">
					<dim>-1</dim>
					<dim>256</dim>
					<dim>-1</dim>
					<dim>-1</dim>
				</port>
			</output>
		</layer>
		<layer id="387" name="Clip_13" type="Minimum" version="opset1">
			<data auto_broadcast="numpy" />
			<input>
				<port id="0" precision="FP32" />
				<port id="1" precision="FP32">
					<dim>-1</dim>
					<dim>256</dim>
					<dim>-1</dim>
					<dim>-1</dim>
				</port>
			</input>
			<output>
				<port id="2" precision="FP32" names="Clip_13">
					<dim>-1</dim>
					<dim>256</dim>
					<dim>-1</dim>
					<dim>-1</dim>
				</port>
			</output>
		</layer>
		<layer id="388" name="Mul_13" type="Multiply" version="opset1">
			<data auto_broadcast="numpy" />
			<input>
				<port id="0" precision="FP32">
					<dim>-1</dim>
					<dim>256</dim>
					<dim>-1</dim>
					<dim>-1</dim>
				</port>
				<port id="1" precision="FP32">
					<dim>-1</dim>
					<dim>256</dim>
					<dim>-1</dim>
					<dim>-1</dim>
				</port>
			</input>
			<output>
				<port id="2" precision="FP32" names="Mul_13">
					<dim>-1</dim>
					<dim>256</dim>
					<dim>-1</dim>
					<dim>-1</dim>
				</port>
			</output>
		</layer>
		<layer id="389" name="Constant_52_compressed" type="Const" version="opset1">
			<data element_type="f16" shape="" offset="1888" size="2" />
			<output>
				<port id="0" precision="FP16" names="Constant_52" />
			</output>
		</layer>
		<layer id="390" name="Constant_52" type="Convert" version="opset1">
			<data destination_type="f32" />
			<rt_info>
				<attribute name="decompression" version="0" />
			</rt_info>
			<input>
				<port id="0" precision="FP16" />
			</input>
			<output>
				<port id="1" precision="FP32" />
			</output>
		</layer>
		<layer id="391" name="Div_13" type="Divide" version="opset1">
			<data auto_broadcast="numpy" m_pythondiv="true" />
			<input>
				<port id="0" precision="FP32">
					<dim>-1</dim>
					<dim>256</dim>
					<dim>-1</dim>
					<dim>-1</dim>
				</port>
				<port id="1" precision="FP32" />
			</input>
			<output>
				<port id="2" precision="FP32" names="batch_norm_40.tmp_4">
					<dim>-1</dim>
					<dim>256</dim>
					<dim>-1</dim>
					<dim>-1</dim>
				</port>
			</output>
		</layer>
		<layer id="392" name="conv2d_51.w_0_compressed" type="Const" version="opset1">
			<data element_type="f16" shape="256, 256, 1, 1" offset="162566" size="131072" />
			<output>
				<port id="0" precision="FP16" names="conv2d_51.w_0">
					<dim>256</dim>
					<dim>256</dim>
					<dim>1</dim>
					<dim>1</dim>
				</port>
			</output>
		</layer>
		<layer id="393" name="conv2d_51.w_0" type="Convert" version="opset1">
			<data destination_type="f32" />
			<rt_info>
				<attribute name="decompression" version="0" />
			</rt_info>
			<input>
				<port id="0" precision="FP16">
					<dim>256</dim>
					<dim>256</dim>
					<dim>1</dim>
					<dim>1</dim>
				</port>
			</input>
			<output>
				<port id="1" precision="FP32">
					<dim>256</dim>
					<dim>256</dim>
					<dim>1</dim>
					<dim>1</dim>
				</port>
			</output>
		</layer>
		<layer id="394" name="Conv_14" type="Convolution" version="opset1">
			<data strides="1, 1" dilations="1, 1" pads_begin="0, 0" pads_end="0, 0" auto_pad="explicit" />
			<input>
				<port id="0" precision="FP32">
					<dim>-1</dim>
					<dim>256</dim>
					<dim>-1</dim>
					<dim>-1</dim>
				</port>
				<port id="1" precision="FP32">
					<dim>256</dim>
					<dim>256</dim>
					<dim>1</dim>
					<dim>1</dim>
				</port>
			</input>
			<output>
				<port id="2" precision="FP32" names="conv2d_104.tmp_0">
					<dim>-1</dim>
					<dim>256</dim>
					<dim>-1</dim>
					<dim>-1</dim>
				</port>
			</output>
		</layer>
		<layer id="395" name="batch_norm_41.w_0_compressed" type="Const" version="opset1">
			<data element_type="f16" shape="256" offset="293638" size="512" />
			<output>
				<port id="0" precision="FP16" names="batch_norm_41.w_0">
					<dim>256</dim>
				</port>
			</output>
		</layer>
		<layer id="396" name="batch_norm_41.w_0" type="Convert" version="opset1">
			<data destination_type="f32" />
			<rt_info>
				<attribute name="decompression" version="0" />
			</rt_info>
			<input>
				<port id="0" precision="FP16">
					<dim>256</dim>
				</port>
			</input>
			<output>
				<port id="1" precision="FP32">
					<dim>256</dim>
				</port>
			</output>
		</layer>
		<layer id="397" name="batch_norm_41.b_0_compressed" type="Const" version="opset1">
			<data element_type="f16" shape="256" offset="294150" size="512" />
			<output>
				<port id="0" precision="FP16" names="batch_norm_41.b_0">
					<dim>256</dim>
				</port>
			</output>
		</layer>
		<layer id="398" name="batch_norm_41.b_0" type="Convert" version="opset1">
			<data destination_type="f32" />
			<rt_info>
				<attribute name="decompression" version="0" />
			</rt_info>
			<input>
				<port id="0" precision="FP16">
					<dim>256</dim>
				</port>
			</input>
			<output>
				<port id="1" precision="FP32">
					<dim>256</dim>
				</port>
			</output>
		</layer>
		<layer id="399" name="batch_norm_41.w_1_compressed" type="Const" version="opset1">
			<data element_type="f16" shape="256" offset="294662" size="512" />
			<output>
				<port id="0" precision="FP16" names="batch_norm_41.w_1">
					<dim>256</dim>
				</port>
			</output>
…
		<edge from-layer="1082" from-port="0" to-layer="1083" to-port="1" />
		<edge from-layer="1083" from-port="2" to-layer="1084" to-port="0" />
		<edge from-layer="1084" from-port="1" to-layer="1085" to-port="1" />
		<edge from-layer="1085" from-port="2" to-layer="1097" to-port="0" />
		<edge from-layer="1086" from-port="0" to-layer="1087" to-port="0" />
		<edge from-layer="1087" from-port="1" to-layer="1096" to-port="0" />
		<edge from-layer="1088" from-port="1" to-layer="1095" to-port="0" />
		<edge from-layer="1089" from-port="0" to-layer="1092" to-port="0" />
		<edge from-layer="1089" from-port="0" to-layer="1095" to-port="1" />
		<edge from-layer="1090" from-port="0" to-layer="1095" to-port="2" />
		<edge from-layer="1091" from-port="0" to-layer="1093" to-port="0" />
		<edge from-layer="1092" from-port="1" to-layer="1093" to-port="1" />
		<edge from-layer="1093" from-port="2" to-layer="1095" to-port="3" />
		<edge from-layer="1094" from-port="0" to-layer="1095" to-port="4" />
		<edge from-layer="1095" from-port="5" to-layer="1096" to-port="1" />
		<edge from-layer="1095" from-port="5" to-layer="1100" to-port="1" />
		<edge from-layer="1096" from-port="2" to-layer="1097" to-port="1" />
		<edge from-layer="1097" from-port="2" to-layer="1101" to-port="0" />
		<edge from-layer="1098" from-port="0" to-layer="1099" to-port="0" />
		<edge from-layer="1099" from-port="1" to-layer="1100" to-port="0" />
		<edge from-layer="1100" from-port="2" to-layer="1101" to-port="1" />
		<edge from-layer="1101" from-port="2" to-layer="1104" to-port="0" />
		<edge from-layer="1102" from-port="0" to-layer="1103" to-port="0" />
		<edge from-layer="1103" from-port="1" to-layer="1104" to-port="1" />
		<edge from-layer="1104" from-port="2" to-layer="1107" to-port="0" />
		<edge from-layer="1105" from-port="0" to-layer="1106" to-port="0" />
		<edge from-layer="1106" from-port="1" to-layer="1107" to-port="1" />
		<edge from-layer="1107" from-port="2" to-layer="1110" to-port="0" />
		<edge from-layer="1107" from-port="2" to-layer="1112" to-port="0" />
		<edge from-layer="1108" from-port="0" to-layer="1109" to-port="0" />
		<edge from-layer="1109" from-port="1" to-layer="1110" to-port="1" />
		<edge from-layer="1110" from-port="2" to-layer="1111" to-port="0" />
		<edge from-layer="1111" from-port="1" to-layer="1112" to-port="1" />
		<edge from-layer="1112" from-port="2" to-layer="1113" to-port="0" />
		<edge from-layer="1113" from-port="1" to-layer="1116" to-port="0" />
		<edge from-layer="1114" from-port="0" to-layer="1115" to-port="0" />
		<edge from-layer="1115" from-port="1" to-layer="1116" to-port="1" />
		<edge from-layer="1116" from-port="2" to-layer="1119" to-port="0" />
		<edge from-layer="1117" from-port="0" to-layer="1118" to-port="0" />
		<edge from-layer="1118" from-port="1" to-layer="1119" to-port="1" />
		<edge from-layer="1119" from-port="2" to-layer="1120" to-port="0" />
		<edge from-layer="1120" from-port="1" to-layer="1121" to-port="1" />
		<edge from-layer="1121" from-port="2" to-layer="1123" to-port="0" />
		<edge from-layer="1121" from-port="2" to-layer="1124" to-port="0" />
		<edge from-layer="1121" from-port="2" to-layer="1136" to-port="0" />
		<edge from-layer="1122" from-port="0" to-layer="1123" to-port="1" />
		<edge from-layer="1123" from-port="2" to-layer="1124" to-port="1" />
		<edge from-layer="1124" from-port="2" to-layer="1133" to-port="0" />
		<edge from-layer="1124" from-port="2" to-layer="1127" to-port="0" />
		<edge from-layer="1125" from-port="0" to-layer="1126" to-port="0" />
		<edge from-layer="1126" from-port="1" to-layer="1127" to-port="1" />
		<edge from-layer="1127" from-port="2" to-layer="1129" to-port="0" />
		<edge from-layer="1128" from-port="0" to-layer="1129" to-port="1" />
		<edge from-layer="1129" from-port="2" to-layer="1131" to-port="0" />
		<edge from-layer="1130" from-port="0" to-layer="1131" to-port="1" />
		<edge from-layer="1131" from-port="2" to-layer="1132" to-port="0" />
		<edge from-layer="1132" from-port="1" to-layer="1133" to-port="1" />
		<edge from-layer="1133" from-port="2" to-layer="1145" to-port="0" />
		<edge from-layer="1134" from-port="0" to-layer="1135" to-port="0" />
		<edge from-layer="1135" from-port="1" to-layer="1144" to-port="0" />
		<edge from-layer="1136" from-port="1" to-layer="1143" to-port="0" />
		<edge from-layer="1137" from-port="0" to-layer="1143" to-port="1" />
		<edge from-layer="1137" from-port="0" to-layer="1140" to-port="0" />
		<edge from-layer="1138" from-port="0" to-layer="1143" to-port="2" />
		<edge from-layer="1139" from-port="0" to-layer="1141" to-port="0" />
		<edge from-layer="1140" from-port="1" to-layer="1141" to-port="1" />
		<edge from-layer="1141" from-port="2" to-layer="1143" to-port="3" />
		<edge from-layer="1142" from-port="0" to-layer="1143" to-port="4" />
		<edge from-layer="1143" from-port="5" to-layer="1147" to-port="1" />
		<edge from-layer="1143" from-port="5" to-layer="1144" to-port="1" />
		<edge from-layer="1144" from-port="2" to-layer="1145" to-port="1" />
		<edge from-layer="1145" from-port="2" to-layer="1148" to-port="0" />
		<edge from-layer="1146" from-port="0" to-layer="1147" to-port="0" />
		<edge from-layer="1147" from-port="2" to-layer="1148" to-port="1" />
		<edge from-layer="1148" from-port="2" to-layer="1150" to-port="0" />
		<edge from-layer="1149" from-port="0" to-layer="1150" to-port="1" />
		<edge from-layer="1150" from-port="2" to-layer="1152" to-port="0" />
		<edge from-layer="1151" from-port="0" to-layer="1152" to-port="1" />
		<edge from-layer="1152" from-port="2" to-layer="1155" to-port="0" />
		<edge from-layer="1153" from-port="0" to-layer="1154" to-port="0" />
		<edge from-layer="1154" from-port="1" to-layer="1155" to-port="1" />
		<edge from-layer="1155" from-port="2" to-layer="1163" to-port="0" />
		<edge from-layer="1156" from-port="0" to-layer="1157" to-port="0" />
		<edge from-layer="1157" from-port="1" to-layer="1163" to-port="1" />
		<edge from-layer="1158" from-port="0" to-layer="1159" to-port="0" />
		<edge from-layer="1159" from-port="1" to-layer="1163" to-port="2" />
		<edge from-layer="1160" from-port="0" to-layer="1161" to-port="0" />
		<edge from-layer="1161" from-port="1" to-layer="1163" to-port="3" />
		<edge from-layer="1162" from-port="0" to-layer="1163" to-port="4" />
		<edge from-layer="1163" from-port="5" to-layer="1166" to-port="0" />
		<edge from-layer="1163" from-port="5" to-layer="1168" to-port="0" />
		<edge from-layer="1164" from-port="0" to-layer="1165" to-port="0" />
		<edge from-layer="1165" from-port="1" to-layer="1166" to-port="1" />
		<edge from-layer="1166" from-port="2" to-layer="1167" to-port="0" />
		<edge from-layer="1167" from-port="1" to-layer="1168" to-port="1" />
		<edge from-layer="1168" from-port="2" to-layer="1169" to-port="1" />
		<edge from-layer="1169" from-port="2" to-layer="1171" to-port="0" />
		<edge from-layer="1170" from-port="0" to-layer="1171" to-port="1" />
		<edge from-layer="1171" from-port="2" to-layer="1180" to-port="0" />
		<edge from-layer="1172" from-port="0" to-layer="1173" to-port="0" />
		<edge from-layer="1173" from-port="1" to-layer="1180" to-port="1" />
		<edge from-layer="1174" from-port="0" to-layer="1175" to-port="0" />
		<edge from-layer="1175" from-port="1" to-layer="1180" to-port="2" />
		<edge from-layer="1176" from-port="0" to-layer="1177" to-port="0" />
		<edge from-layer="1177" from-port="1" to-layer="1180" to-port="3" />
		<edge from-layer="1178" from-port="0" to-layer="1179" to-port="0" />
		<edge from-layer="1179" from-port="1" to-layer="1180" to-port="4" />
		<edge from-layer="1180" from-port="5" to-layer="1185" to-port="0" />
		<edge from-layer="1180" from-port="5" to-layer="1183" to-port="0" />
		<edge from-layer="1181" from-port="0" to-layer="1182" to-port="0" />
		<edge from-layer="1182" from-port="1" to-layer="1183" to-port="1" />
		<edge from-layer="1183" from-port="2" to-layer="1184" to-port="0" />
		<edge from-layer="1184" from-port="1" to-layer="1185" to-port="1" />
		<edge from-layer="1185" from-port="2" to-layer="1188" to-port="0" />
		<edge from-layer="1186" from-port="0" to-layer="1187" to-port="0" />
		<edge from-layer="1187" from-port="1" to-layer="1188" to-port="1" />
		<edge from-layer="1188" from-port="2" to-layer="1196" to-port="0" />
		<edge from-layer="1189" from-port="0" to-layer="1190" to-port="0" />
		<edge from-layer="1190" from-port="1" to-layer="1196" to-port="1" />
		<edge from-layer="1191" from-port="0" to-layer="1192" to-port="0" />
		<edge from-layer="1192" from-port="1" to-layer="1196" to-port="2" />
		<edge from-layer="1193" from-port="0" to-layer="1194" to-port="0" />
		<edge from-layer="1194" from-port="1" to-layer="1196" to-port="3" />
		<edge from-layer="1195" from-port="0" to-layer="1196" to-port="4" />
		<edge from-layer="1196" from-port="5" to-layer="1199" to-port="0" />
		<edge from-layer="1196" from-port="5" to-layer="1201" to-port="0" />
		<edge from-layer="1197" from-port="0" to-layer="1198" to-port="0" />
		<edge from-layer="1198" from-port="1" to-layer="1199" to-port="1" />
		<edge from-layer="1199" from-port="2" to-layer="1200" to-port="0" />
		<edge from-layer="1200" from-port="1" to-layer="1201" to-port="1" />
		<edge from-layer="1201" from-port="2" to-layer="1203" to-port="0" />
		<edge from-layer="1202" from-port="0" to-layer="1203" to-port="1" />
		<edge from-layer="1203" from-port="2" to-layer="1205" to-port="0" />
		<edge from-layer="1204" from-port="0" to-layer="1205" to-port="1" />
		<edge from-layer="1205" from-port="2" to-layer="1208" to-port="0" />
		<edge from-layer="1206" from-port="0" to-layer="1207" to-port="0" />
		<edge from-layer="1207" from-port="1" to-layer="1208" to-port="1" />
		<edge from-layer="1208" from-port="2" to-layer="1211" to-port="0" />
		<edge from-layer="1209" from-port="0" to-layer="1210" to-port="0" />
		<edge from-layer="1210" from-port="1" to-layer="1211" to-port="1" />
		<edge from-layer="1211" from-port="2" to-layer="1212" to-port="0" />
		<edge from-layer="1212" from-port="1" to-layer="1213" to-port="0" />
	</edges>
	<rt_info>
		<info name="OpenVINO Runtime" value="2026.2.0-21903-52ddc073857-releases/2026/2" />
		<framework>
			<character value="'&#10;疗&#10;绚&#10;诚&#10;娇&#10;溜&#10;题&#10;贿&#10;者&#10;廖&#10;更&#10;纳&#10;加&#10;奉&#10;公&#10;一&#10;就&#10;汴&#10;计&#10;与&#10;路&#10;房&#10;原&#10;妇&#10;2&#10;0&#10;8&#10;-&#10;7&#10;其&#10;>&#10;:&#10;]&#10;,&#10;，&#10;骑&#10;刈&#10;全&#10;消&#10;昏&#10;傈&#10;安&#10;久&#10;钟&#10;嗅&#10;不&#10;影&#10;处&#10;驽&#10;蜿&#10;资&#10;关&#10;椤&#10;地&#10;瘸&#10;专&#10;问&#10;忖&#10;票&#10;嫉&#10;炎&#10;韵&#10;要&#10;月&#10;田&#10;节&#10;陂&#10;鄙&#10;捌&#10;备&#10;拳&#10;伺&#10;眼&#10;网&#10;盎&#10;大&#10;傍&#10;心&#10;东&#10;愉&#10;汇&#10;蹿&#10;科&#10;每&#10;业&#10;里&#10;航&#10;晏&#10;字&#10;平&#10;录&#10;先&#10;1&#10;3&#10;彤&#10;鲶&#10;产&#10;稍&#10;督&#10;腴&#10;有&#10;象&#10;岳&#10;注&#10;绍&#10;在&#10;泺&#10;文&#10;定&#10;核&#10;名&#10;水&#10;过&#10;理&#10;让&#10;偷&#10;率&#10;等&#10;这&#10;发&#10;”&#10;为&#10;含&#10;肥&#10;酉&#10;相&#10;鄱&#10;七&#10;编&#10;猥&#10;锛&#10;日&#10;镀&#10;蒂&#10;掰&#10;倒&#10;辆&#10;栾&#10;栗&#10;综&#10;涩&#10;州&#10;雌&#10;滑&#10;馀&#10;了&#10;机&#10;块&#10;司&#10;宰&#10;甙&#10;兴&#10;矽&#10;抚&#10;保&#10;用&#10;沧&#10;秩&#10;如&#10;收&#10;息&#10;滥&#10;页&#10;疑&#10;埠&#10;!&#10;！&#10;姥&#10;异&#10;橹&#10;钇&#10;向&#10;下&#10;跄&#10;的&#10;椴&#10;沫&#10;国&#10;绥&#10;獠&#10;报&#10;开&#10;民&#10;蜇&#10;何&#10;分&#10;凇&#10;长&#10;讥&#10;藏&#10;掏&#10;施&#10;羽&#10;中&#10;讲&#10;派&#10;嘟&#10;人&#10;提&#10;浼&#10;间&#10;世&#10;而&#10;古&#10;多&#10;倪&#10;唇&#10;饯&#10;控&#10;庚&#10;首&#10;赛&#10;蜓&#10;味&#10;断&#10;制&#10;觉&#10;技&#10;替&#10;艰&#10;溢&#10;潮&#10;夕&#10;钺&#10;外&#10;摘&#10;枋&#10;动&#10;双&#10;单&#10;啮&#10;户&#10;枇&#10;确&#10;锦&#10;曜&#10;杜&#10;或&#10;能&#10;效&#10;霜&#10;盒&#10;然&#10;侗&#10;电&#10;晁&#10;放&#10;步&#10;鹃&#10;新&#10;杖&#10;蜂&#10;吒&#10;濂&#10;瞬&#10;评&#10;总&#10;隍&#10;对&#10;独&#10;合&#10;也&#10;是&#10;府&#10;青&#10;天&#10;诲&#10;墙&#10;组&#10;滴&#10;级&#10;邀&#10;帘&#10;示&#10;已&#10;时&#10;骸&#10;仄&#10;泅&#10;和&#10;遨&#10;店&#10;雇&#10;疫&#10;持&#10;巍&#10;踮&#10;境&#10;只&#10;亨&#10;目&#10;鉴&#10;崤&#10;闲&#10;体&#10;泄&#10;杂&#10;作&#10;般&#10;轰&#10;化&#10;解&#10;迂&#10;诿&#10;蛭&#10;璀&#10;腾&#10;告&#10;版&#10;服&#10;省&#10;师&#10;小&#10;规&#10;程&#10;线&#10;海&#10;办&#10;引&#10;二&#10;桧&#10;牌&#10;砺&#10;洄&#10;裴&#10;修&#10;图&#10;痫&#10;胡&#10;许&#10;犊&#10;事&#10;郛&#10;基&#10;柴&#10;呼&#10;食&#10;研&#10;奶&#10;律&#10;蛋&#10;因&#10;葆&#10;察&#10;戏&#10;褒&#10;戒&#10;再&#10;李&#10;骁&#10;工&#10;貂&#10;油&#10;鹅&#10;章&#10;啄&#10;休&#10;场&#10;给&#10;睡&#10;纷&#10;豆&#10;器&#10;捎&#10;说&#10;敏&#10;学&#10;会&#10;浒&#10;设&#10;诊&#10;格&#10;廓&#10;查&#10;来&#10;霓&#10;室&#10;溆&#10;￠&#10;诡&#10;寥&#10;焕&#10;舜&#10;柒&#10;狐&#10;回&#10;戟&#10;砾&#10;厄&#10;实&#10;翩&#10;尿&#10;五&#10;入&#10;径&#10;惭&#10;喹&#10;股&#10;宇&#10;篝&#10;|&#10;;&#10;美&#10;期&#10;云&#10;九&#10;祺&#10;扮&#10;靠&#10;锝&#10;槌&#10;系&#10;企&#10;酰&#10;阊&#10;暂&#10;蚕&#10;忻&#10;豁&#10;本&#10;羹&#10;执&#10;条&#10;钦&#10;H&#10;獒&#10;限&#10;进&#10;季&#10;楦&#10;于&#10;芘&#10;玖&#10;铋&#10;茯&#10;未&#10;答&#10;粘&#10;括&#10;样&#10;精&#10;欠&#10;矢&#10;甥&#10;帷&#10;嵩&#10;扣&#10;令&#10;仔&#10;风&#10;皈&#10;行&#10;支&#10;部&#10;蓉&#10;刮&#10;站&#10;蜡&#10;救&#10;钊&#10;汗&#10;松&#10;嫌&#10;成&#10;可&#10;.&#10;鹤&#10;院&#10;从&#10;交&#10;政&#10;怕&#10;活&#10;调&#10;球&#10;局&#10;验&#10;髌&#10;第&#10;韫&#10;谗&#10;串&#10;到&#10;圆&#10;年&#10;米&#10;/&#10;*&#10;友&#10;忿&#10;检&#10;区&#10;看&#10;自&#10;敢&#10;刃&#10;个&#10;兹&#10;弄&#10;流&#10;留&#10;同&#10;没&#10;齿&#10;星&#10;聆&#10;轼&#10;湖&#10;什&#10;三&#10;建&#10;蛔&#10;儿&#10;椋&#10;汕&#10;震&#10;颧&#10;鲤&#10;跟&#10;力&#10;情&#10;璺&#10;铨&#10;陪&#10;务&#10;指&#10;族&#10;训&#10;滦&#10;鄣&#10;濮&#10;扒&#10;商&#10;箱&#10;十&#10;召&#10;慷&#10;辗&#10;所&#10;莞&#10;管&#10;护&#10;臭&#10;横&#10;硒&#10;嗓&#10;接&#10;侦&#10;六&#10;露&#10;党&#10;馋&#10;驾&#10;剖&#10;高&#10;侬&#10;妪&#10;幂&#10;猗&#10;绺&#10;骐&#10;央&#10;酐&#10;孝&#10;筝&#10;课&#10;徇&#10;缰&#10;门&#10;男&#10;西&#10;项&#10;句&#10;谙&#10;瞒&#10;秃&#10;篇&#10;教&#10;碲&#10;罚&#10;声&#10;呐&#10;景&#10;前&#10;富&#10;嘴&#10;鳌&#10;稀&#10;免&#10;朋&#10;啬&#10;睐&#10;去&#10;赈&#10;鱼&#10;住&#10;肩&#10;愕&#10;速&#10;旁&#10;波&#10;厅&#10;健&#10;茼&#10;厥&#10;鲟&#10;谅&#10;投&#10;攸&#10;炔&#10;数&#10;方&#10;击&#10;呋&#10;谈&#10;绩&#10;别&#10;愫&#10;僚&#10;躬&#10;鹧&#10;胪&#10;炳&#10;招&#10;喇&#10;膨&#10;泵&#10;蹦&#10;毛&#10;结&#10;5&#10;4&#10;谱&#10;识&#10;陕&#10;粽&#10;婚&#10;拟&#10;构&#10;且&#10;搜&#10;任&#10;潘&#10;比&#10;郢&#10;妨&#10;醪&#10;陀&#10;桔&#10;碘&#10;扎&#10;选&#10;哈&#10;骷&#10;楷&#10;亿&#10;明&#10;缆&#10;脯&#10;监&#10;睫&#10;逻&#10;婵&#10;共&#10;赴&#10;淝&#10;凡&#10;惦&#10;及&#10;达&#10;揖&#10;谩&#10;澹&#10;减&#10;焰&#10;蛹&#10;番&#10;祁&#10;柏&#10;员&#10;禄&#10;怡&#10;峤&#10;龙&#10;白&#10;叽&#10;生&#10;闯&#10;起&#10;细&#10;装&#10;谕&#10;竟&#10;聚&#10;钙&#10;上&#10;导&#10;渊&#10;按&#10;艾&#10;辘&#10;挡&#10;耒&#10;盹&#10;饪&#10;臀&#10;记&#10;邮&#10;蕙&#10;受&#10;各&#10;医&#10;搂&#10;普&#10;滇&#10;朗&#10;茸&#10;带&#10;翻&#10;酚&#10;(&#10;光&#10;堤&#10;墟&#10;蔷&#10;万&#10;幻&#10;〓&#10;瑙&#10;辈&#10;昧&#10;盏&#10;亘&#10;蛀&#10;吉&#10;铰&#10;请&#10;子&#10;假&#10;闻&#10;税&#10;井&#10;诩&#10;哨&#10;嫂&#10;好&#10;面&#10;琐&#10;校&#10;馊&#10;鬣&#10;缂&#10;营&#10;访&#10;炖&#10;占&#10;农&#10;缀&#10;否&#10;经&#10;钚&#10;棵&#10;趟&#10;张&#10;亟&#10;吏&#10;茶&#10;谨&#10;捻&#10;论&#10;迸&#10;堂&#10;玉&#10;信&#10;吧&#10;瞠&#10;乡&#10;姬&#10;寺&#10;咬&#10;溏&#10;苄&#10;皿&#10;意&#10;赉&#10;宝&#10;尔&#10;钰&#10;艺&#10;特&#10;唳&#10;踉&#10;都&#10;荣&#10;倚&#10;登&#10;荐&#10;丧&#10;奇&#10;涵&#10;批&#10;炭&#10;近&#10;符&#10;傩&#10;感&#10;道&#10;着&#10;菊&#10;虹&#10;仲&#10;众&#10;懈&#10;濯&#10;颞&#10;眺&#10;南&#10;释&#10;北&#10;缝&#10;标&#10;既&#10;茗&#10;整&#10;撼&#10;迤&#10;贲&#10;挎&#10;耱&#10;拒&#10;某&#10;妍&#10;卫&#10;哇&#10;英&#10;矶&#10;藩&#10;治&#10;他&#10;元&#10;领&#10;膜&#10;遮&#10;穗&#10;蛾&#10;飞&#10;荒&#10;棺&#10;劫&#10;么&#10;市&#10;火&#10;温&#10;拈&#10;棚&#10;洼&#10;转&#10;果&#10;奕&#10;卸&#10;迪&#10;伸&#10;泳&#10;斗&#10;邡&#10;侄&#10;涨&#10;屯&#10;萋&#10;胭&#10;氡&#10;崮&#10;枞&#10;惧&#10;冒&#10;彩&#10;斜&#10;手&#10;豚&#10;随&#10;旭&#10;淑&#10;妞&#10;形&#10;菌&#10;吲&#10;沱&#10;争&#10;驯&#10;歹&#10;挟&#10;兆&#10;柱&#10;传&#10;至&#10;包&#10;内&#10;响&#10;临&#10;红&#10;功&#10;弩&#10;衡&#10;寂&#10;禁&#10;老&#10;棍&#10;耆&#10;渍&#10;织&#10;害&#10;氵&#10;渑&#10;布&#10;载&#10;靥&#10;嗬&#10;虽&#10;苹&#10;咨&#10;娄&#10;库&#10;雉&#10;榜&#10;帜&#10;嘲&#10;套&#10;瑚&#10;亲&#10;簸&#10;欧&#10;边&#10;6&#10;腿&#10;旮&#10;抛&#10;吹&#10;瞳&#10;得&#10;镓&#10;梗&#10;厨&#10;继&#10;漾&#10;愣&#10;憨&#10;士&#10;策&#10;窑&#10;抑&#10;躯&#10;襟&#10;脏&#10;参&#10;贸&#10;言&#10;干&#10;绸&#10;鳄&#10;穷&#10;藜&#10;音&#10;折&#10;详&#10;)&#10;举&#10;悍&#10;甸&#10;癌&#10;黎&#10;谴&#10;死&#10;罩&#10;迁&#10;寒&#10;驷&#10;袖&#10;媒&#10;蒋&#10;掘&#10;模&#10;纠&#10;恣&#10;观&#10;祖&#10;蛆&#10;碍&#10;位&#10;稿&#10;主&#10;澧&#10;跌&#10;筏&#10;京&#10;锏&#10;帝&#10;贴&#10;证&#10;糠&#10;才&#10;黄&#10;鲸&#10;略&#10;炯&#10;饱&#10;四&#10;出&#10;园&#10;犀&#10;牧&#10;容&#10;汉&#10;杆&#10;浈&#10;汰&#10;瑷&#10;造&#10;虫&#10;瘩&#10;怪&#10;驴&#10;济&#10;应&#10;花&#10;沣&#10;谔&#10;夙&#10;旅&#10;价&#10;矿&#10;以&#10;考&#10;s&#10;u&#10;呦&#10;晒&#10;巡&#10;茅&#10;准&#10;肟&#10;瓴&#10;詹&#10;仟&#10;褂&#10;译&#10;桌&#10;混&#10;宁&#10;怦&#10;郑&#10;抿&#10;些&#10;余&#10;鄂&#10;饴&#10;攒&#10;珑&#10;群&#10;阖&#10;岔&#10;琨&#10;藓&#10;预&#10;环&#10;洮&#10;岌&#10;宀&#10;杲&#10;瀵&#10;最&#10;常&#10;囡&#10;周&#10;踊&#10;女&#10;鼓&#10;袭&#10;喉&#10;简&#10;范&#10;薯&#10;遐&#10;疏&#10;粱&#10;黜&#10;禧&#10;法&#10;箔&#10;斤&#10;遥&#10;汝&#10;奥&#10;直&#10;贞&#10;撑&#10;置&#10;绱&#10;集&#10;她&#10;馅&#10;逗&#10;钧&#10;橱&#10;魉&#10;[&#10;恙&#10;躁&#10;唤&#10;9&#10;旺&#10;膘&#10;待&#10;脾&#10;惫&#10;购&#10;吗&#10;依&#10;盲&#10;度&#10;瘿&#10;蠖&#10;俾&#10;之&#10;镗&#10;拇&#10;鲵&#10;厝&#10;簧&#10;续&#10;款&#10;展&#10;啃&#10;表&#10;剔&#10;品&#10;钻&#10;腭&#10;损&#10;清&#10;锶&#10;统&#10;涌&#10;寸&#10;滨&#10;贪&#10;链&#10;吠&#10;冈&#10;伎&#10;迥&#10;咏&#10;吁&#10;览&#10;防&#10;迅&#10;失&#10;汾&#10;阔&#10;逵&#10;绀&#10;蔑&#10;列&#10;川&#10;凭&#10;努&#10;熨&#10;揪&#10;利&#10;俱&#10;绉&#10;抢&#10;鸨&#10;我&#10;即&#10;责&#10;膦&#10;易&#10;毓&#10;鹊&#10;刹&#10;玷&#10;岿&#10;空&#10;嘞&#10;绊&#10;排&#10;术&#10;估&#10;锷&#10;违&#10;们&#10;苟&#10;铜&#10;播&#10;肘&#10;件&#10;烫&#10;审&#10;鲂&#10;广&#10;像&#10;铌&#10;惰&#10;铟&#10;巳&#10;胍&#10;鲍&#10;康&#10;憧&#10;色&#10;恢&#10;想&#10;拷&#10;尤&#10;疳&#10;知&#10;S&#10;Y&#10;F&#10;D&#10;A&#10;峄&#10;裕&#10;帮&#10;握&#10;搔&#10;氐&#10;氘&#10;难&#10;墒&#10;沮&#10;雨&#10;叁&#10;缥&#10;悴&#10;藐&#10;湫&#10;娟&#10;苑&#10;稠&#10;颛&#10;簇&#10;后&#10;阕&#10;闭&#10;蕤&#10;缚&#10;怎&#10;佞&#10;码&#10;嘤&#10;蔡&#10;痊&#10;舱&#10;螯&#10;帕&#10;赫&#10;昵&#10;升&#10;烬&#10;岫&#10;、&#10;疵&#10;蜻&#10;髁&#10;蕨&#10;隶&#10;烛&#10;械&#10;丑&#10;盂&#10;梁&#10;强&#10;鲛&#10;由&#10;拘&#10;揉&#10;劭&#10;龟&#10;撤&#10;钩&#10;呕&#10;孛&#10;费&#10;妻&#10;漂&#10;求&#10;阑&#10;崖&#10;秤&#10;甘&#10;通&#10;深&#10;补&#10;赃&#10;坎&#10;床&#10;啪&#10;承&#10;吼&#10;量&#10;暇&#10;钼&#10;烨&#10;阂&#10;擎&#10;脱&#10;逮&#10;称&#10;P&#10;神&#10;属&#10;矗&#10;华&#10;届&#10;狍&#10;葑&#10;汹&#10;育&#10;患&#10;窒&#10;蛰&#10;佼&#10;静&#10;槎&#10;运&#10;鳗&#10;庆&#10;逝&#10;曼&#10;疱&#10;克&#10;代&#10;官&#10;此&#10;麸&#10;耧&#10;蚌&#10;晟&#10;例&#10;础&#10;榛&#10;副&#10;测&#10;唰&#10;缢&#10;迹&#10;灬&#10;霁&#10;身&#10;岁&#10;赭&#10;扛&#10;又&#10;菡&#10;乜&#10;雾&#10;板&#10;读&#10;陷&#10;徉&#10;贯&#10;郁&#10;虑&#10;变&#10;钓&#10;菜&#10;圾&#10;现&#10;琢&#10;式&#10;乐&#10;维&#10;渔&#10;浜&#10;左&#10;吾&#10;脑&#10;钡&#10;警&#10;T&#10;啵&#10;拴&#10;偌&#10;漱&#10;湿&#10;硕&#10;止&#10;骼&#10;魄&#10;积&#10;燥&#10;联&#10;踢&#10;玛&#10;则&#10;窿&#10;见&#10;振&#10;畿&#10;送&#10;班&#10;钽&#10;您&#10;赵&#10;刨&#10;印&#10;讨&#10;踝&#10;籍&#10;谡&#10;舌&#10;崧&#10;汽&#10;蔽&#10;沪&#10;酥&#10;绒&#10;怖&#10;财&#10;帖&#10;肱&#10;私&#10;莎&#10;勋&#10;羔&#10;霸&#10;励&#10;哼&#10;帐&#10;将&#10;帅&#10;渠&#10;纪&#10;婴&#10;娩&#10;岭&#10;厘&#10;滕&#10;吻&#10;伤&#10;坝&#10;冠&#10;戊&#10;隆&#10;瘁&#10;介&#10;涧&#10;物&#10;黍&#10;并&#10;姗&#10;奢&#10;蹑&#10;掣&#10;垸&#10;锴&#10;命&#10;箍&#10;捉&#10;病&#10;辖&#10;琰&#10;眭&#10;迩&#10;艘&#10;绌&#10;繁&#10;寅&#10;若&#10;毋&#10;思&#10;诉&#10;类&#10;诈&#10;燮&#10;轲&#10;酮&#10;狂&#10;重&#10;反&#10;职&#10;筱&#10;县&#10;委&#10;磕&#10;绣&#10;奖&#10;晋&#10;濉&#10;志&#10;徽&#10;肠&#10;呈&#10;獐&#10;坻&#10;口&#10;片&#10;碰&#10;几&#10;村&#10;柿&#10;劳&#10;料&#10;获&#10;亩&#10;惕&#10;晕&#10;厌&#10;号&#10;罢&#10;池&#10;正&#10;鏖&#10;煨&#10;家&#10;棕&#10;复&#10;尝&#10;懋&#10;蜥&#10;锅&#10;岛&#10;扰&#10;队&#10;坠&#10;瘾&#10;钬&#10;@&#10;卧&#10;疣&#10;镇&#10;譬&#10;冰&#10;彷&#10;频&#10;黯&#10;据&#10;垄&#10;采&#10;八&#10;缪&#10;瘫&#10;型&#10;熹&#10;砰&#10;楠&#10;襁&#10;箐&#10;但&#10;嘶&#10;绳&#10;啤&#10;拍&#10;盥&#10;穆&#10;傲&#10;洗&#10;盯&#10;塘&#10;怔&#10;筛&#10;丿&#10;台&#10;恒&#10;喂&#10;葛&#10;永&#10;￥&#10;烟&#10;酒&#10;桦&#10;书&#10;砂&#10;蚝&#10;缉&#10;态&#10;瀚&#10;袄&#10;圳&#10;轻&#10;蛛&#10;超&#10;榧&#10;遛&#10;姒&#10;奘&#10;铮&#10;右&#10;荽&#10;望&#10;偻&#10;卡&#10;丶&#10;氰&#10;附&#10;做&#10;革&#10;索&#10;戚&#10;坨&#10;桷&#10;唁&#10;垅&#10;榻&#10;岐&#10;偎&#10;坛&#10;莨&#10;山&#10;殊&#10;微&#10;骇&#10;陈&#10;爨&#10;推&#10;嗝&#10;驹&#10;澡&#10;藁&#10;呤&#10;卤&#10;嘻&#10;糅&#10;逛&#10;侵&#10;郓&#10;酌&#10;德&#10;摇&#10;※&#10;鬃&#10;被&#10;慨&#10;殡&#10;羸&#10;昌&#10;泡&#10;戛&#10;鞋&#10;河&#10;宪&#10;沿&#10;玲&#10;鲨&#10;翅&#10;哽&#10;源&#10;铅&#10;语&#10;照&#10;邯&#10;址&#10;荃&#10;佬&#10;顺&#10;鸳&#10;町&#10;霭&#10;睾&#10;瓢&#10;夸&#10;椁&#10;晓&#10;酿&#10;痈&#10;咔&#10;侏&#10;券&#10;噎&#10;湍&#10;签&#10;嚷&#10;离&#10;午&#10;尚&#10;社&#10;锤&#10;背&#10;孟&#10;使&#10;浪&#10;缦&#10;潍&#10;鞅&#10;军&#10;姹&#10;驶&#10;笑&#10;鳟&#10;鲁&#10;》&#10;孽&#10;钜&#10;绿&#10;洱&#10;礴&#10;焯&#10;椰&#10;颖&#10;囔&#10;乌&#10;孔&#10;巴&#10;互&#10;性&#10;椽&#10;哞&#10;聘&#10;昨&#10;早&#10;暮&#10;胶&#10;炀&#10;隧&#10;低&#10;彗&#10;昝&#10;铁&#10;呓&#10;氽&#10;藉&#10;喔&#10;癖&#10;瑗&#10;姨&#10;权&#10;胱&#10;韦&#10;堑&#10;蜜&#10;酋&#10;楝&#10;砝&#10;毁&#10;靓&#10;歙&#10;锲&#10;究&#10;屋&#10;喳&#10;骨&#10;辨&#10;碑&#10;武&#10;鸠&#10;宫&#10;辜&#10;烊&#10;适&#10;坡&#10;殃&#10;培&#10;佩&#10;供&#10;走&#10;蜈&#10;迟&#10;翼&#10;况&#10;姣&#10;凛&#10;浔&#10;吃&#10;飘&#10;债&#10;犟&#10;金&#10;促&#10;苛&#10;崇&#10;坂&#10;莳&#10;畔&#10;绂&#10;兵&#10;蠕&#10;斋&#10;根&#10;砍&#10;亢&#10;欢&#10;恬&#10;崔&#10;剁&#10;餐&#10;榫&#10;快&#10;扶&#10;‖&#10;濒&#10;缠&#10;鳜&#10;当&#10;彭&#10;驭&#10;浦&#10;篮&#10;昀&#10;锆&#10;秸&#10;钳&#10;弋&#10;娣&#10;瞑&#10;夷&#10;龛&#10;苫&#10;拱&#10;致&#10;%&#10;嵊&#10;障&#10;隐&#10;弑&#10;初&#10;娓&#10;抉&#10;汩&#10;累&#10;蓖&#10;&quot;&#10;唬&#10;助&#10;苓&#10;昙&#10;押&#10;毙&#10;破&#10;城&#10;郧&#10;逢&#10;嚏&#10;獭&#10;瞻&#10;溱&#10;婿&#10;赊&#10;跨&#10;恼&#10;璧&#10;萃&#10;姻&#10;貉&#10;灵&#10;炉&#10;密&#10;氛&#10;陶&#10;砸&#10;谬&#10;衔&#10;点&#10;琛&#10;沛&#10;枳&#10;层&#10;岱&#10;诺&#10;脍&#10;榈&#10;埂&#10;征&#10;冷&#10;裁&#10;打&#10;蹴&#10;素&#10;瘘&#10;逞&#10;蛐&#10;聊&#10;激&#10;腱&#10;萘&#10;踵&#10;飒&#10;蓟&#10;吆&#10;取&#10;咙&#10;簋&#10;涓&#10;矩&#10;曝&#10;挺&#10;揣&#10;座&#10;你&#10;史&#10;舵&#10;焱&#10;尘&#10;苏&#10;笈&#10;脚&#10;溉&#10;榨&#10;诵&#10;樊&#10;邓&#10;焊&#10;义&#10;庶&#10;儋&#10;蟋&#10;蒲&#10;赦&#10;呷&#10;杞&#10;诠&#10;豪&#10;还&#10;试&#10;颓&#10;茉&#10;太&#10;除&#10;紫&#10;逃&#10;痴&#10;草&#10;充&#10;鳕&#10;珉&#10;祗&#10;墨&#10;渭&#10;烩&#10;蘸&#10;慕&#10;璇&#10;镶&#10;穴&#10;嵘&#10;恶&#10;骂&#10;险&#10;绋&#10;幕&#10;碉&#10;肺&#10;戳&#10;刘&#10;潞&#10;秣&#10;纾&#10;潜&#10;銮&#10;洛&#10;须&#10;罘&#10;销&#10;瘪&#10;汞&#10;兮&#10;屉&#10;r&#10;林&#10;厕&#10;质&#10;探&#10;划&#10;狸&#10;殚&#10;善&#10;煊&#10;烹&#10;〒&#10;锈&#10;逯&#10;宸&#10;辍&#10;泱&#10;柚&#10;袍&#10;远&#10;蹋&#10;嶙&#10;绝&#10;峥&#10;娥&#10;缍&#10;雀&#10;徵&#10;认&#10;镱&#10;谷&#10;=&#10;贩&#10;勉&#10;撩&#10;鄯&#10;斐&#10;洋&#10;非&#10;祚&#10;泾&#10;诒&#10;饿&#10;撬&#10;威&#10;晷&#10;搭&#10;芍&#10;锥&#10;笺&#10;蓦&#10;候&#10;琊&#10;档&#10;礁&#10;沼&#10;卵&#10;荠&#10;忑&#10;朝&#10;凹&#10;瑞&#10;头&#10;仪&#10;弧&#10;孵&#10;畏&#10;铆&#10;突&#10;衲&#10;车&#10;浩&#10;气&#10;茂&#10;悖&#10;厢&#10;枕&#10;酝&#10;戴&#10;湾&#10;邹&#10;飚&#10;攘&#10;锂&#10;写&#10;宵&#10;翁&#10;岷&#10;无&#10;喜&#10;丈&#10;挑&#10;嗟&#10;绛&#10;殉&#10;议&#10;槽&#10;具&#10;醇&#10;淞&#10;笃&#10;郴&#10;阅&#10;饼&#10;底&#10;壕&#10;砚&#10;弈&#10;询&#10;缕&#10;庹&#10;翟&#10;零&#10;筷&#10;暨&#10;舟&#10;闺&#10;甯&#10;撞&#10;麂&#10;茌&#10;蔼&#10;很&#10;珲&#10;捕&#10;棠&#10;角&#10;阉&#10;媛&#10;娲&#10;诽&#10;剿&#10;尉&#10;爵&#10;睬&#10;韩&#10;诰&#10;匣&#10;危&#10;糍&#10;镯&#10;立&#10;浏&#10;阳&#10;少&#10;盆&#10;舔&#10;擘&#10;匪&#10;申&#10;尬&#10;铣&#10;旯&#10;抖&#10;赘&#10;瓯&#10;居&#10;ˇ&#10;哮&#10;游&#10;锭&#10;茏&#10;歌&#10;坏&#10;甚&#10;秒&#10;舞&#10;沙&#10;仗&#10;劲&#10;潺&#10;阿&#10;燧&#10;郭&#10;嗖&#10;霏&#10;忠&#10;材&#10;奂&#10;耐&#10;跺&#10;砀&#10;输&#10;岖&#10;媳&#10;氟&#10;极&#10;摆&#10;灿&#10;今&#10;扔&#10;腻&#10;枝&#10;奎&#10;药&#10;熄&#10;吨&#10;话&#10;q&#10;额&#10;慑&#10;嘌&#10;协&#10;喀&#10;壳&#10;埭&#10;视&#10;著&#10;於&#10;愧&#10;陲&#10;翌&#10;峁&#10;颅&#10;佛&#10;腹&#10;聋&#10;侯&#10;咎&#10;叟&#10;秀&#10;颇&#10;存&#10;较&#10;罪&#10;哄&#10;岗&#10;扫&#10;栏&#10;钾&#10;羌&#10;己&#10;璨&#10;枭&#10;霉&#10;煌&#10;涸&#10;衿&#10;键&#10;镝&#10;益&#10;岢&#10;奏&#10;连&#10;夯&#10;睿&#10;冥&#10;均&#10;糖&#10;狞&#10;蹊&#10;稻&#10;爸&#10;刿&#10;胥&#10;煜&#10;丽&#10;肿&#10;璃&#10;掸&#10;跚&#10;灾&#10;垂&#10;樾&#10;濑&#10;乎&#10;莲&#10;窄&#10;犹&#10;撮&#10;战&#10;馄&#10;软&#10;络&#10;显&#10;鸢&#10;胸&#10;宾&#10;妲&#10;恕&#10;埔&#10;蝌&#10;份&#10;遇&#10;巧&#10;瞟&#10;粒&#10;恰&#10;剥&#10;桡&#10;博&#10;讯&#10;凯&#10;堇&#10;阶&#10;滤&#10;卖&#10;斌&#10;骚&#10;彬&#10;兑&#10;磺&#10;樱&#10;舷&#10;两&#10;娱&#10;福&#10;仃&#10;差&#10;找&#10;桁&#10;÷&#10;净&#10;把&#10;阴&#10;污&#10;戬&#10;雷&#10;碓&#10;蕲&#10;楚&#10;罡&#10;焖&#10;抽&#10;妫&#10;咒&#10;仑&#10;闱&#10;尽&#10;邑&#10;菁&#10;爱&#10;贷&#10;沥&#10;鞑&#10;牡&#10;嗉&#10;崴&#10;骤&#10;塌&#10;嗦&#10;订&#10;拮&#10;滓&#10;捡&#10;锻&#10;次&#10;坪&#10;杩&#10;臃&#10;箬&#10;融&#10;珂&#10;鹗&#10;宗&#10;枚&#10;降&#10;鸬&#10;妯&#10;阄&#10;堰&#10;盐&#10;毅&#10;必&#10;杨&#10;崃&#10;俺&#10;甬&#10;状&#10;莘&#10;货&#10;耸&#10;菱&#10;腼&#10;铸&#10;唏&#10;痤&#10;孚&#10;澳&#10;懒&#10;溅&#10;翘&#10;疙&#10;杷&#10;淼&#10;缙&#10;骰&#10;喊&#10;悉&#10;砻&#10;坷&#10;艇&#10;赁&#10;界&#10;谤&#10;纣&#10;宴&#10;晃&#10;茹&#10;归&#10;饭&#10;梢&#10;铡&#10;街&#10;抄&#10;肼&#10;鬟&#10;苯&#10;颂&#10;撷&#10;戈&#10;炒&#10;咆&#10;茭&#10;瘙&#10;负&#10;仰&#10;客&#10;琉&#10;铢&#10;封&#10;卑&#10;珥&#10;椿&#10;镧&#10;窨&#10;鬲&#10;寿&#10;御&#10;袤&#10;铃&#10;萎&#10;砖&#10;餮&#10;脒&#10;裳&#10;肪&#10;孕&#10;嫣&#10;馗&#10;嵇&#10;恳&#10;氯&#10;江&#10;石&#10;褶&#10;冢&#10;祸&#10;阻&#10;狈&#10;羞&#10;银&#10;靳&#10;透&#10;咳&#10;叼&#10;敷&#10;芷&#10;啥&#10;它&#10;瓤&#10;兰&#10;痘&#10;懊&#10;逑&#10;肌&#10;往&#10;捺&#10;坊&#10;甩&#10;呻&#10;〃&#10;沦&#10;忘&#10;膻&#10;祟&#10;菅&#10;剧&#10;崆&#10;智&#10;坯&#10;臧&#10;霍&#10;墅&#10;攻&#10;眯&#10;倘&#10;拢&#10;骠&#10;铐&#10;庭&#10;岙&#10;瓠&#10;′&#10;缺&#10;泥&#10;迢&#10;捶&#10;?&#10;？&#10;郏&#10;喙&#10;掷&#10;沌&#10;纯&#10;秘&#10;种&#10;听&#10;绘&#10;固&#10;螨&#10;团&#10;香&#10;盗&#10;妒&#10;埚&#10;蓝&#10;拖&#10;旱&#10;荞&#10;铀&#10;血&#10;遏&#10;汲&#10;辰&#10;叩&#10;拽&#10;幅&#10;硬&#10;惶&#10;桀&#10;漠&#10;措&#10;泼&#10;唑&#10;齐&#10;肾&#10;念&#10;酱&#10;虚&#10;屁&#10;耶&#10;旗&#10;砦&#10;闵&#10;婉&#10;馆&#10;拭&#10;绅&#10;韧&#10;忏&#10;窝&#10;醋&#10;葺&#10;顾&#10;辞&#10;倜&#10;堆&#10;辋&#10;逆&#10;玟&#10;贱&#10;疾&#10;董&#10;惘&#10;倌&#10;锕&#10;淘&#10;嘀&#10;莽&#10;俭&#10;笏&#10;绑&#10;鲷&#10;杈&#10;择&#10;蟀&#10;粥&#10;嗯&#10;驰&#10;逾&#10;案&#10;谪&#10;褓&#10;胫&#10;哩&#10;昕&#10;颚&#10;鲢&#10;绠&#10;躺&#10;鹄&#10;崂&#10;儒&#10;俨&#10;丝&#10;尕&#10;泌&#10;啊&#10;萸&#10;彰&#10;幺&#10;吟&#10;骄&#10;苣&#10;弦&#10;脊&#10;瑰&#10;〈&#10;诛&#10;镁&#10;析&#10;闪&#10;剪&#10;侧&#10;哟&#10;框&#10;螃&#10;守&#10;嬗&#10;燕&#10;狭&#10;铈&#10;缮&#10;概&#10;迳&#10;痧&#10;鲲&#10;俯&#10;售&#10;笼&#10;痣&#10;扉&#10;挖&#10;满&#10;咋&#10;援&#10;邱&#10;扇&#10;歪&#10;便&#10;玑&#10;绦&#10;峡&#10;蛇&#10;叨&#10;〖&#10;泽&#10;胃&#10;斓&#10;喋&#10;怂&#10;坟&#10;猪&#10;该&#10;蚬&#10;炕&#10;弥&#10;赞&#10;棣&#10;晔&#10;娠&#10;挲&#10;狡&#10;创&#10;疖&#10;铕&#10;镭&#10;稷&#10;挫&#10;弭&#10;啾&#10;翔&#10;粉&#10;履&#10;苘&#10;哦&#10;楼&#10;秕&#10;铂&#10;土&#10;锣&#10;瘟&#10;挣&#10;栉&#10;习&#10;享&#10;桢&#10;袅&#10;磨&#10;桂&#10;谦&#10;延&#10;坚&#10;蔚&#10;噗&#10;署&#10;谟&#10;猬&#10;钎&#10;恐&#10;嬉&#10;雒&#10;倦&#10;衅&#10;亏&#10;璩&#10;睹&#10;刻&#10;殿&#10;王&#10;算&#10;雕&#10;麻&#10;丘&#10;柯&#10;骆&#10;丸&#10;塍&#10;谚&#10;添&#10;鲈&#10;垓&#10;桎&#10;蚯&#10;芥&#10;予&#10;飕&#10;镦&#10;谌&#10;窗&#10;醚&#10;菀&#10;亮&#10;搪&#10;莺&#10;蒿&#10;羁&#10;足&#10;J&#10;真&#10;轶&#10;悬&#10;衷&#10;靛&#10;翊&#10;掩&#10;哒&#10;炅&#10;掐&#10;冼&#10;妮&#10;l&#10;谐&#10;稚&#10;荆&#10;擒&#10;犯&#10;陵&#10;虏&#10;浓&#10;崽&#10;刍&#10;陌&#10;傻&#10;孜&#10;千&#10;靖&#10;演&#10;矜&#10;钕&#10;煽&#10;杰&#10;酗&#10;渗&#10;伞&#10;栋&#10;俗&#10;泫&#10;戍&#10;罕&#10;沾&#10;疽&#10;灏&#10;煦&#10;芬&#10;磴&#10;叱&#10;阱&#10;榉&#10;湃&#10;蜀&#10;叉&#10;醒&#10;彪&#10;租&#10;郡&#10;篷&#10;屎&#10;良&#10;垢&#10;隗&#10;弱&#10;陨&#10;峪&#10;砷&#10;掴&#10;颁&#10;胎&#10;雯&#10;绵&#10;贬&#10;沐&#10;撵&#10;隘&#10;篙&#10;暖&#10;曹&#10;陡&#10;栓&#10;填&#10;臼&#10;彦&#10;瓶&#10;琪&#10;潼&#10;哪&#10;鸡&#10;摩&#10;啦&#10;俟&#10;锋&#10;域&#10;耻&#10;蔫&#10;疯&#10;纹&#10;撇&#10;毒&#10;绶&#10;痛&#10;酯&#10;忍&#10;爪&#10;赳&#10;歆&#10;嘹&#10;辕&#10;烈&#10;册&#10;朴&#10;钱&#10;吮&#10;毯&#10;癜&#10;娃&#10;谀&#10;邵&#10;厮&#10;炽&#10;璞&#10;邃&#10;丐&#10;追&#10;词&#10;瓒&#10;忆&#10;轧&#10;芫&#10;谯&#10;喷&#10;弟&#10;半&#10;冕&#10;裙&#10;掖&#10;墉&#10;绮&#10;寝&#10;苔&#10;势&#10;顷&#10;褥&#10;切&#10;衮&#10;君&#10;佳&#10;嫒&#10;蚩&#10;霞&#10;佚&#10;洙&#10;逊&#10;镖&#10;暹&#10;唛&#10;&amp;&#10;殒&#10;顶&#10;碗&#10;獗&#10;轭&#10;铺&#10;蛊&#10;废&#10;恹&#10;汨&#10;崩&#10;珍&#10;那&#10;杵&#10;曲&#10;纺&#10;夏&#10;薰&#10;傀&#10;闳&#10;淬&#10;姘&#10;舀&#10;拧&#10;卷&#10;楂&#10;恍&#10;讪&#10;厩&#10;寮&#10;篪&#10;赓&#10;乘&#10;灭&#10;盅&#10;鞣&#10;沟&#10;慎&#10;挂&#10;饺&#10;鼾&#10;杳&#10;树&#10;缨&#10;丛&#10;絮&#10;娌&#10;臻&#10;嗳&#10;篡&#10;侩&#10;述&#10;衰&#10;矛&#10;圈&#10;蚜&#10;匕&#10;筹&#10;匿&#10;濞&#10;晨&#10;叶&#10;骋&#10;郝&#10;挚&#10;蚴&#10;滞&#10;增&#10;侍&#10;描&#10;瓣&#10;吖&#10;嫦&#10;蟒&#10;匾&#10;圣&#10;赌&#10;毡&#10;癞&#10;恺&#10;百&#10;曳&#10;需&#10;篓&#10;肮&#10;庖&#10;帏&#10;卿&#10;驿&#10;遗&#10;蹬&#10;鬓&#10;骡&#10;歉&#10;芎&#10;胳&#10;屐&#10;禽&#10;烦&#10;晌&#10;寄&#10;媾&#10;狄&#10;翡&#10;苒&#10;船&#10;廉&#10;终&#10;痞&#10;殇&#10;々&#10;畦&#10;饶&#10;改&#10;拆&#10;悻&#10;萄&#10;￡&#10;瓿&#10;乃&#10;訾&#10;桅&#10;匮&#10;溧&#10;拥&#10;纱&#10;铍&#10;骗&#10;蕃&#10;龋&#10;缬&#10;父&#10;佐&#10;疚&#10;栎&#10;醍&#10;掳&#10;蓄&#10;x&#10;惆&#10;颜&#10;鲆&#10;榆&#10;〔&#10;猎&#10;敌&#10;暴&#10;谥&#10;鲫&#10;贾&#10;罗&#10;玻&#10;缄&#10;扦&#10;芪&#10;癣&#10;落&#10;徒&#10;臾&#10;恿&#10;猩&#10;托&#10;邴&#10;肄&#10;牵&#10;春&#10;陛&#10;耀&#10;刊&#10;拓&#10;蓓&#10;邳&#10;堕&#10;寇&#10;枉&#10;淌&#10;啡&#10;湄&#10;兽&#10;酷&#10;萼&#10;碚&#10;濠&#10;萤&#10;夹&#10;旬&#10;戮&#10;梭&#10;琥&#10;椭&#10;昔&#10;勺&#10;蜊&#10;绐&#10;晚&#10;孺&#10;僵&#10;宣&#10;摄&#10;冽&#10;旨&#10;萌&#10;忙&#10;蚤&#10;眉&#10;噼&#10;蟑&#10;付&#10;契&#10;瓜&#10;悼&#10;颡&#10;壁&#10;曾&#10;窕&#10;颢&#10;澎&#10;仿&#10;俑&#10;浑&#10;嵌&#10;浣&#10;乍&#10;碌&#10;褪&#10;乱&#10;蔟&#10;隙&#10;玩&#10;剐&#10;葫&#10;箫&#10;纲&#10;围&#10;伐&#10;决&#10;伙&#10;漩&#10;瑟&#10;刑&#10;肓&#10;镳&#10;缓&#10;蹭&#10;氨&#10;皓&#10;典&#10;畲&#10;坍&#10;铑&#10;檐&#10;塑&#10;洞&#10;倬&#10;储&#10;胴&#10;淳&#10;戾&#10;吐&#10;灼&#10;惺&#10;妙&#10;毕&#10;珐&#10;缈&#10;虱&#10;盖&#10;羰&#10;鸿&#10;磅&#10;谓&#10;髅&#10;娴&#10;苴&#10;唷&#10;蚣&#10;霹&#10;抨&#10;贤&#10;唠&#10;犬&#10;誓&#10;逍&#10;庠&#10;逼&#10;麓&#10;籼&#10;釉&#10;呜&#10;碧&#10;秧&#10;氩&#10;摔&#10;霄&#10;穸&#10;纨&#10;辟&#10;妈&#10;映&#10;完&#10;牛&#10;缴&#10;嗷&#10;炊&#10;恩&#10;荔&#10;茆&#10;掉&#10;紊&#10;慌&#10;莓&#10;羟&#10;阙&#10;萁&#10;磐&#10;另&#10;蕹&#10;辱&#10;鳐&#10;湮&#10;吡&#10;吩&#10;唐&#10;睦&#10;垠&#10;舒&#10;圜&#10;冗&#10;瞿&#10;溺&#10;芾&#10;囱&#10;匠&#10;僳&#10;汐&#10;菩&#10;饬&#10;漓&#10;黑&#10;霰&#10;浸&#10;濡&#10;窥&#10;毂&#10;蒡&#10;兢&#10;驻&#10;鹉&#10;芮&#10;诙&#10;迫&#10;雳&#10;厂&#10;忐&#10;臆&#10;猴&#10;鸣&#10;蚪&#10;栈&#10;箕&#10;羡&#10;渐&#10;莆&#10;捍&#10;眈&#10;哓&#10;趴&#10;蹼&#10;埕&#10;嚣&#10;骛&#10;宏&#10;淄&#10;斑&#10;噜&#10;严&#10;瑛&#10;垃&#10;椎&#10;诱&#10;压&#10;庾&#10;绞&#10;焘&#10;廿&#10;抡&#10;迄&#10;棘&#10;夫&#10;纬&#10;锹&#10;眨&#10;瞌&#10;侠&#10;脐&#10;竞&#10;瀑&#10;孳&#10;骧&#10;遁&#10;姜&#10;颦&#10;荪&#10;滚&#10;萦&#10;伪&#10;逸&#10;粳&#10;爬&#10;锁&#10;矣&#10;役&#10;趣&#10;洒&#10;颔&#10;诏&#10;逐&#10;奸&#10;甭&#10;惠&#10;攀&#10;蹄&#10;泛&#10;尼&#10;拼&#10;阮&#10;鹰&#10;亚&#10;颈&#10;惑&#10;勒&#10;〉&#10;际&#10;肛&#10;爷&#10;刚&#10;钨&#10;丰&#10;养&#10;冶&#10;鲽&#10;辉&#10;蔻&#10;画&#10;覆&#10;皴&#10;妊&#10;麦&#10;返&#10;醉&#10;皂&#10;擀&#10;〗&#10;酶&#10;凑&#10;粹&#10;悟&#10;诀&#10;硖&#10;港&#10;卜&#10;z&#10;杀&#10;涕&#10;±&#10;舍&#10;铠&#10;抵&#10;弛&#10;段&#10;敝&#10;镐&#10;奠&#10;拂&#10;轴&#10;跛&#10;袱&#10;e&#10;t&#10;沉&#10;菇&#10;俎&#10;薪&#10;峦&#10;秭&#10;蟹&#10;历&#10;盟&#10;菠&#10;寡&#10;液&#10;肢&#10;喻&#10;染&#10;裱&#10;悱&#10;抱&#10;氙&#10;赤&#10;捅&#10;猛&#10;跑&#10;氮&#10;谣&#10;仁&#10;尺&#10;辊&#10;窍&#10;烙&#10;衍&#10;架&#10;擦&#10;倏&#10;璐&#10;瑁&#10;币&#10;楞&#10;胖&#10;夔&#10;趸&#10;邛&#10;惴&#10;饕&#10;虔&#10;蝎&#10;§&#10;哉&#10;贝&#10;宽&#10;辫&#10;炮&#10;扩&#10;饲&#10;籽&#10;魏&#10;菟&#10;锰&#10;伍&#10;猝&#10;末&#10;琳&#10;哚&#10;蛎&#10;邂&#10;呀&#10;姿&#10;鄞&#10;却&#10;歧&#10;仙&#10;恸&#10;椐&#10;森&#10;牒&#10;寤&#10;袒&#10;婆&#10;虢&#10;雅&#10;钉&#10;朵&#10;贼&#10;欲&#10;苞&#10;寰&#10;故&#10;龚&#10;坭&#10;嘘&#10;咫&#10;礼&#10;硷&#10;兀&#10;睢&#10;汶&#10;’&#10;铲&#10;烧&#10;绕&#10;诃&#10;浃&#10;钿&#10;哺&#10;柜&#10;讼&#10;颊&#10;璁&#10;腔&#10;洽&#10;咐&#10;脲&#10;簌&#10;筠&#10;镣&#10;玮&#10;鞠&#10;谁&#10;兼&#10;姆&#10;挥&#10;梯&#10;蝴&#10;谘&#10;漕&#10;刷&#10;躏&#10;宦&#10;弼&#10;b&#10;垌&#10;劈&#10;麟&#10;莉&#10;揭&#10;笙&#10;渎&#10;仕&#10;嗤&#10;仓&#10;配&#10;怏&#10;抬&#10;错&#10;泯&#10;镊&#10;孰&#10;猿&#10;邪&#10;仍&#10;秋&#10;鼬&#10;壹&#10;歇&#10;吵&#10;炼&#10;&lt;&#10;尧&#10;射&#10;柬&#10;廷&#10;胧&#10;霾&#10;凳&#10;隋&#10;肚&#10;浮&#10;梦&#10;祥&#10;株&#10;堵&#10;退&#10;L&#10;鹫&#10;跎&#10;凶&#10;毽&#10;荟&#10;炫&#10;栩&#10;玳&#10;甜&#10;沂&#10;鹿&#10;顽&#10;伯&#10;爹&#10;赔&#10;蛴&#10;徐&#10;匡&#10;欣&#10;狰&#10;缸&#10;雹&#10;蟆&#10;疤&#10;默&#10;沤&#10;啜&#10;痂&#10;衣&#10;禅&#10;w&#10;i&#10;h&#10;辽&#10;葳&#10;黝&#10;钗&#10;停&#10;沽&#10;棒&#10;馨&#10;颌&#10;肉&#10;吴&#10;硫&#10;悯&#10;劾&#10;娈&#10;马&#10;啧&#10;吊&#10;悌&#10;镑&#10;峭&#10;帆&#10;瀣&#10;涉&#10;咸&#10;疸&#10;滋&#10;泣&#10;翦&#10;拙&#10;癸&#10;钥&#10;蜒&#10;+&#10;尾&#10;庄&#10;凝&#10;泉&#10;婢&#10;渴&#10;谊&#10;乞&#10;陆&#10;锉&#10;糊&#10;鸦&#10;淮&#10;I&#10;B&#10;N&#10;晦&#10;弗&#10;乔&#10;庥&#10;葡&#10;尻&#10;席&#10;橡&#10;傣&#10;渣&#10;拿&#10;惩&#10;麋&#10;斛&#10;缃&#10;矮&#10;蛏&#10;岘&#10;鸽&#10;姐&#10;膏&#10;催&#10;奔&#10;镒&#10;喱&#10;蠡&#10;摧&#10;钯&#10;胤&#10;柠&#10;拐&#10;璋&#10;鸥&#10;卢&#10;荡&#10;倾&#10;^&#10;_&#10;珀&#10;逄&#10;萧&#10;塾&#10;掇&#10;贮&#10;笆&#10;聂&#10;圃&#10;冲&#10;嵬&#10;M&#10;滔&#10;笕&#10;值&#10;炙&#10;偶&#10;蜱&#10;搐&#10;梆&#10;汪&#10;蔬&#10;腑&#10;鸯&#10;蹇&#10;敞&#10;绯&#10;仨&#10;祯&#10;谆&#10;梧&#10;糗&#10;鑫&#10;啸&#10;豺&#10;囹&#10;猾&#10;巢&#10;柄&#10;瀛&#10;筑&#10;踌&#10;沭&#10;暗&#10;苁&#10;鱿&#10;蹉&#10;脂&#10;蘖&#10;牢&#10;热&#10;木&#10;吸&#10;溃&#10;宠&#10;序&#10;泞&#10;偿&#10;拜&#10;檩&#10;厚&#10;朐&#10;毗&#10;螳&#10;吞&#10;媚&#10;朽&#10;担&#10;蝗&#10;橘&#10;畴&#10;祈&#10;糟&#10;盱&#10;隼&#10;郜&#10;惜&#10;珠&#10;裨&#10;铵&#10;焙&#10;琚&#10;唯&#10;咚&#10;噪&#10;骊&#10;丫&#10;滢&#10;勤&#10;棉&#10;呸&#10;咣&#10;淀&#10;隔&#10;蕾&#10;窈&#10;饨&#10;挨&#10;煅&#10;短&#10;匙&#10;粕&#10;镜&#10;赣&#10;撕&#10;墩&#10;酬&#10;馁&#10;豌&#10;颐&#10;抗&#10;酣&#10;氓&#10;佑&#10;搁&#10;哭&#10;递&#10;耷&#10;涡&#10;桃&#10;贻&#10;碣&#10;截&#10;瘦&#10;昭&#10;镌&#10;蔓&#10;氚&#10;甲&#10;猕&#10;蕴&#10;蓬&#10;散&#10;拾&#10;纛&#10;狼&#10;猷&#10;铎&#10;埋&#10;旖&#10;矾&#10;讳&#10;囊&#10;糜&#10;迈&#10;粟&#10;蚂&#10;紧&#10;鲳&#10;瘢&#10;栽&#10;稼&#10;羊&#10;锄&#10;斟&#10;睁&#10;桥&#10;瓮&#10;蹙&#10;祉&#10;醺&#10;鼻&#10;昱&#10;剃&#10;跳&#10;篱&#10;跷&#10;蒜&#10;翎&#10;宅&#10;晖&#10;嗑&#10;壑&#10;峻&#10;癫&#10;屏&#10;狠&#10;陋&#10;袜&#10;途&#10;憎&#10;祀&#10;莹&#10;滟&#10;佶&#10;溥&#10;臣&#10;约&#10;盛&#10;峰&#10;磁&#10;慵&#10;婪&#10;拦&#10;莅&#10;朕&#10;鹦&#10;粲&#10;裤&#10;哎&#10;疡&#10;嫖&#10;琵&#10;窟&#10;堪&#10;谛&#10;嘉&#10;儡&#10;鳝&#10;斩&#10;郾&#10;驸&#10;酊&#10;妄&#10;胜&#10;贺&#10;徙&#10;傅&#10;噌&#10;钢&#10;栅&#10;庇&#10;恋&#10;匝&#10;巯&#10;邈&#10;尸&#10;锚&#10;粗&#10;佟&#10;蛟&#10;薹&#10;纵&#10;蚊&#10;郅&#10;绢&#10;锐&#10;苗&#10;俞&#10;篆&#10;淆&#10;膀&#10;鲜&#10;煎&#10;诶&#10;秽&#10;寻&#10;涮&#10;刺&#10;怀&#10;噶&#10;巨&#10;褰&#10;魅&#10;灶&#10;灌&#10;桉&#10;藕&#10;谜&#10;舸&#10;薄&#10;搀&#10;恽&#10;借&#10;牯&#10;痉&#10;渥&#10;愿&#10;亓&#10;耘&#10;杠&#10;柩&#10;锔&#10;蚶&#10;钣&#10;珈&#10;喘&#10;蹒&#10;幽&#10;赐&#10;稗&#10;晤&#10;莱&#10;泔&#10;扯&#10;肯&#10;菪&#10;裆&#10;腩&#10;豉&#10;疆&#10;骜&#10;腐&#10;倭&#10;珏&#10;唔&#10;粮&#10;亡&#10;润&#10;慰&#10;伽&#10;橄&#10;玄&#10;誉&#10;醐&#10;胆&#10;龊&#10;粼&#10;塬&#10;陇&#10;彼&#10;削&#10;嗣&#10;绾&#10;芽&#10;妗&#10;垭&#10;瘴&#10;爽&#10;薏&#10;寨&#10;龈&#10;泠&#10;弹&#10;赢&#10;漪&#10;猫&#10;嘧&#10;涂&#10;恤&#10;圭&#10;茧&#10;烽&#10;屑&#10;痕&#10;巾&#10;赖&#10;荸&#10;凰&#10;腮&#10;畈&#10;亵&#10;蹲&#10;偃&#10;苇&#10;澜&#10;艮&#10;换&#10;骺&#10;烘&#10;苕&#10;梓&#10;颉&#10;肇&#10;哗&#10;悄&#10;氤&#10;涠&#10;葬&#10;屠&#10;鹭&#10;植&#10;竺&#10;佯&#10;诣&#10;鲇&#10;瘀&#10;鲅&#10;邦&#10;移&#10;滁&#10;冯&#10;耕&#10;癔&#10;戌&#10;茬&#10;沁&#10;巩&#10;悠&#10;湘&#10;洪&#10;痹&#10;锟&#10;循&#10;谋&#10;腕&#10;鳃&#10;钠&#10;捞&#10;焉&#10;迎&#10;碱&#10;伫&#10;急&#10;榷&#10;奈&#10;邝&#10;卯&#10;辄&#10;皲&#10;卟&#10;醛&#10;畹&#10;忧&#10;稳&#10;雄&#10;昼&#10;缩&#10;阈&#10;睑&#10;扌&#10;耗&#10;曦&#10;涅&#10;捏&#10;瞧&#10;邕&#10;淖&#10;漉&#10;铝&#10;耦&#10;禹&#10;湛&#10;喽&#10;莼&#10;琅&#10;诸&#10;苎&#10;纂&#10;硅&#10;始&#10;嗨&#10;傥&#10;燃&#10;臂&#10;赅&#10;嘈&#10;呆&#10;贵&#10;屹&#10;壮&#10;肋&#10;亍&#10;蚀&#10;卅&#10;豹&#10;腆&#10;邬&#10;迭&#10;浊&#10;}&#10;童&#10;螂&#10;捐&#10;圩&#10;勐&#10;触&#10;寞&#10;汊&#10;壤&#10;荫&#10;膺&#10;渌&#10;芳&#10;懿&#10;遴&#10;螈&#10;泰&#10;蓼&#10;蛤&#10;茜&#10;舅&#10;枫&#10;朔&#10;膝&#10;眙&#10;避&#10;梅&#10;判&#10;鹜&#10;璜&#10;牍&#10;缅&#10;垫&#10;藻&#10;黔&#10;侥&#10;惚&#10;懂&#10;踩&#10;腰&#10;腈&#10;札&#10;丞&#10;唾&#10;慈&#10;顿&#10;摹&#10;荻&#10;琬&#10;~&#10;斧&#10;沈&#10;滂&#10;胁&#10;胀&#10;幄&#10;莜&#10;Z&#10;匀&#10;鄄&#10;掌&#10;绰&#10;茎&#10;焚&#10;赋&#10;萱&#10;谑&#10;汁&#10;铒&#10;瞎&#10;夺&#10;蜗&#10;野&#10;娆&#10;冀&#10;弯&#10;篁&#10;懵&#10;灞&#10;隽&#10;芡&#10;脘&#10;俐&#10;辩&#10;芯&#10;掺&#10;喏&#10;膈&#10;蝈&#10;觐&#10;悚&#10;踹&#10;蔗&#10;熠&#10;鼠&#10;呵&#10;抓&#10;橼&#10;峨&#10;畜&#10;缔&#10;禾&#10;崭&#10;弃&#10;熊&#10;摒&#10;凸&#10;拗&#10;穹&#10;蒙&#10;抒&#10;祛&#10;劝&#10;闫&#10;扳&#10;阵&#10;醌&#10;踪&#10;喵&#10;侣&#10;搬&#10;仅&#10;荧&#10;赎&#10;蝾&#10;琦&#10;买&#10;婧&#10;瞄&#10;寓&#10;皎&#10;冻&#10;赝&#10;箩&#10;莫&#10;瞰&#10;郊&#10;笫&#10;姝&#10;筒&#10;枪&#10;遣&#10;煸&#10;袋&#10;舆&#10;痱&#10;涛&#10;母&#10;〇&#10;启&#10;践&#10;耙&#10;绲&#10;盘&#10;遂&#10;昊&#10;搞&#10;槿&#10;诬&#10;纰&#10;泓&#10;惨&#10;檬&#10;亻&#10;越&#10;C&#10;o&#10;憩&#10;熵&#10;祷&#10;钒&#10;暧&#10;塔&#10;阗&#10;胰&#10;咄&#10;娶&#10;魔&#10;琶&#10;钞&#10;邻&#10;扬&#10;杉&#10;殴&#10;咽&#10;弓&#10;〆&#10;髻&#10;】&#10;吭&#10;揽&#10;霆&#10;拄&#10;殖&#10;脆&#10;彻&#10;岩&#10;芝&#10;勃&#10;辣&#10;剌&#10;钝&#10;嘎&#10;甄&#10;佘&#10;皖&#10;伦&#10;授&#10;徕&#10;憔&#10;挪&#10;皇&#10;庞&#10;稔&#10;芜&#10;踏&#10;溴&#10;兖&#10;卒&#10;擢&#10;饥&#10;鳞&#10;煲&#10;‰&#10;账&#10;颗&#10;叻&#10;斯&#10;捧&#10;鳍&#10;琮&#10;讹&#10;蛙&#10;纽&#10;谭&#10;酸&#10;兔&#10;莒&#10;睇&#10;伟&#10;觑&#10;羲&#10;嗜&#10;宜&#10;褐&#10;旎&#10;辛&#10;卦&#10;诘&#10;筋&#10;鎏&#10;溪&#10;挛&#10;熔&#10;阜&#10;晰&#10;鳅&#10;丢&#10;奚&#10;灸&#10;呱&#10;献&#10;陉&#10;黛&#10;鸪&#10;甾&#10;萨&#10;疮&#10;拯&#10;洲&#10;疹&#10;辑&#10;叙&#10;恻&#10;谒&#10;允&#10;柔&#10;烂&#10;氏&#10;逅&#10;漆&#10;拎&#10;惋&#10;扈&#10;湟&#10;纭&#10;啕&#10;掬&#10;擞&#10;哥&#10;忽&#10;涤&#10;鸵&#10;靡&#10;郗&#10;瓷&#10;扁&#10;廊&#10;怨&#10;雏&#10;钮&#10;敦&#10;E&#10;懦&#10;憋&#10;汀&#10;拚&#10;啉&#10;腌&#10;岸&#10;f&#10;痼&#10;瞅&#10;尊&#10;咀&#10;眩&#10;飙&#10;忌&#10;仝&#10;迦&#10;熬&#10;毫&#10;胯&#10;篑&#10;茄&#10;腺&#10;凄&#10;舛&#10;碴&#10;锵&#10;诧&#10;羯&#10;後&#10;漏&#10;汤&#10;宓&#10;仞&#10;蚁&#10;壶&#10;谰&#10;皑&#10;铄&#10;棰&#10;罔&#10;辅&#10;晶&#10;苦&#10;牟&#10;闽&#10;\&#10;烃&#10;饮&#10;聿&#10;丙&#10;蛳&#10;朱&#10;煤&#10;涔&#10;鳖&#10;犁&#10;罐&#10;荼&#10;砒&#10;淦&#10;妤&#10;黏&#10;戎&#10;孑&#10;婕&#10;瑾&#10;戢&#10;钵&#10;枣&#10;捋&#10;砥&#10;衩&#10;狙&#10;桠&#10;稣&#10;阎&#10;肃&#10;梏&#10;诫&#10;孪&#10;昶&#10;婊&#10;衫&#10;嗔&#10;侃&#10;塞&#10;蜃&#10;樵&#10;峒&#10;貌&#10;屿&#10;欺&#10;缫&#10;阐&#10;栖&#10;诟&#10;珞&#10;荭&#10;吝&#10;萍&#10;嗽&#10;恂&#10;啻&#10;蜴&#10;磬&#10;峋&#10;俸&#10;豫&#10;谎&#10;徊&#10;镍&#10;韬&#10;魇&#10;晴&#10;U&#10;囟&#10;猜&#10;蛮&#10;坐&#10;囿&#10;伴&#10;亭&#10;肝&#10;佗&#10;蝠&#10;妃&#10;胞&#10;滩&#10;榴&#10;氖&#10;垩&#10;苋&#10;砣&#10;扪&#10;馏&#10;姓&#10;轩&#10;厉&#10;夥&#10;侈&#10;禀&#10;垒&#10;岑&#10;赏&#10;钛&#10;辐&#10;痔&#10;披&#10;纸&#10;碳&#10;“&#10;坞&#10;蠓&#10;挤&#10;荥&#10;沅&#10;悔&#10;铧&#10;帼&#10;蒌&#10;蝇&#10;a&#10;p&#10;y&#10;n&#10;g&#10;哀&#10;浆&#10;瑶&#10;凿&#10;桶&#10;馈&#10;皮&#10;奴&#10;苜&#10;佤&#10;伶&#10;晗&#10;铱&#10;炬&#10;优&#10;弊&#10;氢&#10;恃&#10;甫&#10;攥&#10;端&#10;锌&#10;灰&#10;稹&#10;炝&#10;曙&#10;邋&#10;亥&#10;眶&#10;碾&#10;拉&#10;萝&#10;绔&#10;捷&#10;浍&#10;腋&#10;姑&#10;菖&#10;凌&#10;涞&#10;麽&#10;锢&#10;桨&#10;潢&#10;绎&#10;镰&#10;殆&#10;锑&#10;渝&#10;铬&#10;困&#10;绽&#10;觎&#10;匈&#10;糙&#10;暑&#10;裹&#10;鸟&#10;盔&#10;肽&#10;迷&#10;綦&#10;『&#10;亳&#10;佝&#10;俘&#10;钴&#10;觇&#10;骥&#10;仆&#10;疝&#10;跪&#10;婶&#10;郯&#10;瀹&#10;唉&#10;脖&#10;踞&#10;针&#10;晾&#10;忒&#10;扼&#10;瞩&#10;叛&#10;椒&#10;疟&#10;嗡&#10;邗&#10;肆&#10;跆&#10;玫&#10;忡&#10;捣&#10;咧&#10;唆&#10;艄&#10;蘑&#10;潦&#10;笛&#10;阚&#10;沸&#10;泻&#10;掊&#10;菽&#10;贫&#10;斥&#10;髂&#10;孢&#10;镂&#10;赂&#10;麝&#10;鸾&#10;屡&#10;衬&#10;苷&#10;恪&#10;叠&#10;希&#10;粤&#10;爻&#10;喝&#10;茫&#10;惬&#10;郸&#10;绻&#10;庸&#10;撅&#10;碟&#10;宄&#10;妹&#10;膛&#10;叮&#10;饵&#10;崛&#10;嗲&#10;椅&#10;冤&#10;搅&#10;咕&#10;敛&#10;尹&#10;垦&#10;闷&#10;蝉&#10;霎&#10;勰&#10;败&#10;蓑&#10;泸&#10;肤&#10;鹌&#10;幌&#10;焦&#10;浠&#10;鞍&#10;刁&#10;舰&#10;乙&#10;竿&#10;裔&#10;。&#10;茵&#10;函&#10;伊&#10;兄&#10;丨&#10;娜&#10;匍&#10;謇&#10;莪&#10;宥&#10;似&#10;蝽&#10;翳&#10;酪&#10;翠&#10;粑&#10;薇&#10;祢&#10;骏&#10;赠&#10;叫&#10;Q&#10;噤&#10;噻&#10;竖&#10;芗&#10;莠&#10;潭&#10;俊&#10;羿&#10;耜&#10;O&#10;郫&#10;趁&#10;嗪&#10;囚&#10;蹶&#10;芒&#10;洁&#10;笋&#10;鹑&#10;敲&#10;硝&#10;啶&#10;堡&#10;渲&#10;揩&#10;』&#10;携&#10;宿&#10;遒&#10;颍&#10;扭&#10;棱&#10;割&#10;萜&#10;蔸&#10;葵&#10;琴&#10;捂&#10;饰&#10;衙&#10;耿&#10;掠&#10;募&#10;岂&#10;窖&#10;涟&#10;蔺&#10;瘤&#10;柞&#10;瞪&#10;怜&#10;匹&#10;距&#10;楔&#10;炜&#10;哆&#10;秦&#10;缎&#10;幼&#10;茁&#10;绪&#10;痨&#10;恨&#10;楸&#10;娅&#10;瓦&#10;桩&#10;雪&#10;嬴&#10;伏&#10;榔&#10;妥&#10;铿&#10;拌&#10;眠&#10;雍&#10;缇&#10;‘&#10;卓&#10;搓&#10;哌&#10;觞&#10;噩&#10;屈&#10;哧&#10;髓&#10;咦&#10;巅&#10;娑&#10;侑&#10;淫&#10;膳&#10;祝&#10;勾&#10;姊&#10;莴&#10;胄&#10;疃&#10;薛&#10;蜷&#10;胛&#10;巷&#10;芙&#10;芋&#10;熙&#10;闰&#10;勿&#10;窃&#10;狱&#10;剩&#10;钏&#10;幢&#10;陟&#10;铛&#10;慧&#10;靴&#10;耍&#10;k&#10;浙&#10;浇&#10;飨&#10;惟&#10;绗&#10;祜&#10;澈&#10;啼&#10;咪&#10;磷&#10;摞&#10;诅&#10;郦&#10;抹&#10;跃&#10;壬&#10;吕&#10;肖&#10;琏&#10;颤&#10;尴&#10;剡&#10;抠&#10;凋&#10;赚&#10;泊&#10;津&#10;宕&#10;殷&#10;倔&#10;氲&#10;漫&#10;邺&#10;涎&#10;怠&#10;$&#10;垮&#10;荬&#10;遵&#10;俏&#10;叹&#10;噢&#10;饽&#10;蜘&#10;孙&#10;筵&#10;疼&#10;鞭&#10;羧&#10;牦&#10;箭&#10;潴&#10;c&#10;眸&#10;祭&#10;髯&#10;啖&#10;坳&#10;愁&#10;芩&#10;驮&#10;倡&#10;巽&#10;穰&#10;沃&#10;胚&#10;怒&#10;凤&#10;槛&#10;剂&#10;趵&#10;嫁&#10;v&#10;邢&#10;灯&#10;鄢&#10;桐&#10;睽&#10;檗&#10;锯&#10;槟&#10;婷&#10;嵋&#10;圻&#10;诗&#10;蕈&#10;颠&#10;遭&#10;痢&#10;芸&#10;怯&#10;馥&#10;竭&#10;锗&#10;徜&#10;恭&#10;遍&#10;籁&#10;剑&#10;嘱&#10;苡&#10;龄&#10;僧&#10;桑&#10;潸&#10;弘&#10;澶&#10;楹&#10;悲&#10;讫&#10;愤&#10;腥&#10;悸&#10;谍&#10;椹&#10;呢&#10;桓&#10;葭&#10;攫&#10;阀&#10;翰&#10;躲&#10;敖&#10;柑&#10;郎&#10;笨&#10;橇&#10;呃&#10;魁&#10;燎&#10;脓&#10;葩&#10;磋&#10;垛&#10;玺&#10;狮&#10;沓&#10;砜&#10;蕊&#10;锺&#10;罹&#10;蕉&#10;翱&#10;虐&#10;闾&#10;巫&#10;旦&#10;茱&#10;嬷&#10;枯&#10;鹏&#10;贡&#10;芹&#10;汛&#10;矫&#10;绁&#10;拣&#10;禺&#10;佃&#10;讣&#10;舫&#10;惯&#10;乳&#10;趋&#10;疲&#10;挽&#10;岚&#10;虾&#10;衾&#10;蠹&#10;蹂&#10;飓&#10;氦&#10;铖&#10;孩&#10;稞&#10;瑜&#10;壅&#10;掀&#10;勘&#10;妓&#10;畅&#10;髋&#10;W&#10;庐&#10;牲&#10;蓿&#10;榕&#10;练&#10;垣&#10;唱&#10;邸&#10;菲&#10;昆&#10;婺&#10;穿&#10;绡&#10;麒&#10;蚱&#10;掂&#10;愚&#10;泷&#10;涪&#10;漳&#10;妩&#10;娉&#10;榄&#10;讷&#10;觅&#10;旧&#10;藤&#10;煮&#10;呛&#10;柳&#10;腓&#10;叭&#10;庵&#10;烷&#10;阡&#10;罂&#10;蜕&#10;擂&#10;猖&#10;咿&#10;媲&#10;脉&#10;【&#10;沏&#10;貅&#10;黠&#10;熏&#10;哲&#10;烁&#10;坦&#10;酵&#10;兜&#10;×&#10;潇&#10;撒&#10;剽&#10;珩&#10;圹&#10;乾&#10;摸&#10;樟&#10;帽&#10;嗒&#10;襄&#10;魂&#10;轿&#10;憬&#10;锡&#10;〕&#10;喃&#10;皆&#10;咖&#10;隅&#10;脸&#10;残&#10;泮&#10;袂&#10;鹂&#10;珊&#10;囤&#10;捆&#10;咤&#10;误&#10;徨&#10;闹&#10;淙&#10;芊&#10;淋&#10;怆&#10;囗&#10;拨&#10;梳&#10;渤&#10;R&#10;G&#10;绨&#10;蚓&#10;婀&#10;幡&#10;狩&#10;麾&#10;谢&#10;唢&#10;裸&#10;旌&#10;伉&#10;纶&#10;裂&#10;驳&#10;砼&#10;咛&#10;澄&#10;樨&#10;蹈&#10;宙&#10;澍&#10;倍&#10;貔&#10;操&#10;勇&#10;蟠&#10;摈&#10;砧&#10;虬&#10;够&#10;缁&#10;悦&#10;藿&#10;撸&#10;艹&#10;摁&#10;淹&#10;豇&#10;虎&#10;榭&#10;ˉ&#10;吱&#10;d&#10;°&#10;喧&#10;荀&#10;踱&#10;侮&#10;奋&#10;偕&#10;饷&#10;犍&#10;惮&#10;坑&#10;璎&#10;徘&#10;宛&#10;妆&#10;袈&#10;倩&#10;窦&#10;昂&#10;荏&#10;乖&#10;K&#10;怅&#10;撰&#10;鳙&#10;牙&#10;袁&#10;酞&#10;X&#10;痿&#10;琼&#10;闸&#10;雁&#10;趾&#10;荚&#10;虻&#10;涝&#10;《&#10;杏&#10;韭&#10;偈&#10;烤&#10;绫&#10;鞘&#10;卉&#10;症&#10;遢&#10;蓥&#10;诋&#10;杭&#10;荨&#10;匆&#10;竣&#10;簪&#10;辙&#10;敕&#10;虞&#10;丹&#10;缭&#10;咩&#10;黟&#10;m&#10;淤&#10;瑕&#10;咂&#10;铉&#10;硼&#10;茨&#10;嶂&#10;痒&#10;畸&#10;敬&#10;涿&#10;粪&#10;窘&#10;熟&#10;叔&#10;嫔&#10;盾&#10;忱&#10;裘&#10;憾&#10;梵&#10;赡&#10;珙&#10;咯&#10;娘&#10;庙&#10;溯&#10;胺&#10;葱&#10;痪&#10;摊&#10;荷&#10;卞&#10;乒&#10;髦&#10;寐&#10;铭&#10;坩&#10;胗&#10;枷&#10;爆&#10;溟&#10;嚼&#10;羚&#10;砬&#10;轨&#10;惊&#10;挠&#10;罄&#10;竽&#10;菏&#10;氧&#10;浅&#10;楣&#10;盼&#10;枢&#10;炸&#10;阆&#10;杯&#10;谏&#10;噬&#10;淇&#10;渺&#10;俪&#10;秆&#10;墓&#10;泪&#10;跻&#10;砌&#10;痰&#10;垡&#10;渡&#10;耽&#10;釜&#10;讶&#10;鳎&#10;煞&#10;呗&#10;韶&#10;舶&#10;绷&#10;鹳&#10;缜&#10;旷&#10;铊&#10;皱&#10;龌&#10;檀&#10;霖&#10;奄&#10;槐&#10;艳&#10;蝶&#10;旋&#10;哝&#10;赶&#10;骞&#10;蚧&#10;腊&#10;盈&#10;丁&#10;`&#10;蜚&#10;矸&#10;蝙&#10;睨&#10;嚓&#10;僻&#10;鬼&#10;醴&#10;夜&#10;彝&#10;磊&#10;笔&#10;拔&#10;栀&#10;糕&#10;厦&#10;邰&#10;纫&#10;逭&#10;纤&#10;眦&#10;膊&#10;馍&#10;躇&#10;烯&#10;蘼&#10;冬&#10;诤&#10;暄&#10;骶&#10;哑&#10;瘠&#10;」&#10;臊&#10;丕&#10;愈&#10;咱&#10;螺&#10;擅&#10;跋&#10;搏&#10;硪&#10;谄&#10;笠&#10;淡&#10;嘿&#10;骅&#10;谧&#10;鼎&#10;皋&#10;姚&#10;歼&#10;蠢&#10;驼&#10;耳&#10;胬&#10;挝&#10;涯&#10;狗&#10;蒽&#10;孓&#10;犷&#10;凉&#10;芦&#10;箴&#10;铤&#10;孤&#10;嘛&#10;坤&#10;V&#10;茴&#10;朦&#10;挞&#10;尖&#10;橙&#10;诞&#10;搴&#10;碇&#10;洵&#10;浚&#10;帚&#10;蜍&#10;漯&#10;柘&#10;嚎&#10;讽&#10;芭&#10;荤&#10;咻&#10;祠&#10;秉&#10;跖&#10;埃&#10;吓&#10;糯&#10;眷&#10;馒&#10;惹&#10;娼&#10;鲑&#10;嫩&#10;讴&#10;轮&#10;瞥&#10;靶&#10;褚&#10;乏&#10;缤&#10;宋&#10;帧&#10;删&#10;驱&#10;碎&#10;扑&#10;俩&#10;俄&#10;偏&#10;涣&#10;竹&#10;噱&#10;皙&#10;佰&#10;渚&#10;唧&#10;斡&#10;#&#10;镉&#10;刀&#10;崎&#10;筐&#10;佣&#10;夭&#10;贰&#10;肴&#10;峙&#10;哔&#10;艿&#10;匐&#10;牺&#10;镛&#10;缘&#10;仡&#10;嫡&#10;劣&#10;枸&#10;堀&#10;梨&#10;簿&#10;鸭&#10;蒸&#10;亦&#10;稽&#10;浴&#10;{&#10;衢&#10;束&#10;槲&#10;j&#10;阁&#10;揍&#10;疥&#10;棋&#10;潋&#10;聪&#10;窜&#10;乓&#10;睛&#10;插&#10;冉&#10;阪&#10;苍&#10;搽&#10;「&#10;蟾&#10;螟&#10;幸&#10;仇&#10;樽&#10;撂&#10;慢&#10;跤&#10;幔&#10;俚&#10;淅&#10;覃&#10;觊&#10;溶&#10;妖&#10;帛&#10;侨&#10;曰&#10;妾&#10;泗&#10;·&#10;：&#10;瀘&#10;風&#10;Ë&#10;（&#10;）&#10;∶&#10;紅&#10;紗&#10;瑭&#10;雲&#10;頭&#10;鶏&#10;財&#10;許&#10;•&#10;¥&#10;樂&#10;焗&#10;麗&#10;—&#10;；&#10;滙&#10;東&#10;榮&#10;繪&#10;興&#10;…&#10;門&#10;業&#10;π&#10;楊&#10;國&#10;顧&#10;é&#10;盤&#10;寳&#10;Λ&#10;龍&#10;鳳&#10;島&#10;誌&#10;緣&#10;結&#10;銭&#10;萬&#10;勝&#10;祎&#10;璟&#10;優&#10;歡&#10;臨&#10;時&#10;購&#10;＝&#10;★&#10;藍&#10;昇&#10;鐵&#10;觀&#10;勅&#10;農&#10;聲&#10;畫&#10;兿&#10;術&#10;發&#10;劉&#10;記&#10;專&#10;耑&#10;園&#10;書&#10;壴&#10;種&#10;Ο&#10;●&#10;褀&#10;號&#10;銀&#10;匯&#10;敟&#10;锘&#10;葉&#10;橪&#10;廣&#10;進&#10;蒄&#10;鑽&#10;阝&#10;祙&#10;貢&#10;鍋&#10;豊&#10;夬&#10;喆&#10;團&#10;閣&#10;開&#10;燁&#10;賓&#10;館&#10;酡&#10;沔&#10;順&#10;＋&#10;硚&#10;劵&#10;饸&#10;陽&#10;車&#10;湓&#10;復&#10;萊&#10;氣&#10;軒&#10;華&#10;堃&#10;迮&#10;纟&#10;戶&#10;馬&#10;學&#10;裡&#10;電&#10;嶽&#10;獨&#10;マ&#10;シ&#10;サ&#10;ジ&#10;燘&#10;袪&#10;環&#10;❤&#10;臺&#10;灣&#10;専&#10;賣&#10;孖&#10;聖&#10;攝&#10;線&#10;▪&#10;α&#10;傢&#10;俬&#10;夢&#10;達&#10;莊&#10;喬&#10;貝&#10;薩&#10;劍&#10;羅&#10;壓&#10;棛&#10;饦&#10;尃&#10;璈&#10;囍&#10;醫&#10;Ｇ&#10;Ｉ&#10;Ａ&#10;＃&#10;Ｎ&#10;鷄&#10;髙&#10;嬰&#10;啓&#10;約&#10;隹&#10;潔&#10;賴&#10;藝&#10;～&#10;寶&#10;籣&#10;麺&#10;　&#10;嶺&#10;√&#10;義&#10;網&#10;峩&#10;長&#10;∧&#10;魚&#10;機&#10;構&#10;②&#10;鳯&#10;偉&#10;Ｌ&#10;Ｂ&#10;㙟&#10;畵&#10;鴿&#10;＇&#10;詩&#10;溝&#10;嚞&#10;屌&#10;藔&#10;佧&#10;玥&#10;蘭&#10;織&#10;１&#10;３&#10;９&#10;０&#10;７&#10;點&#10;砭&#10;鴨&#10;鋪&#10;銘&#10;廳&#10;弍&#10;‧&#10;創&#10;湯&#10;坶&#10;℃&#10;卩&#10;骝&#10;＆&#10;烜&#10;荘&#10;當&#10;潤&#10;扞&#10;係&#10;懷&#10;碶&#10;钅&#10;蚨&#10;讠&#10;☆&#10;叢&#10;爲&#10;埗&#10;涫&#10;塗&#10;→&#10;楽&#10;現&#10;鯨&#10;愛&#10;瑪&#10;鈺&#10;忄&#10;悶&#10;藥&#10;飾&#10;樓&#10;視&#10;孬&#10;ㆍ&#10;燚&#10;苪&#10;師&#10;①&#10;丼&#10;锽&#10;│&#10;韓&#10;標&#10;è&#10;兒&#10;閏&#10;匋&#10;張&#10;漢&#10;Ü&#10;髪&#10;會&#10;閑&#10;檔&#10;習&#10;裝&#10;の&#10;峯&#10;菘&#10;輝&#10;И&#10;雞&#10;釣&#10;億&#10;浐&#10;Ｋ&#10;Ｏ&#10;Ｒ&#10;８&#10;Ｈ&#10;Ｅ&#10;Ｐ&#10;Ｔ&#10;Ｗ&#10;Ｄ&#10;Ｓ&#10;Ｃ&#10;Ｍ&#10;Ｆ&#10;姌&#10;饹&#10;»&#10;晞&#10;廰&#10;ä&#10;嵯&#10;鷹&#10;負&#10;飲&#10;絲&#10;冚&#10;楗&#10;澤&#10;綫&#10;區&#10;❋&#10;←&#10;質&#10;靑&#10;揚&#10;③&#10;滬&#10;統&#10;産&#10;協&#10;﹑&#10;乸&#10;畐&#10;經&#10;運&#10;際&#10;洺&#10;岽&#10;為&#10;粵&#10;諾&#10;崋&#10;豐&#10;碁&#10;ɔ&#10;Ｖ&#10;２&#10;６&#10;齋&#10;誠&#10;訂&#10;´&#10;勑&#10;雙&#10;陳&#10;無&#10;í&#10;泩&#10;媄&#10;夌&#10;刂&#10;ｉ&#10;ｃ&#10;ｔ&#10;ｏ&#10;ｒ&#10;ａ&#10;嘢&#10;耄&#10;燴&#10;暃&#10;壽&#10;媽&#10;靈&#10;抻&#10;體&#10;唻&#10;É&#10;冮&#10;甹&#10;鎮&#10;錦&#10;ʌ&#10;蜛&#10;蠄&#10;尓&#10;駕&#10;戀&#10;飬&#10;逹&#10;倫&#10;貴&#10;極&#10;Я&#10;Й&#10;寬&#10;磚&#10;嶪&#10;郎&#10;職&#10;｜&#10;間&#10;ｎ&#10;ｄ&#10;剎&#10;伈&#10;課&#10;飛&#10;橋&#10;瘊&#10;№&#10;譜&#10;骓&#10;圗&#10;滘&#10;縣&#10;粿&#10;咅&#10;養&#10;濤&#10;彳&#10;®&#10;％&#10;Ⅱ&#10;啰&#10;㴪&#10;見&#10;矞&#10;薬&#10;糁&#10;邨&#10;鲮&#10;顔&#10;罱&#10;З&#10;選&#10;話&#10;贏&#10;氪&#10;俵&#10;競&#10;瑩&#10;繡&#10;枱&#10;β&#10;綉&#10;á&#10;獅&#10;爾&#10;™&#10;麵&#10;戋&#10;淩&#10;徳&#10;個&#10;劇&#10;場&#10;務&#10;簡&#10;寵&#10;ｈ&#10;實&#10;膠&#10;轱&#10;圖&#10;築&#10;嘣&#10;樹&#10;㸃&#10;營&#10;耵&#10;孫&#10;饃&#10;鄺&#10;飯&#10;麯&#10;遠&#10;輸&#10;坫&#10;孃&#10;乚&#10;閃&#10;鏢&#10;㎡&#10;題&#10;廠&#10;關&#10;↑&#10;爺&#10;將&#10;軍&#10;連&#10;篦&#10;覌&#10;參&#10;箸&#10;－&#10;窠&#10;棽&#10;寕&#10;夀&#10;爰&#10;歐&#10;呙&#10;閥&#10;頡&#10;熱&#10;雎&#10;垟&#10;裟&#10;凬&#10;勁&#10;帑&#10;馕&#10;夆&#10;疌&#10;枼&#10;馮&#10;貨&#10;蒤&#10;樸&#10;彧&#10;旸&#10;靜&#10;龢&#10;暢&#10;㐱&#10;鳥&#10;珺&#10;鏡&#10;灡&#10;爭&#10;堷&#10;廚&#10;Ó&#10;騰&#10;診&#10;┅&#10;蘇&#10;褔&#10;凱&#10;頂&#10;豕&#10;亞&#10;帥&#10;嘬&#10;⊥&#10;仺&#10;桖&#10;複&#10;饣&#10;絡&#10;穂&#10;顏&#10;棟&#10;納&#10;▏&#10;濟&#10;親&#10;設&#10;計&#10;攵&#10;埌&#10;烺&#10;ò&#10;頤&#10;燦&#10;蓮&#10;撻&#10;節&#10;講&#10;濱&#10;濃&#10;娽&#10;洳&#10;朿&#10;燈&#10;鈴&#10;護&#10;膚&#10;铔&#10;過&#10;補&#10;Ｚ&#10;Ｕ&#10;５&#10;４&#10;坋&#10;闿&#10;䖝&#10;餘&#10;缐&#10;铞&#10;貿&#10;铪&#10;桼&#10;趙&#10;鍊&#10;［&#10;㐂&#10;垚&#10;菓&#10;揸&#10;捲&#10;鐘&#10;滏&#10;𣇉&#10;爍&#10;輪&#10;燜&#10;鴻&#10;鮮&#10;動&#10;鹞&#10;鷗&#10;丄&#10;慶&#10;鉌&#10;翥&#10;飮&#10;腸&#10;⇋&#10;漁&#10;覺&#10;來&#10;熘&#10;昴&#10;翏&#10;鲱&#10;圧&#10;鄉&#10;萭&#10;頔&#10;爐&#10;嫚&#10;г&#10;貭&#10;類&#10;聯&#10;幛&#10;輕&#10;訓&#10;鑒&#10;夋&#10;锨&#10;芃&#10;珣&#10;䝉&#10;扙&#10;嵐&#10;銷&#10;處&#10;ㄱ&#10;語&#10;誘&#10;苝&#10;歸&#10;儀&#10;燒&#10;楿&#10;內&#10;粢&#10;葒&#10;奧&#10;麥&#10;礻&#10;滿&#10;蠔&#10;穵&#10;瞭&#10;態&#10;鱬&#10;榞&#10;硂&#10;鄭&#10;黃&#10;煙&#10;祐&#10;奓&#10;逺&#10;＊&#10;瑄&#10;獲&#10;聞&#10;薦&#10;讀&#10;這&#10;樣&#10;決&#10;問&#10;啟&#10;們&#10;執&#10;説&#10;轉&#10;單&#10;隨&#10;唘&#10;帶&#10;倉&#10;庫&#10;還&#10;贈&#10;尙&#10;皺&#10;■&#10;餅&#10;產&#10;○&#10;∈&#10;報&#10;狀&#10;楓&#10;賠&#10;琯&#10;嗮&#10;禮&#10;｀&#10;傳&#10;＞&#10;≤&#10;嗞&#10;Φ&#10;≥&#10;換&#10;咭&#10;∣&#10;↓&#10;曬&#10;ε&#10;応&#10;寫&#10;″&#10;終&#10;様&#10;純&#10;費&#10;療&#10;聨&#10;凍&#10;壐&#10;郵&#10;ü&#10;黒&#10;∫&#10;製&#10;塊&#10;調&#10;軽&#10;確&#10;撃&#10;級&#10;馴&#10;Ⅲ&#10;涇&#10;繹&#10;數&#10;碼&#10;證&#10;狒&#10;処&#10;劑&#10;＜&#10;晧&#10;賀&#10;衆&#10;］&#10;櫥&#10;兩&#10;陰&#10;絶&#10;對&#10;鯉&#10;憶&#10;◎&#10;ｐ&#10;ｅ&#10;Ｙ&#10;蕒&#10;煖&#10;頓&#10;測&#10;試&#10;鼽&#10;僑&#10;碩&#10;妝&#10;帯&#10;≈&#10;鐡&#10;舖&#10;權&#10;喫&#10;倆&#10;ˋ&#10;該&#10;悅&#10;ā&#10;俫&#10;．&#10;ｆ&#10;ｓ&#10;ｂ&#10;ｍ&#10;ｋ&#10;ｇ&#10;ｕ&#10;ｊ&#10;貼&#10;淨&#10;濕&#10;針&#10;適&#10;備&#10;ｌ&#10;／&#10;給&#10;謢&#10;強&#10;觸&#10;衛&#10;與&#10;⊙&#10;＄&#10;緯&#10;變&#10;⑴&#10;⑵&#10;⑶&#10;㎏&#10;殺&#10;∩&#10;幚&#10;─&#10;價&#10;▲&#10;離&#10;ú&#10;ó&#10;飄&#10;烏&#10;関&#10;閟&#10;﹝&#10;﹞&#10;邏&#10;輯&#10;鍵&#10;驗&#10;訣&#10;導&#10;歷&#10;屆&#10;層&#10;▼&#10;儱&#10;錄&#10;熳&#10;ē&#10;艦&#10;吋&#10;錶&#10;辧&#10;飼&#10;顯&#10;④&#10;禦&#10;販&#10;気&#10;対&#10;枰&#10;閩&#10;紀&#10;幹&#10;瞓&#10;貊&#10;淚&#10;△&#10;眞&#10;墊&#10;Ω&#10;獻&#10;褲&#10;縫&#10;緑&#10;亜&#10;鉅&#10;餠&#10;｛&#10;｝&#10;◆&#10;蘆&#10;薈&#10;█&#10;◇&#10;溫&#10;彈&#10;晳&#10;粧&#10;犸&#10;穩&#10;訊&#10;崬&#10;凖&#10;熥&#10;П&#10;舊&#10;條&#10;紋&#10;圍&#10;Ⅳ&#10;筆&#10;尷&#10;難&#10;雜&#10;錯&#10;綁&#10;識&#10;頰&#10;鎖&#10;艶&#10;□&#10;殁&#10;殼&#10;⑧&#10;├&#10;▕&#10;鵬&#10;ǐ&#10;ō&#10;ǒ&#10;糝&#10;綱&#10;▎&#10;μ&#10;盜&#10;饅&#10;醬&#10;籤&#10;蓋&#10;釀&#10;鹽&#10;據&#10;à&#10;ɡ&#10;辦&#10;◥&#10;彐&#10;┌&#10;婦&#10;獸&#10;鲩&#10;伱&#10;ī&#10;蒟&#10;蒻&#10;齊&#10;袆&#10;腦&#10;寧&#10;凈&#10;妳&#10;煥&#10;詢&#10;偽&#10;謹&#10;啫&#10;鯽&#10;騷&#10;鱸&#10;損&#10;傷&#10;鎻&#10;髮&#10;買&#10;冏&#10;儥&#10;両&#10;﹢&#10;∞&#10;載&#10;喰&#10;ｚ&#10;羙&#10;悵&#10;燙&#10;曉&#10;員&#10;組&#10;徹&#10;艷&#10;痠&#10;鋼&#10;鼙&#10;縮&#10;細&#10;嚒&#10;爯&#10;≠&#10;維&#10;＂&#10;鱻&#10;壇&#10;厍&#10;帰&#10;浥&#10;犇&#10;薡&#10;軎&#10;²&#10;應&#10;醜&#10;刪&#10;緻&#10;鶴&#10;賜&#10;噁&#10;軌&#10;尨&#10;镔&#10;鷺&#10;槗&#10;彌&#10;葚&#10;濛&#10;請&#10;溇&#10;緹&#10;賢&#10;訪&#10;獴&#10;瑅&#10;資&#10;縤&#10;陣&#10;蕟&#10;栢&#10;韻&#10;祼&#10;恁&#10;伢&#10;謝&#10;劃&#10;涑&#10;總&#10;衖&#10;踺&#10;砋&#10;凉&#10;籃&#10;駿&#10;苼&#10;瘋&#10;昽&#10;紡&#10;驊&#10;腎&#10;﹗&#10;響&#10;杋&#10;剛&#10;嚴&#10;禪&#10;歓&#10;槍&#10;傘&#10;檸&#10;檫&#10;炣&#10;勢&#10;鏜&#10;鎢&#10;銑&#10;尐&#10;減&#10;奪&#10;惡&#10;θ&#10;僮&#10;婭&#10;臘&#10;ū&#10;ì&#10;殻&#10;鉄&#10;∑&#10;蛲&#10;焼&#10;緖&#10;續&#10;紹&#10;懮" />
		</framework>
	</rt_info>
</net>
