<?xml version="1.0"?>
<net name="onnx_Frontend_IR" version="11">
	<layers>
		<layer id="0" name="x" type="Parameter" version="opset1">
			<data shape="?,3,?,?" element_type="f32" />
			<output>
				<port id="0" precision="FP32" names="x">
					<dim>-1</dim>
					<dim>3</dim>
					<dim>-1</dim>
					<dim>-1</dim>
				</port>
			</output>
		</layer>
		<layer id="1" name="conv1_weights_compressed" type="Const" version="opset1">
			<data element_type="f16" shape="8, 3, 3, 3" offset="0" size="432" />
			<output>
				<port id="0" precision="FP16" names="conv1_weights">
					<dim>8</dim>
					<dim>3</dim>
					<dim>3</dim>
					<dim>3</dim>
				</port>
			</output>
		</layer>
		<layer id="2" name="conv1_weights" type="Convert" version="opset1">
			<data destination_type="f32" />
			<rt_info>
				<attribute name="decompression" version="0" />
			</rt_info>
			<input>
				<port id="0" precision="FP16">
					<dim>8</dim>
					<dim>3</dim>
					<dim>3</dim>
					<dim>3</dim>
				</port>
			</input>
			<output>
				<port id="1" precision="FP32">
					<dim>8</dim>
					<dim>3</dim>
					<dim>3</dim>
					<dim>3</dim>
				</port>
			</output>
		</layer>
		<layer id="3" name="Conv@0" type="Convolution" version="opset1">
			<data strides="2, 2" dilations="1, 1" pads_begin="1, 1" pads_end="1, 1" auto_pad="explicit" />
			<input>
				<port id="0" precision="FP32">
					<dim>-1</dim>
					<dim>3</dim>
					<dim>-1</dim>
					<dim>-1</dim>
				</port>
				<port id="1" precision="FP32">
					<dim>8</dim>
					<dim>3</dim>
					<dim>3</dim>
					<dim>3</dim>
				</port>
			</input>
			<output>
				<port id="2" precision="FP32" names="conv2d_53.tmp_0">
					<dim>-1</dim>
					<dim>8</dim>
					<dim>-1</dim>
					<dim>-1</dim>
				</port>
			</output>
		</layer>
		<layer id="4" name="conv1_bn_scale" type="Const" version="opset1">
			<data element_type="f32" shape="8" offset="432" size="32" />
			<output>
				<port id="0" precision="FP32" names="conv1_bn_scale">
					<dim>8</dim>
				</port>
			</output>
		</layer>
		<layer id="5" name="conv1_bn_offset" type="Const" version="opset1">
			<data element_type="f32" shape="8" offset="464" size="32" />
			<output>
				<port id="0" precision="FP32" names="conv1_bn_offset">
					<dim>8</dim>
				</port>
			</output>
		</layer>
		<layer id="6" name="conv1_bn_mean" type="Const" version="opset1">
			<data element_type="f32" shape="8" offset="496" size="32" />
			<output>
				<port id="0" precision="FP32" names="conv1_bn_mean">
					<dim>8</dim>
				</port>
			</output>
		</layer>
		<layer id="7" name="conv1_bn_variance" type="Const" version="opset1">
			<data element_type="f32" shape="8" offset="528" size="32" />
			<output>
				<port id="0" precision="FP32" names="conv1_bn_variance">
					<dim>8</dim>
				</port>
			</output>
		</layer>
		<layer id="8" name="BatchNormalization@0" type="BatchNormInference" version="opset5">
			<data epsilon="9.9999997473787516e-06" />
			<input>
				<port id="0" precision="FP32">
					<dim>-1</dim>
					<dim>8</dim>
					<dim>-1</dim>
					<dim>-1</dim>
				</port>
				<port id="1" precision="FP32">
					<dim>8</dim>
				</port>
				<port id="2" precision="FP32">
					<dim>8</dim>
				</port>
				<port id="3" precision="FP32">
					<dim>8</dim>
				</port>
				<port id="4" precision="FP32">
					<dim>8</dim>
				</port>
			</input>
			<output>
				<port id="5" precision="FP32" names="batch_norm_0.tmp_2">
					<dim>-1</dim>
					<dim>8</dim>
					<dim>-1</dim>
					<dim>-1</dim>
				</port>
			</output>
		</layer>
		<layer id="9" name="Constant@3_compressed" type="Const" version="opset1">
			<data element_type="f16" shape="" offset="560" size="2" />
			<output>
				<port id="0" precision="FP16" names="Constant@3" />
			</output>
		</layer>
		<layer id="10" name="Constant@3" type="Convert" version="opset1">
			<data destination_type="f32" />
			<rt_info>
				<attribute name="decompression" version="0" />
			</rt_info>
			<input>
				<port id="0" precision="FP16" />
			</input>
			<output>
				<port id="1" precision="FP32" />
			</output>
		</layer>
		<layer id="11" name="Constant@2_compressed" type="Const" version="opset1">
			<data element_type="f16" shape="" offset="562" size="2" />
			<output>
				<port id="0" precision="FP16" names="Constant@2" />
			</output>
		</layer>
		<layer id="12" name="Constant@2" type="Convert" version="opset1">
			<data destination_type="f32" />
			<rt_info>
				<attribute name="decompression" version="0" />
			</rt_info>
			<input>
				<port id="0" precision="FP16" />
			</input>
			<output>
				<port id="1" precision="FP32" />
			</output>
		</layer>
		<layer id="13" name="Constant@1_compressed" type="Const" version="opset1">
			<data element_type="f16" shape="" offset="564" size="2" />
			<output>
				<port id="0" precision="FP16" names="Constant@1" />
			</output>
		</layer>
		<layer id="14" name="Constant@1" type="Convert" version="opset1">
			<data destination_type="f32" />
			<rt_info>
				<attribute name="decompression" version="0" />
			</rt_info>
			<input>
				<port id="0" precision="FP16" />
			</input>
			<output>
				<port id="1" precision="FP32" />
			</output>
		</layer>
		<layer id="15" name="Add@0" type="Add" version="opset1">
			<data auto_broadcast="numpy" />
			<input>
				<port id="0" precision="FP32">
					<dim>-1</dim>
					<dim>8</dim>
					<dim>-1</dim>
					<dim>-1</dim>
				</port>
				<port id="1" precision="FP32" />
			</input>
			<output>
				<port id="2" precision="FP32" names="Add@0">
					<dim>-1</dim>
					<dim>8</dim>
					<dim>-1</dim>
					<dim>-1</dim>
				</port>
			</output>
		</layer>
		<layer id="16" name="Maximum_333" type="Maximum" version="opset1">
			<data auto_broadcast="numpy" />
			<input>
				<port id="0" precision="FP32" />
				<port id="1" precision="FP32">
					<dim>-1</dim>
					<dim>8</dim>
					<dim>-1</dim>
					<dim>-1</dim>
				</port>
			</input>
			<output>
				<port id="2" precision="FP32">
					<dim>-1</dim>
					<dim>8</dim>
					<dim>-1</dim>
					<dim>-1</dim>
				</port>
			</output>
		</layer>
		<layer id="17" name="Clip@0" type="Minimum" version="opset1">
			<data auto_broadcast="numpy" />
			<input>
				<port id="0" precision="FP32" />
				<port id="1" precision="FP32">
					<dim>-1</dim>
					<dim>8</dim>
					<dim>-1</dim>
					<dim>-1</dim>
				</port>
			</input>
			<output>
				<port id="2" precision="FP32" names="Clip@0">
					<dim>-1</dim>
					<dim>8</dim>
					<dim>-1</dim>
					<dim>-1</dim>
				</port>
			</output>
		</layer>
		<layer id="18" name="Mul@0" type="Multiply" version="opset1">
			<data auto_broadcast="numpy" />
			<input>
				<port id="0" precision="FP32">
					<dim>-1</dim>
					<dim>8</dim>
					<dim>-1</dim>
					<dim>-1</dim>
				</port>
				<port id="1" precision="FP32">
					<dim>-1</dim>
					<dim>8</dim>
					<dim>-1</dim>
					<dim>-1</dim>
				</port>
			</input>
			<output>
				<port id="2" precision="FP32" names="Mul@0">
					<dim>-1</dim>
					<dim>8</dim>
					<dim>-1</dim>
					<dim>-1</dim>
				</port>
			</output>
		</layer>
		<layer id="19" name="Constant@0_compressed" type="Const" version="opset1">
			<data element_type="f16" shape="" offset="560" size="2" />
			<output>
				<port id="0" precision="FP16" names="Constant@0" />
			</output>
		</layer>
		<layer id="20" name="Constant@0" type="Convert" version="opset1">
			<data destination_type="f32" />
			<rt_info>
				<attribute name="decompression" version="0" />
			</rt_info>
			<input>
				<port id="0" precision="FP16" />
			</input>
			<output>
				<port id="1" precision="FP32" />
			</output>
		</layer>
		<layer id="21" name="Div@0" type="Divide" version="opset1">
			<data auto_broadcast="numpy" m_pythondiv="true" />
			<input>
				<port id="0" precision="FP32">
					<dim>-1</dim>
					<dim>8</dim>
					<dim>-1</dim>
					<dim>-1</dim>
				</port>
				<port id="1" precision="FP32" />
			</input>
			<output>
				<port id="2" precision="FP32" names="hardswish_0.tmp_0">
					<dim>-1</dim>
					<dim>8</dim>
					<dim>-1</dim>
					<dim>-1</dim>
				</port>
			</output>
		</layer>
		<layer id="22" name="conv2_expand_weights_compressed" type="Const" version="opset1">
			<data element_type="f16" shape="8, 8, 1, 1" offset="566" size="128" />
			<output>
				<port id="0" precision="FP16" names="conv2_expand_weights">
					<dim>8</dim>
					<dim>8</dim>
					<dim>1</dim>
					<dim>1</dim>
				</port>
			</output>
		</layer>
		<layer id="23" name="conv2_expand_weights" type="Convert" version="opset1">
			<data destination_type="f32" />
			<rt_info>
				<attribute name="decompression" version="0" />
			</rt_info>
			<input>
				<port id="0" precision="FP16">
					<dim>8</dim>
					<dim>8</dim>
					<dim>1</dim>
					<dim>1</dim>
				</port>
			</input>
			<output>
				<port id="1" precision="FP32">
					<dim>8</dim>
					<dim>8</dim>
					<dim>1</dim>
					<dim>1</dim>
				</port>
			</output>
		</layer>
		<layer id="24" name="Conv@1" type="Convolution" version="opset1">
			<data strides="1, 1" dilations="1, 1" pads_begin="0, 0" pads_end="0, 0" auto_pad="explicit" />
			<input>
				<port id="0" precision="FP32">
					<dim>-1</dim>
					<dim>8</dim>
					<dim>-1</dim>
					<dim>-1</dim>
				</port>
				<port id="1" precision="FP32">
					<dim>8</dim>
					<dim>8</dim>
					<dim>1</dim>
					<dim>1</dim>
				</port>
			</input>
			<output>
				<port id="2" precision="FP32" names="conv2d_54.tmp_0">
					<dim>-1</dim>
					<dim>8</dim>
					<dim>-1</dim>
					<dim>-1</dim>
				</port>
			</output>
		</layer>
		<layer id="25" name="conv2_expand_bn_scale_compressed" type="Const" version="opset1">
			<data element_type="f16" shape="8" offset="694" size="16" />
			<output>
				<port id="0" precision="FP16" names="conv2_expand_bn_scale">
					<dim>8</dim>
				</port>
			</output>
		</layer>
		<layer id="26" name="conv2_expand_bn_scale" type="Convert" version="opset1">
			<data destination_type="f32" />
			<rt_info>
				<attribute name="decompression" version="0" />
			</rt_info>
			<input>
				<port id="0" precision="FP16">
					<dim>8</dim>
				</port>
			</input>
			<output>
				<port id="1" precision="FP32">
					<dim>8</dim>
				</port>
			</output>
		</layer>
		<layer id="27" name="conv2_expand_bn_offset_compressed" type="Const" version="opset1">
			<data element_type="f16" shape="8" offset="710" size="16" />
			<output>
				<port id="0" precision="FP16" names="conv2_expand_bn_offset">
					<dim>8</dim>
				</port>
			</output>
		</layer>
		<layer id="28" name="conv2_expand_bn_offset" type="Convert" version="opset1">
			<data destination_type="f32" />
			<rt_info>
				<attribute name="decompression" version="0" />
			</rt_info>
			<input>
				<port id="0" precision="FP16">
					<dim>8</dim>
				</port>
			</input>
			<output>
				<port id="1" precision="FP32">
					<dim>8</dim>
				</port>
			</output>
		</layer>
		<layer id="29" name="conv2_expand_bn_mean_compressed" type="Const" version="opset1">
			<data element_type="f16" shape="8" offset="726" size="16" />
			<output>
				<port id="0" precision="FP16" names="conv2_expand_bn_mean">
					<dim>8</dim>
				</port>
			</output>
		</layer>
		<layer id="30" name="conv2_expand_bn_mean" type="Convert" version="opset1">
			<data destination_type="f32" />
			<rt_info>
				<attribute name="decompression" version="0" />
			</rt_info>
			<input>
				<port id="0" precision="FP16">
					<dim>8</dim>
				</port>
			</input>
			<output>
				<port id="1" precision="FP32">
					<dim>8</dim>
				</port>
			</output>
		</layer>
		<layer id="31" name="conv2_expand_bn_variance_compressed" type="Const" version="opset1">
			<data element_type="f16" shape="8" offset="742" size="16" />
			<output>
				<port id="0" precision="FP16" names="conv2_expand_bn_variance">
					<dim>8</dim>
				</port>
			</output>
		</layer>
		<layer id="32" name="conv2_expand_bn_variance" type="Convert" version="opset1">
			<data destination_type="f32" />
			<rt_info>
				<attribute name="decompression" version="0" />
			</rt_info>
			<input>
				<port id="0" precision="FP16">
					<dim>8</dim>
				</port>
			</input>
			<output>
				<port id="1" precision="FP32">
					<dim>8</dim>
				</port>
			</output>
		</layer>
		<layer id="33" name="BatchNormalization@1" type="BatchNormInference" version="opset5">
			<data epsilon="9.9999997473787516e-06" />
			<input>
				<port id="0" precision="FP32">
					<dim>-1</dim>
					<dim>8</dim>
					<dim>-1</dim>
					<dim>-1</dim>
				</port>
				<port id="1" precision="FP32">
					<dim>8</dim>
				</port>
				<port id="2" precision="FP32">
					<dim>8</dim>
				</port>
				<port id="3" precision="FP32">
					<dim>8</dim>
				</port>
				<port id="4" precision="FP32">
					<dim>8</dim>
				</port>
			</input>
			<output>
				<port id="5" precision="FP32" names="batch_norm_1.tmp_2">
					<dim>-1</dim>
					<dim>8</dim>
					<dim>-1</dim>
					<dim>-1</dim>
				</port>
			</output>
		</layer>
		<layer id="34" name="Relu@0" type="ReLU" version="opset1">
			<input>
				<port id="0" precision="FP32">
					<dim>-1</dim>
					<dim>8</dim>
					<dim>-1</dim>
					<dim>-1</dim>
				</port>
			</input>
			<output>
				<port id="1" precision="FP32" names="relu_0.tmp_0">
					<dim>-1</dim>
					<dim>8</dim>
					<dim>-1</dim>
					<dim>-1</dim>
				</port>
			</output>
		</layer>
		<layer id="35" name="conv2_depthwise_weights_compressed" type="Const" version="opset1">
			<data element_type="f16" shape="8, 1, 3, 3" offset="758" size="144" />
			<output>
				<port id="0" precision="FP16" names="conv2_depthwise_weights">
					<dim>8</dim>
					<dim>1</dim>
					<dim>3</dim>
					<dim>3</dim>
				</port>
			</output>
		</layer>
		<layer id="36" name="conv2_depthwise_weights" type="Convert" version="opset1">
			<data destination_type="f32" />
			<rt_info>
				<attribute name="decompression" version="0" />
			</rt_info>
			<input>
				<port id="0" precision="FP16">
					<dim>8</dim>
					<dim>1</dim>
					<dim>3</dim>
					<dim>3</dim>
				</port>
			</input>
			<output>
				<port id="1" precision="FP32">
					<dim>8</dim>
					<dim>1</dim>
					<dim>3</dim>
					<dim>3</dim>
				</port>
			</output>
		</layer>
		<layer id="37" name="Constant_344" type="Const" version="opset1">
			<data element_type="i64" shape="1" offset="902" size="8" />
			<rt_info>
				<attribute name="precise" version="0" />
			</rt_info>
			<output>
				<port id="0" precision="I64">
					<dim>1</dim>
				</port>
			</output>
		</layer>
		<layer id="38" name="ShapeOf_345" type="ShapeOf" version="opset3">
			<data output_type="i64" />
			<input>
				<port id="0" precision="FP32">
					<dim>8</dim>
					<dim>1</dim>
					<dim>3</dim>
					<dim>3</dim>
				</port>
			</input>
			<output>
				<port id="1" precision="I64">
					<dim>4</dim>
				</port>
			</output>
		</layer>
		<layer id="39" name="Constant_342" type="Const" version="opset1">
			<data element_type="i64" shape="" offset="910" size="8" />
			<rt_info>
				<attribute name="precise" version="0" />
			</rt_info>
			<output>
				<port id="0" precision="I64" />
			</output>
		</layer>
		<layer id="40" name="Constant_343" type="Const" version="opset1">
			<data element_type="i64" shape="2" offset="918" size="16" />
			<rt_info>
				<attribute name="precise" version="0" />
			</rt_info>
			<output>
				<port id="0" precision="I64">
					<dim>2</dim>
				</port>
			</output>
		</layer>
		<layer id="41" name="VariadicSplit_346" type="VariadicSplit" version="opset1">
			<input>
				<port id="0" precision="I64">
					<dim>4</dim>
				</port>
				<port id="1" precision="I64" />
				<port id="2" precision="I64">
					<dim>2</dim>
				</port>
			</input>
			<output>
				<port id="3" precision="I64">
					<dim>1</dim>
				</port>
				<port id="4" precision="I64">
					<dim>3</dim>
				</port>
			</output>
		</layer>
		<layer id="42" name="Divide_347" type="Divide" version="opset1">
			<data auto_broadcast="numpy" m_pythondiv="true" />
			<input>
				<port id="0" precision="I64">
					<dim>1</dim>
				</port>
				<port id="1" precision="I64">
					<dim>1</dim>
				</port>
			</input>
			<output>
				<port id="2" precision="I64">
					<dim>1</dim>
				</port>
			</output>
		</layer>
		<layer id="43" name="Concat_348" type="Concat" version="opset1">
			<data axis="0" />
			<input>
				<port id="0" precision="I64">
					<dim>1</dim>
				</port>
				<port id="1" precision="I64">
					<dim>1</dim>
				</port>
				<port id="2" precision="I64">
					<dim>3</dim>
				</port>
			</input>
			<output>
				<port id="3" precision="I64">
					<dim>5</dim>
				</port>
			</output>
		</layer>
		<layer id="44" name="Reshape_349" type="Reshape" version="opset1">
			<data special_zero="false" />
			<input>
				<port id="0" precision="FP32">
					<dim>8</dim>
					<dim>1</dim>
					<dim>3</dim>
					<dim>3</dim>
				</port>
				<port id="1" precision="I64">
					<dim>5</dim>
				</port>
			</input>
			<output>
				<port id="2" precision="FP32">
					<dim>8</dim>
					<dim>1</dim>
					<dim>1</dim>
					<dim>3</dim>
					<dim>3</dim>
				</port>
			</output>
		</layer>
		<layer id="45" name="Conv@2" type="GroupConvolution" version="opset1">
			<data strides="2, 1" pads_begin="1, 1" pads_end="1, 1" dilations="1, 1" auto_pad="explicit" />
			<input>
				<port id="0" precision="FP32">
					<dim>-1</dim>
					<dim>8</dim>
					<dim>-1</dim>
					<dim>-1</dim>
				</port>
				<port id="1" precision="FP32">
					<dim>8</dim>
					<dim>1</dim>
					<dim>1</dim>
					<dim>3</dim>
					<dim>3</dim>
				</port>
			</input>
			<output>
				<port id="2" precision="FP32" names="depthwise_conv2d_0.tmp_0">
					<dim>-1</dim>
					<dim>8</dim>
					<dim>-1</dim>
					<dim>-1</dim>
				</port>
			</output>
		</layer>
		<layer id="46" name="conv2_depthwise_bn_scale" type="Const" version="opset1">
			<data element_type="f32" shape="8" offset="934" size="32" />
			<output>
				<port id="0" precision="FP32" names="conv2_depthwise_bn_scale">
					<dim>8</dim>
				</port>
			</output>
		</layer>
		<layer id="47" name="conv2_depthwise_bn_offset" type="Const" version="opset1">
			<data element_type="f32" shape="8" offset="966" size="32" />
			<output>
				<port id="0" precision="FP32" names="conv2_depthwise_bn_offset">
					<dim>8</dim>
				</port>
			</output>
		</layer>
		<layer id="48" name="conv2_depthwise_bn_mean_compressed" type="Const" version="opset1">
			<data element_type="f16" shape="8" offset="998" size="16" />
			<output>
				<port id="0" precision="FP16" names="conv2_depthwise_bn_mean">
					<dim>8</dim>
				</port>
			</output>
		</layer>
		<layer id="49" name="conv2_depthwise_bn_mean" type="Convert" version="opset1">
			<data destination_type="f32" />
			<rt_info>
				<attribute name="decompression" version="0" />
			</rt_info>
			<input>
				<port id="0" precision="FP16">
					<dim>8</dim>
				</port>
			</input>
			<output>
				<port id="1" precision="FP32">
					<dim>8</dim>
				</port>
			</output>
		</layer>
		<layer id="50" name="conv2_depthwise_bn_variance" type="Const" version="opset1">
			<data element_type="f32" shape="8" offset="1014" size="32" />
			<output>
				<port id="0" precision="FP32" names="conv2_depthwise_bn_variance">
					<dim>8</dim>
				</port>
			</output>
		</layer>
		<layer id="51" name="BatchNormalization@2" type="BatchNormInference" version="opset5">
			<data epsilon="9.9999997473787516e-06" />
			<input>
				<port id="0" precision="FP32">
					<dim>-1</dim>
					<dim>8</dim>
					<dim>-1</dim>
					<dim>-1</dim>
				</port>
				<port id="1" precision="FP32">
					<dim>8</dim>
				</port>
				<port id="2" precision="FP32">
					<dim>8</dim>
				</port>
				<port id="3" precision="FP32">
					<dim>8</dim>
				</port>
				<port id="4" precision="FP32">
					<dim>8</dim>
				</port>
			</input>
			<output>
				<port id="5" precision="FP32" names="batch_norm_2.tmp_2">
					<dim>-1</dim>
					<dim>8</dim>
					<dim>-1</dim>
					<dim>-1</dim>
				</port>
			</output>
		</layer>
		<layer id="52" name="Relu@1" type="ReLU" version="opset1">
			<input>
				<port id="0" precision="FP32">
					<dim>-1</dim>
					<dim>8</dim>
					<dim>-1</dim>
					<dim>-1</dim>
				</port>
			</input>
			<output>
				<port id="1" precision="FP32" names="relu_1.tmp_0">
					<dim>-1</dim>
					<dim>8</dim>
					<dim>-1</dim>
					<dim>-1</dim>
				</port>
			</output>
		</layer>
		<layer id="53" name="Constant_393" type="Const" version="opset1">
			<data element_type="i64" shape="" offset="1046" size="8" />
			<output>
				<port id="0" precision="I64" />
			</output>
		</layer>
		<layer id="54" name="ShapeOf_394" type="ShapeOf" version="opset3">
			<data output_type="i64" />
			<input>
				<port id="0" precision="FP32">
					<dim>-1</dim>
					<dim>8</dim>
					<dim>-1</dim>
					<dim>-1</dim>
				</port>
			</input>
			<output>
				<port id="1" precision="I64">
					<dim>4</dim>
				</port>
			</output>
		</layer>
		<layer id="55" name="ShapeOf_395" type="ShapeOf" version="opset3">
			<data output_type="i64" />
			<input>
				<port id="0" precision="I64">
					<dim>4</dim>
				</port>
			</input>
			<output>
				<port id="1" precision="I64">
					<dim>1</dim>
				</port>
			</output>
		</layer>
		<layer id="56" name="Squeeze_396" type="Squeeze" version="opset1">
			<input>
				<port id="0" precision="I64">
					<dim>1</dim>
				</port>
			</input>
			<output>
				<port id="1" precision="I64" />
			</output>
		</layer>
		<layer id="57" name="Constant_392" type="Const" version="opset1">
			<data element_type="i64" shape="" offset="1054" size="8" />
			<output>
				<port id="0" precision="I64" />
			</output>
		</layer>
		<layer id="58" name="Range_397" type="Range" version="opset4">
			<data output_type="i64" />
			<input>
				<port id="0" precision="I64" />
				<port id="1" precision="I64" />
				<port id="2" precision="I64" />
			</input>
			<output>
				<port id="3" precision="I64">
					<dim>2</dim>
				</port>
			</output>
		</layer>
		<layer id="59" name="GlobalAveragePool@0" type="ReduceMean" version="opset1">
			<data keep_dims="true" />
			<input>
				<port id="0" precision="FP32">
					<dim>-1</dim>
					<dim>8</dim>
					<dim>-1</dim>
					<dim>-1</dim>
				</port>
				<port id="1" precision="I64">
					<dim>2</dim>
				</port>
			</input>
			<output>
				<port id="2" precision="FP32" names="pool2d_0.tmp_0">
					<dim>-1</dim>
					<dim>8</dim>
					<dim>1</dim>
					<dim>1</dim>
				</port>
			</output>
		</layer>
		<layer id="60" name="conv2_se_1_weights_compressed" type="Const" version="opset1">
			<data element_type="f16" shape="2, 8, 1, 1" offset="1062" size="32" />
			<output>
				<port id="0" precision="FP16" names="conv2_se_1_weights">
					<dim>2</dim>
					<dim>8</dim>
					<dim>1</dim>
					<dim>1</dim>
				</port>
			</output>
		</layer>
		<layer id="61" name="conv2_se_1_weights" type="Convert" version="opset1">
			<data destination_type="f32" />
			<rt_info>
				<attribute name="decompression" version="0" />
			</rt_info>
			<input>
				<port id="0" precision="FP16">
					<dim>2</dim>
					<dim>8</dim>
					<dim>1</dim>
					<dim>1</dim>
				</port>
			</input>
			<output>
				<port id="1" precision="FP32">
					<dim>2</dim>
					<dim>8</dim>
					<dim>1</dim>
					<dim>1</dim>
				</port>
			</output>
		</layer>
		<layer id="62" name="Conv@3" type="Convolution" version="opset1">
			<data strides="1, 1" dilations="1, 1" pads_begin="0, 0" pads_end="0, 0" auto_pad="explicit" />
			<input>
				<port id="0" precision="FP32">
					<dim>-1</dim>
					<dim>8</dim>
					<dim>1</dim>
					<dim>1</dim>
				</port>
				<port id="1" precision="FP32">
					<dim>2</dim>
					<dim>8</dim>
					<dim>1</dim>
					<dim>1</dim>
				</port>
			</input>
			<output>
				<port id="2" precision="FP32" names="conv2d_55.tmp_0">
					<dim>-1</dim>
					<dim>2</dim>
					<dim>1</dim>
					<dim>1</dim>
				</port>
			</output>
		</layer>
		<layer id="63" name="conv2_se_1_offset" type="Const" version="opset1">
			<data element_type="f32" shape="2" offset="1094" size="8" />
			<output>
				<port id="0" precision="FP32" names="conv2_se_1_offset">
					<dim>2</dim>
				</port>
			</output>
		</layer>
		<layer id="64" name="Constant@4" type="Const" version="opset1">
			<data element_type="i64" shape="4" offset="1102" size="32" />
			<rt_info>
				<attribute name="precise" version="0" />
			</rt_info>
			<output>
				<port id="0" precision="I64" names="Constant@4">
					<dim>4</dim>
				</port>
			</output>
		</layer>
		<layer id="65" name="Reshape@0" type="Reshape" version="opset1">
			<data special_zero="true" />
			<input>
				<port id="0" precision="FP32">
					<dim>2</dim>
				</port>
				<port id="1" precision="I64">
					<dim>4</dim>
				</port>
			</input>
			<output>
				<port id="2" precision="FP32" names="Reshape@0">
					<dim>1</dim>
					<dim>2</dim>
					<dim>1</dim>
					<dim>1</dim>
				</port>
			</output>
		</layer>
		<layer id="66" name="Add@1" type="Add" version="opset1">
			<data auto_broadcast="numpy" />
			<input>
				<port id="0" precision="FP32">
					<dim>-1</dim>
					<dim>2</dim>
					<dim>1</dim>
					<dim>1</dim>
				</port>
				<port id="1" precision="FP32">
					<dim>1</dim>
					<dim>2</dim>
					<dim>1</dim>
					<dim>1</dim>
				</port>
			</input>
			<output>
				<port id="2" precision="FP32" names="conv2d_55.tmp_1">
					<dim>-1</dim>
					<dim>2</dim>
					<dim>1</dim>
					<dim>1</dim>
				</port>
			</output>
		</layer>
		<layer id="67" name="Relu@2" type="ReLU" version="opset1">
			<input>
				<port id="0" precision="FP32">
					<dim>-1</dim>
					<dim>2</dim>
					<dim>1</dim>
					<dim>1</dim>
				</port>
			</input>
			<output>
				<port id="1" precision="FP32" names="relu_2.tmp_0">
					<dim>-1</dim>
					<dim>2</dim>
					<dim>1</dim>
					<dim>1</dim>
				</port>
			</output>
		</layer>
		<layer id="68" name="conv2_se_2_weights" type="Const" version="opset1">
			<data element_type="f32" shape="8, 2, 1, 1" offset="1134" size="64" />
			<output>
				<port id="0" precision="FP32" names="conv2_se_2_weights">
					<dim>8</dim>
					<dim>2</dim>
					<dim>1</dim>
					<dim>1</dim>
				</port>
			</output>
		</layer>
		<layer id="69" name="Conv@4" type="Convolution" version="opset1">
			<data strides="1, 1" dilations="1, 1" pads_begin="0, 0" pads_end="0, 0" auto_pad="explicit" />
			<input>
				<port id="0" precision="FP32">
					<dim>-1</dim>
					<dim>2</dim>
					<dim>1</dim>
					<dim>1</dim>
				</port>
				<port id="1" precision="FP32">
					<dim>8</dim>
					<dim>2</dim>
					<dim>1</dim>
					<dim>1</dim>
				</port>
			</input>
			<output>
				<port id="2" precision="FP32" names="conv2d_56.tmp_0">
					<dim>-1</dim>
					<dim>8</dim>
					<dim>1</dim>
					<dim>1</dim>
				</port>
			</output>
		</layer>
		<layer id="70" name="conv2_se_2_offset" type="Const" version="opset1">
			<data element_type="f32" shape="8" offset="1198" size="32" />
			<output>
				<port id="0" precision="FP32" names="conv2_se_2_offset">
					<dim>8</dim>
				</port>
			</output>
		</layer>
		<layer id="71" name="Constant@5" type="Const" version="opset1">
			<data element_type="i64" shape="4" offset="1230" size="32" />
			<rt_info>
				<attribute name="precise" version="0" />
			</rt_info>
			<output>
				<port id="0" precision="I64" names="Constant@5">
					<dim>4</dim>
				</port>
			</output>
		</layer>
		<layer id="72" name="Reshape@1" type="Reshape" version="opset1">
			<data special_zero="true" />
			<input>
				<port id="0" precision="FP32">
					<dim>8</dim>
				</port>
				<port id="1" precision="I64">
					<dim>4</dim>
				</port>
			</input>
			<output>
				<port id="2" precision="FP32" names="Reshape@1">
					<dim>1</dim>
					<dim>8</dim>
					<dim>1</dim>
					<dim>1</dim>
				</port>
			</output>
		</layer>
		<layer id="73" name="Add@2" type="Add" version="opset1">
			<data auto_broadcast="numpy" />
			<input>
				<port id="0" precision="FP32">
					<dim>-1</dim>
					<dim>8</dim>
					<dim>1</dim>
					<dim>1</dim>
				</port>
				<port id="1" precision="FP32">
					<dim>1</dim>
					<dim>8</dim>
					<dim>1</dim>
					<dim>1</dim>
				</port>
			</input>
			<output>
				<port id="2" precision="FP32" names="conv2d_56.tmp_1">
					<dim>-1</dim>
					<dim>8</dim>
					<dim>1</dim>
					<dim>1</dim>
				</port>
			</output>
		</layer>
		<layer id="74" name="Constant_408" type="Const" version="opset1">
			<data element_type="f32" shape="" offset="1262" size="4" />
			<output>
				<port id="0" precision="FP32" />
			</output>
		</layer>
		<layer id="75" name="Constant_409_compressed" type="Const" version="opset1">
			<data element_type="f16" shape="" offset="1266" size="2" />
			<output>
				<port id="0" precision="FP16" />
			</output>
		</layer>
		<layer id="76" name="Constant_409" type="Convert" version="opset1">
			<data destination_type="f32" />
			<rt_info>
				<attribute name="decompression" version="0" />
			</rt_info>
			<input>
				<port id="0" precision="FP16" />
			</input>
			<output>
				<port id="1" precision="FP32" />
			</output>
		</layer>
		<layer id="77" name="HardSigmoid@0" type="HardSigmoid" version="opset1">
			<input>
				<port id="0" precision="FP32">
					<dim>-1</dim>
					<dim>8</dim>
					<dim>1</dim>
					<dim>1</dim>
				</port>
				<port id="1" precision="FP32" />
				<port id="2" precision="FP32" />
			</input>
			<output>
				<port id="3" precision="FP32" names="hardsigmoid_0.tmp_0">
					<dim>-1</dim>
					<dim>8</dim>
					<dim>1</dim>
					<dim>1</dim>
				</port>
			</output>
		</layer>
		<layer id="78" name="Mul@1" type="Multiply" version="opset1">
			<data auto_broadcast="numpy" />
			<input>
				<port id="0" precision="FP32">
					<dim>-1</dim>
					<dim>8</dim>
					<dim>-1</dim>
					<dim>-1</dim>
				</port>
				<port id="1" precision="FP32">
					<dim>-1</dim>
					<dim>8</dim>
					<dim>1</dim>
					<dim>1</dim>
				</port>
			</input>
			<output>
				<port id="2" precision="FP32" names="tmp_0">
					<dim>-1</dim>
					<dim>8</dim>
					<dim>-1</dim>
					<dim>-1</dim>
				</port>
			</output>
		</layer>
		<layer id="79" name="conv2_linear_weights" type="Const" version="opset1">
			<data element_type="f32" shape="8, 8, 1, 1" offset="1268" size="256" />
			<output>
				<port id="0" precision="FP32" names="conv2_linear_weights">
					<dim>8</dim>
					<dim>8</dim>
					<dim>1</dim>
					<dim>1</dim>
				</port>
			</output>
		</layer>
		<layer id="80" name="Conv@5" type="Convolution" version="opset1">
			<data strides="1, 1" dilations="1, 1" pads_begin="0, 0" pads_end="0, 0" auto_pad="explicit" />
			<input>
				<port id="0" precision="FP32">
					<dim>-1</dim>
					<dim>8</dim>
					<dim>-1</dim>
					<dim>-1</dim>
				</port>
				<port id="1" precision="FP32">
					<dim>8</dim>
					<dim>8</dim>
					<dim>1</dim>
					<dim>1</dim>
				</port>
			</input>
			<output>
				<port id="2" precision="FP32" names="conv2d_57.tmp_0">
					<dim>-1</dim>
					<dim>8</dim>
					<dim>-1</dim>
					<dim>-1</dim>
				</port>
			</output>
		</layer>
		<layer id="81" name="conv2_linear_bn_scale" type="Const" version="opset1">
			<data element_type="f32" shape="8" offset="1524" size="32" />
			<output>
				<port id="0" precision="FP32" names="conv2_linear_bn_scale">
					<dim>8</dim>
				</port>
			</output>
		</layer>
		<layer id="82" name="conv2_linear_bn_offset_compressed" type="Const" version="opset1">
			<data element_type="f16" shape="8" offset="1556" size="16" />
			<output>
				<port id="0" precision="FP16" names="conv2_linear_bn_offset">
					<dim>8</dim>
				</port>
			</output>
		</layer>
		<layer id="83" name="conv2_linear_bn_offset" type="Convert" version="opset1">
			<data destination_type="f32" />
			<rt_info>
				<attribute name="decompression" version="0" />
			</rt_info>
			<input>
				<port id="0" precision="FP16">
					<dim>8</dim>
				</port>
			</input>
			<output>
				<port id="1" precision="FP32">
					<dim>8</dim>
				</port>
			</output>
		</layer>
		<layer id="84" name="conv2_linear_bn_mean" type="Const" version="opset1">
			<data element_type="f32" shape="8" offset="1572" size="32" />
			<output>
				<port id="0" precision="FP32" names="conv2_linear_bn_mean">
					<dim>8</dim>
				</port>
			</output>
		</layer>
		<layer id="85" name="conv2_linear_bn_variance" type="Const" version="opset1">
			<data element_type="f32" shape="8" offset="1604" size="32" />
			<output>
				<port id="0" precision="FP32" names="conv2_linear_bn_variance">
					<dim>8</dim>
				</port>
			</output>
		</layer>
		<layer id="86" name="BatchNormalization@3" type="BatchNormInference" version="opset5">
			<data epsilon="9.9999997473787516e-06" />
			<input>
				<port id="0" precision="FP32">
					<dim>-1</dim>
					<dim>8</dim>
					<dim>-1</dim>
					<dim>-1</dim>
				</port>
				<port id="1" precision="FP32">
					<dim>8</dim>
				</port>
				<port id="2" precision="FP32">
					<dim>8</dim>
				</port>
				<port id="3" precision="FP32">
					<dim>8</dim>
				</port>
				<port id="4" precision="FP32">
					<dim>8</dim>
				</port>
			</input>
			<output>
				<port id="5" precision="FP32" names="batch_norm_3.tmp_2">
					<dim>-1</dim>
					<dim>8</dim>
					<dim>-1</dim>
					<dim>-1</dim>
				</port>
			</output>
		</layer>
		<layer id="87" name="conv3_expand_weights_compressed" type="Const" version="opset1">
			<data element_type="f16" shape="24, 8, 1, 1" offset="1636" size="384" />
			<output>
				<port id="0" precision="FP16" names="conv3_expand_weights">
					<dim>24</dim>
					<dim>8</dim>
					<dim>1</dim>
					<dim>1</dim>
				</port>
			</output>
		</layer>
		<layer id="88" name="conv3_expand_weights" type="Convert" version="opset1">
			<data destination_type="f32" />
			<rt_info>
				<attribute name="decompression" version="0" />
			</rt_info>
			<input>
				<port id="0" precision="FP16">
					<dim>24</dim>
					<dim>8</dim>
					<dim>1</dim>
					<dim>1</dim>
				</port>
			</input>
			<output>
				<port id="1" precision="FP32">
					<dim>24</dim>
					<dim>8</dim>
					<dim>1</dim>
					<dim>1</dim>
				</port>
			</output>
		</layer>
		<layer id="89" name="Conv@6" type="Convolution" version="opset1">
			<data strides="1, 1" dilations="1, 1" pads_begin="0, 0" pads_end="0, 0" auto_pad="explicit" />
			<input>
				<port id="0" precision="FP32">
					<dim>-1</dim>
					<dim>8</dim>
					<dim>-1</dim>
					<dim>-1</dim>
				</port>
				<port id="1" precision="FP32">
					<dim>24</dim>
					<dim>8</dim>
					<dim>1</dim>
					<dim>1</dim>
				</port>
			</input>
			<output>
				<port id="2" precision="FP32" names="conv2d_58.tmp_0">
					<dim>-1</dim>
					<dim>24</dim>
					<dim>-1</dim>
					<dim>-1</dim>
				</port>
			</output>
		</layer>
		<layer id="90" name="conv3_expand_bn_scale" type="Const" version="opset1">
			<data element_type="f32" shape="24" offset="2020" size="96" />
			<output>
				<port id="0" precision="FP32" names="conv3_expand_bn_scale">
					<dim>24</dim>
				</port>
			</output>
		</layer>
		<layer id="91" name="conv3_expand_bn_offset_compressed" type="Const" version="opset1">
			<data element_type="f16" shape="24" offset="2116" size="48" />
			<output>
				<port id="0" precision="FP16" names="conv3_expand_bn_offset">
					<dim>24</dim>
				</port>
			</output>
		</layer>
		<layer id="92" name="conv3_expand_bn_offset" type="Convert" version="opset1">
			<data destination_type="f32" />
			<rt_info>
				<attribute name="decompression" version="0" />
			</rt_info>
			<input>
				<port id="0" precision="FP16">
					<dim>24</dim>
				</port>
			</input>
			<output>
				<port id="1" precision="FP32">
					<dim>24</dim>
				</port>
			</output>
		</layer>
		<layer id="93" name="conv3_expand_bn_mean_compressed" type="Const" version="opset1">
			<data element_type="f16" shape="24" offset="2164" size="48" />
			<output>
				<port id="0" precision="FP16" names="conv3_expand_bn_mean">
					<dim>24</dim>
				</port>
			</output>
		</layer>
		<layer id="94" name="conv3_expand_bn_mean" type="Convert" version="opset1">
			<data destination_type="f32" />
			<rt_info>
				<attribute name="decompression" version="0" />
			</rt_info>
			<input>
				<port id="0" precision="FP16">
					<dim>24</dim>
				</port>
			</input>
			<output>
				<port id="1" precision="FP32">
					<dim>24</dim>
				</port>
			</output>
		</layer>
		<layer id="95" name="conv3_expand_bn_variance" type="Const" version="opset1">
			<data element_type="f32" shape="24" offset="2212" size="96" />
			<output>
				<port id="0" precision="FP32" names="conv3_expand_bn_variance">
					<dim>24</dim>
				</port>
			</output>
		</layer>
		<layer id="96" name="BatchNormalization@4" type="BatchNormInference" version="opset5">
			<data epsilon="9.9999997473787516e-06" />
			<input>
				<port id="0" precision="FP32">
					<dim>-1</dim>
					<dim>24</dim>
					<dim>-1</dim>
					<dim>-1</dim>
				</port>
				<port id="1" precision="FP32">
					<dim>24</dim>
				</port>
				<port id="2" precision="FP32">
					<dim>24</dim>
				</port>
				<port id="3" precision="FP32">
					<dim>24</dim>
				</port>
				<port id="4" precision="FP32">
					<dim>24</dim>
				</port>
			</input>
			<output>
				<port id="5" precision="FP32" names="batch_norm_4.tmp_2">
					<dim>-1</dim>
					<dim>24</dim>
					<dim>-1</dim>
					<dim>-1</dim>
				</port>
			</output>
		</layer>
		<layer id="97" name="Relu@3" type="ReLU" version="opset1">
			<input>
				<port id="0" precision="FP32">
					<dim>-1</dim>
					<dim>24</dim>
					<dim>-1</dim>
					<dim>-1</dim>
				</port>
			</input>
			<output>
				<port id="1" precision="FP32" names="relu_3.tmp_0">
					<dim>-1</dim>
					<dim>24</dim>
					<dim>-1</dim>
					<dim>-1</dim>
				</port>
			</output>
		</layer>
		<layer id="98" name="conv3_depthwise_weights_compressed" type="Const" version="opset1">
			<data element_type="f16" shape="24, 1, 3, 3" offset="2308" size="432" />
			<output>
				<port id="0" precision="FP16" names="conv3_depthwise_weights">
					<dim>24</dim>
					<dim>1</dim>
					<dim>3</dim>
					<dim>3</dim>
				</port>
			</output>
		</layer>
		<layer id="99" name="conv3_depthwise_weights" type="Convert" version="opset1">
			<data destination_type="f32" />
			<rt_info>
				<attribute name="decompression" version="0" />
			</rt_info>
			<input>
				<port id="0" precision="FP16">
					<dim>24</dim>
					<dim>1</dim>
					<dim>3</dim>
					<dim>3</dim>
				</port>
			</input>
			<output>
				<port id="1" precision="FP32">
					<dim>24</dim>
					<dim>1</dim>
					<dim>3</dim>
					<dim>3</dim>
				</port>
			</output>
		</layer>
		<layer id="100" name="Constant_422" type="Const" version="opset1">
			<data element_type="i64" shape="1" offset="2740" size="8" />
			<rt_info>
				<attribute name="precise" version="0" />
			</rt_info>
			<output>
				<port id="0" precision="I64">
					<dim>1</dim>
				</port>
			</output>
		</layer>
		<layer id="101" name="ShapeOf_423" type="ShapeOf" version="opset3">
			<data output_type="i64" />
			<input>
				<port id="0" precision="FP32">
					<dim>24</dim>
					<dim>1</dim>
					<dim>3</dim>
					<dim>3</dim>
				</port>
			</input>
			<output>
				<port id="1" precision="I64">
					<dim>4</dim>
				</port>
			</output>
		</layer>
		<layer id="102" name="Constant_420" type="Const" version="opset1">
			<data element_type="i64" shape="" offset="910" size="8" />
			<rt_info>
				<attribute name="precise" version="0" />
			</rt_info>
			<output>
				<port id="0" precision="I64" />
			</output>
		</layer>
		<layer id="103" name="Constant_421" type="Const" version="opset1">
			<data element_type="i64" shape="2" offset="918" size="16" />
			<rt_info>
				<attribute name="precise" version="0" />
			</rt_info>
			<output>
				<port id="0" precision="I64">
					<dim>2</dim>
				</port>
			</output>
		</layer>
		<layer id="104" name="VariadicSplit_424" type="VariadicSplit" version="opset1">
			<input>
				<port id="0" precision="I64">
					<dim>4</dim>
				</port>
				<port id="1" precision="I64" />
				<port id="2" precision="I64">
					<dim>2</dim>
				</port>
			</input>
			<output>
				<port id="3" precision="I64">
					<dim>1</dim>
				</port>
				<port id="4" precision="I64">
					<dim>3</dim>
				</port>
			</output>
		</layer>
		<layer id="105" name="Divide_425" type="Divide" version="opset1">
			<data auto_broadcast="numpy" m_pythondiv="true" />
			<input>
				<port id="0" precision="I64">
					<dim>1</dim>
				</port>
				<port id="1" precision="I64">
					<dim>1</dim>
				</port>
			</input>
			<output>
				<port id="2" precision="I64">
					<dim>1</dim>
				</port>
			</output>
		</layer>
		<layer id="106" name="Concat_426" type="Concat" version="opset1">
			<data axis="0" />
			<input>
				<port id="0" precision="I64">
					<dim>1</dim>
				</port>
				<port id="1" precision="I64">
					<dim>1</dim>
				</port>
				<port id="2" precision="I64">
					<dim>3</dim>
				</port>
			</input>
			<output>
				<port id="3" precision="I64">
					<dim>5</dim>
				</port>
			</output>
		</layer>
		<layer id="107" name="Reshape_427" type="Reshape" version="opset1">
			<data special_zero="false" />
			<input>
				<port id="0" precision="FP32">
					<dim>24</dim>
					<dim>1</dim>
					<dim>3</dim>
					<dim>3</dim>
				</port>
				<port id="1" precision="I64">
					<dim>5</dim>
				</port>
			</input>
			<output>
				<port id="2" precision="FP32">
					<dim>24</dim>
					<dim>1</dim>
					<dim>1</dim>
					<dim>3</dim>
					<dim>3</dim>
				</port>
			</output>
		</layer>
		<layer id="108" name="Conv@7" type="GroupConvolution" version="opset1">
			<data strides="2, 1" pads_begin="1, 1" pads_end="1, 1" dilations="1, 1" auto_pad="explicit" />
			<input>
				<port id="0" precision="FP32">
					<dim>-1</dim>
					<dim>24</dim>
					<dim>-1</dim>
					<dim>-1</dim>
				</port>
				<port id="1" precision="FP32">
					<dim>24</dim>
					<dim>1</dim>
					<dim>1</dim>
					<dim>3</dim>
					<dim>3</dim>
				</port>
			</input>
			<output>
				<port id="2" precision="FP32" names="depthwise_conv2d_1.tmp_0">
					<dim>-1</dim>
					<dim>24</dim>
					<dim>-1</dim>
					<dim>-1</dim>
				</port>
			</output>
		</layer>
		<layer id="109" name="conv3_depthwise_bn_scale_compressed" type="Const" version="opset1">
			<data element_type="f16" shape="24" offset="2748" size="48" />
			<output>
				<port id="0" precision="FP16" names="conv3_depthwise_bn_scale">
					<dim>24</dim>
				</port>
			</output>
		</layer>
		<layer id="110" name="conv3_depthwise_bn_scale" type="Convert" version="opset1">
			<data destination_type="f32" />
			<rt_info>
				<attribute name="decompression" version="0" />
			</rt_info>
			<input>
				<port id="0" precision="FP16">
					<dim>24</dim>
				</port>
			</input>
			<output>
				<port id="1" precision="FP32">
					<dim>24</dim>
				</port>
			</output>
		</layer>
		<layer id="111" name="conv3_depthwise_bn_offset_compressed" type="Const" version="opset1">
			<data element_type="f16" shape="24" offset="2796" size="48" />
			<output>
				<port id="0" precision="FP16" names="conv3_depthwise_bn_offset">
					<dim>24</dim>
				</port>
			</output>
		</layer>
		<layer id="112" name="conv3_depthwise_bn_offset" type="Convert" version="opset1">
			<data destination_type="f32" />
			<rt_info>
				<attribute name="decompression" version="0" />
			</rt_info>
			<input>
				<port id="0" precision="FP16">
					<dim>24</dim>
				</port>
			</input>
			<output>
				<port id="1" precision="FP32">
					<dim>24</dim>
				</port>
			</output>
		</layer>
		<layer id="113" name="conv3_depthwise_bn_mean" type="Const" version="opset1">
			<data element_type="f32" shape="24" offset="2844" size="96" />
			<output>
				<port id="0" precision="FP32" names="conv3_depthwise_bn_mean">
					<dim>24</dim>
				</port>
			</output>
		</layer>
		<layer id="114" name="conv3_depthwise_bn_variance_compressed" type="Const" version="opset1">
			<data element_type="f16" shape="24" offset="2940" size="48" />
			<output>
				<port id="0" precision="FP16" names="conv3_depthwise_bn_variance">
					<dim>24</dim>
				</port>
			</output>
		</layer>
		<layer id="115" name="conv3_depthwise_bn_variance" type="Convert" version="opset1">
			<data destination_type="f32" />
			<rt_info>
				<attribute name="decompression" version="0" />
			</rt_info>
			<input>
				<port id="0" precision="FP16">
					<dim>24</dim>
				</port>
			</input>
			<output>
				<port id="1" precision="FP32">
					<dim>24</dim>
				</port>
			</output>
		</layer>
		<layer id="116" name="BatchNormalization@5" type="BatchNormInference" version="opset5">
			<data epsilon="9.9999997473787516e-06" />
			<input>
				<port id="0" precision="FP32">
					<dim>-1</dim>
					<dim>24</dim>
					<dim>-1</dim>
					<dim>-1</dim>
				</port>
				<port id="1" precision="FP32">
					<dim>24</dim>
				</port>
				<port id="2" precision="FP32">
					<dim>24</dim>
				</port>
				<port id="3" precision="FP32">
					<dim>24</dim>
				</port>
				<port id="4" precision="FP32">
					<dim>24</dim>
				</port>
			</input>
			<output>
				<port id="5" precision="FP32" names="batch_norm_5.tmp_2">
					<dim>-1</dim>
					<dim>24</dim>
					<dim>-1</dim>
					<dim>-1</dim>
				</port>
			</output>
		</layer>
		<layer id="117" name="Relu@4" type="ReLU" version="opset1">
			<input>
				<port id="0" precision="FP32">
					<dim>-1</dim>
					<dim>24</dim>
					<dim>-1</dim>
					<dim>-1</dim>
				</port>
			</input>
			<output>
				<port id="1" precision="FP32" names="relu_4.tmp_0">
					<dim>-1</dim>
					<dim>24</dim>
					<dim>-1</dim>
					<dim>-1</dim>
				</port>
			</output>
		</layer>
		<layer id="118" name="conv3_linear_weights_compressed" type="Const" version="opset1">
			<data element_type="f16" shape="8, 24, 1, 1" offset="2988" size="384" />
			<output>
				<port id="0" precision="FP16" names="conv3_linear_weights">
					<dim>8</dim>
					<dim>24</dim>
					<dim>1</dim>
					<dim>1</dim>
				</port>
			</output>
		</layer>
		<layer id="119" name="conv3_linear_weights" type="Convert" version="opset1">
			<data destination_type="f32" />
			<rt_info>
				<attribute name="decompression" version="0" />
			</rt_info>
			<input>
				<port id="0" precision="FP16">
					<dim>8</dim>
					<dim>24</dim>
					<dim>1</dim>
					<dim>1</dim>
				</port>
			</input>
			<output>
				<port id="1" precision="FP32">
					<dim>8</dim>
					<dim>24</dim>
					<dim>1</dim>
					<dim>1</dim>
				</port>
			</output>
		</layer>
		<layer id="120" name="Conv@8" type="Convolution" version="opset1">
			<data strides="1, 1" dilations="1, 1" pads_begin="0, 0" pads_end="0, 0" auto_pad="explicit" />
			<input>
				<port id="0" precision="FP32">
					<dim>-1</dim>
					<dim>24</dim>
					<dim>-1</dim>
					<dim>-1</dim>
				</port>
				<port id="1" precision="FP32">
					<dim>8</dim>
					<dim>24</dim>
					<dim>1</dim>
					<dim>1</dim>
				</port>
			</input>
			<output>
				<port id="2" precision="FP32" names="conv2d_59.tmp_0">
					<dim>-1</dim>
					<dim>8</dim>
					<dim>-1</dim>
					<dim>-1</dim>
				</port>
			</output>
		</layer>
		<layer id="121" name="conv3_linear_bn_scale_compressed" type="Const" version="opset1">
			<data element_type="f16" shape="8" offset="3372" size="16" />
			<output>
				<port id="0" precision="FP16" names="conv3_linear_bn_scale">
					<dim>8</dim>
				</port>
			</output>
		</layer>
		<layer id="122" name="conv3_linear_bn_scale" type="Convert" version="opset1">
			<data destination_type="f32" />
			<rt_info>
				<attribute name="decompression" version="0" />
			</rt_info>
			<input>
				<port id="0" precision="FP16">
					<dim>8</dim>
				</port>
			</input>
			<output>
				<port id="1" precision="FP32">
					<dim>8</dim>
				</port>
			</output>
		</layer>
		<layer id="123" name="conv3_linear_bn_offset_compressed" type="Const" version="opset1">
			<data element_type="f16" shape="8" offset="3388" size="16" />
			<output>
				<port id="0" precision="FP16" names="conv3_linear_bn_offset">
					<dim>8</dim>
				</port>
			</output>
		</layer>
		<layer id="124" name="conv3_linear_bn_offset" type="Convert" version="opset1">
			<data destination_type="f32" />
			<rt_info>
				<attribute name="decompression" version="0" />
			</rt_info>
			<input>
				<port id="0" precision="FP16">
					<dim>8</dim>
				</port>
			</input>
			<output>
				<port id="1" precision="FP32">
					<dim>8</dim>
				</port>
			</output>
		</layer>
		<layer id="125" name="conv3_linear_bn_mean_compressed" type="Const" version="opset1">
			<data element_type="f16" shape="8" offset="3404" size="16" />
			<output>
				<port id="0" precision="FP16" names="conv3_linear_bn_mean">
					<dim>8</dim>
				</port>
			</output>
		</layer>
		<layer id="126" name="conv3_linear_bn_mean" type="Convert" version="opset1">
			<data destination_type="f32" />
			<rt_info>
				<attribute name="decompression" version="0" />
			</rt_info>
			<input>
				<port id="0" precision="FP16">
					<dim>8</dim>
				</port>
			</input>
			<output>
				<port id="1" precision="FP32">
					<dim>8</dim>
				</port>
			</output>
		</layer>
		<layer id="127" name="conv3_linear_bn_variance_compressed" type="Const" version="opset1">
			<data element_type="f16" shape="8" offset="3420" size="16" />
			<output>
				<port id="0" precision="FP16" names="conv3_linear_bn_variance">
					<dim>8</dim>
				</port>
			</output>
		</layer>
		<layer id="128" name="conv3_linear_bn_variance" type="Convert" version="opset1">
			<data destination_type="f32" />
			<rt_info>
				<attribute name="decompression" version="0" />
			</rt_info>
			<input>
				<port id="0" precision="FP16">
					<dim>8</dim>
				</port>
			</input>
			<output>
				<port id="1" precision="FP32">
					<dim>8</dim>
				</port>
			</output>
		</layer>
		<layer id="129" name="BatchNormalization@6" type="BatchNormInference" version="opset5">
			<data epsilon="9.9999997473787516e-06" />
			<input>
				<port id="0" precision="FP32">
					<dim>-1</dim>
					<dim>8</dim>
					<dim>-1</dim>
					<dim>-1</dim>
				</port>
				<port id="1" precision="FP32">
					<dim>8</dim>
				</port>
				<port id="2" precision="FP32">
					<dim>8</dim>
				</port>
				<port id="3" precision="FP32">
					<dim>8</dim>
				</port>
				<port id="4" precision="FP32">
					<dim>8</dim>
				</port>
			</input>
			<output>
				<port id="5" precision="FP32" names="batch_norm_6.tmp_2">
					<dim>-1</dim>
					<dim>8</dim>
					<dim>-1</dim>
					<dim>-1</dim>
				</port>
			</output>
		</layer>
		<layer id="130" name="conv4_expand_weights_compressed" type="Const" version="opset1">
			<data element_type="f16" shape="32, 8, 1, 1" offset="3436" size="512" />
			<output>
				<port id="0" precision="FP16" names="conv4_expand_weights">
					<dim>32</dim>
					<dim>8</dim>
					<dim>1</dim>
					<dim>1</dim>
				</port>
			</output>
		</layer>
		<layer id="131" name="conv4_expand_weights" type="Convert" version="opset1">
			<data destination_type="f32" />
			<rt_info>
				<attribute name="decompression" version="0" />
			</rt_info>
			<input>
				<port id="0" precision="FP16">
					<dim>32</dim>
					<dim>8</dim>
					<dim>1</dim>
					<dim>1</dim>
				</port>
			</input>
			<output>
				<port id="1" precision="FP32">
					<dim>32</dim>
					<dim>8</dim>
					<dim>1</dim>
					<dim>1</dim>
				</port>
			</output>
		</layer>
		<layer id="132" name="Conv@9" type="Convolution" version="opset1">
			<data strides="1, 1" dilations="1, 1" pads_begin="0, 0" pads_end="0, 0" auto_pad="explicit" />
			<input>
				<port id="0" precision="FP32">
					<dim>-1</dim>
					<dim>8</dim>
					<dim>-1</dim>
					<dim>-1</dim>
				</port>
				<port id="1" precision="FP32">
					<dim>32</dim>
					<dim>8</dim>
					<dim>1</dim>
					<dim>1</dim>
				</port>
			</input>
			<output>
				<port id="2" precision="FP32" names="conv2d_60.tmp_0">
					<dim>-1</dim>
					<dim>32</dim>
					<dim>-1</dim>
					<dim>-1</dim>
				</port>
			</output>
		</layer>
		<layer id="133" name="conv4_expand_bn_scale" type="Const" version="opset1">
			<data element_type="f32" shape="32" offset="3948" size="128" />
			<output>
				<port id="0" precision="FP32" names="conv4_expand_bn_scale">
					<dim>32</dim>
				</port>
			</output>
		</layer>
		<layer id="134" name="conv4_expand_bn_offset_compressed" type="Const" version="opset1">
			<data element_type="f16" shape="32" offset="4076" size="64" />
			<output>
				<port id="0" precision="FP16" names="conv4_expand_bn_offset">
					<dim>32</dim>
				</port>
			</output>
		</layer>
		<layer id="135" name="conv4_expand_bn_offset" type="Convert" version="opset1">
			<data destination_type="f32" />
			<rt_info>
				<attribute name="decompression" version="0" />
			</rt_info>
			<input>
				<port id="0" precision="FP16">
					<dim>32</dim>
				</port>
			</input>
			<output>
				<port id="1" precision="FP32">
					<dim>32</dim>
				</port>
			</output>
		</layer>
		<layer id="136" name="conv4_expand_bn_mean_compressed" type="Const" version="opset1">
			<data element_type="f16" shape="32" offset="4140" size="64" />
			<output>
				<port id="0" precision="FP16" names="conv4_expand_bn_mean">
					<dim>32</dim>
				</port>
			</output>
		</layer>
		<layer id="137" name="conv4_expand_bn_mean" type="Convert" version="opset1">
			<data destination_type="f32" />
			<rt_info>
				<attribute name="decompression" version="0" />
			</rt_info>
			<input>
				<port id="0" precision="FP16">
					<dim>32</dim>
				</port>
			</input>
			<output>
				<port id="1" precision="FP32">
					<dim>32</dim>
				</port>
			</output>
		</layer>
		<layer id="138" name="conv4_expand_bn_variance_compressed" type="Const" version="opset1">
			<data element_type="f16" shape="32" offset="4204" size="64" />
			<output>
				<port id="0" precision="FP16" names="conv4_expand_bn_variance">
					<dim>32</dim>
				</port>
			</output>
		</layer>
		<layer id="139" name="conv4_expand_bn_variance" type="Convert" version="opset1">
			<data destination_type="f32" />
			<rt_info>
				<attribute name="decompression" version="0" />
			</rt_info>
			<input>
				<port id="0" precision="FP16">
					<dim>32</dim>
				</port>
			</input>
			<output>
				<port id="1" precision="FP32">
					<dim>32</dim>
				</port>
			</output>
		</layer>
		<layer id="140" name="BatchNormalization@7" type="BatchNormInference" version="opset5">
			<data epsilon="9.9999997473787516e-06" />
			<input>
				<port id="0" precision="FP32">
					<dim>-1</dim>
					<dim>32</dim>
					<dim>-1</dim>
					<dim>-1</dim>
				</port>
				<port id="1" precision="FP32">
					<dim>32</dim>
				</port>
				<port id="2" precision="FP32">
					<dim>32</dim>
				</port>
				<port id="3" precision="FP32">
					<dim>32</dim>
				</port>
				<port id="4" precision="FP32">
					<dim>32</dim>
				</port>
			</input>
			<output>
				<port id="5" precision="FP32" names="batch_norm_7.tmp_2">
					<dim>-1</dim>
					<dim>32</dim>
					<dim>-1</dim>
					<dim>-1</dim>
				</port>
			</output>
		</layer>
		<layer id="141" name="Relu@5" type="ReLU" version="opset1">
			<input>
				<port id="0" precision="FP32">
					<dim>-1</dim>
					<dim>32</dim>
					<dim>-1</dim>
					<dim>-1</dim>
				</port>
			</input>
			<output>
				<port id="1" precision="FP32" names="relu_5.tmp_0">
					<dim>-1</dim>
					<dim>32</dim>
					<dim>-1</dim>
					<dim>-1</dim>
				</port>
			</output>
		</layer>
		<layer id="142" name="conv4_depthwise_weights_compressed" type="Const" version="opset1">
			<data element_type="f16" shape="32, 1, 3, 3" offset="4268" size="576" />
			<output>
				<port id="0" precision="FP16" names="conv4_depthwise_weights">
					<dim>32</dim>
					<dim>1</dim>
					<dim>3</dim>
					<dim>3</dim>
				</port>
			</output>
		</layer>
		<layer id="143" name="conv4_depthwise_weights" type="Convert" version="opset1">
			<data destination_type="f32" />
			<rt_info>
				<attribute name="decompression" version="0" />
			</rt_info>
			<input>
				<port id="0" precision="FP16">
					<dim>32</dim>
					<dim>1</dim>
					<dim>3</dim>
					<dim>3</dim>
				</port>
			</input>
			<output>
				<port id="1" precision="FP32">
					<dim>32</dim>
					<dim>1</dim>
					<dim>3</dim>
					<dim>3</dim>
				</port>
			</output>
		</layer>
		<layer id="144" name="Constant_479" type="Const" version="opset1">
			<data element_type="i64" shape="1" offset="4844" size="8" />
			<rt_info>
				<attribute name="precise" version="0" />
			</rt_info>
			<output>
				<port id="0" precision="I64">
					<dim>1</dim>
				</port>
			</output>
		</layer>
		<layer id="145" name="ShapeOf_480" type="ShapeOf" version="opset3">
			<data output_type="i64" />
			<input>
				<port id="0" precision="FP32">
					<dim>32</dim>
					<dim>1</dim>
					<dim>3</dim>
					<dim>3</dim>
				</port>
			</input>
			<output>
				<port id="1" precision="I64">
					<dim>4</dim>
				</port>
			</output>
		</layer>
		<layer id="146" name="Constant_477" type="Const" version="opset1">
			<data element_type="i64" shape="" offset="910" size="8" />
			<rt_info>
				<attribute name="precise" version="0" />
			</rt_info>
			<output>
				<port id="0" precision="I64" />
			</output>
		</layer>
		<layer id="147" name="Constant_478" type="Const" version="opset1">
			<data element_type="i64" shape="2" offset="918" size="16" />
			<rt_info>
				<attribute name="precise" version="0" />
			</rt_info>
			<output>
				<port id="0" precision="I64">
					<dim>2</dim>
				</port>
			</output>
		</layer>
		<layer id="148" name="VariadicSplit_481" type="VariadicSplit" version="opset1">
			<input>
				<port id="0" precision="I64">
					<dim>4</dim>
				</port>
				<port id="1" precision="I64" />
				<port id="2" precision="I64">
					<dim>2</dim>
				</port>
			</input>
			<output>
				<port id="3" precision="I64">
					<dim>1</dim>
				</port>
				<port id="4" precision="I64">
					<dim>3</dim>
				</port>
			</output>
		</layer>
		<layer id="149" name="Divide_482" type="Divide" version="opset1">
			<data auto_broadcast="numpy" m_pythondiv="true" />
			<input>
				<port id="0" precision="I64">
					<dim>1</dim>
				</port>
				<port id="1" precision="I64">
					<dim>1</dim>
				</port>
			</input>
			<output>
				<port id="2" precision="I64">
					<dim>1</dim>
				</port>
			</output>
		</layer>
		<layer id="150" name="Concat_483" type="Concat" version="opset1">
			<data axis="0" />
			<input>
				<port id="0" precision="I64">
					<dim>1</dim>
				</port>
				<port id="1" precision="I64">
					<dim>1</dim>
				</port>
				<port id="2" precision="I64">
					<dim>3</dim>
				</port>
			</input>
			<output>
				<port id="3" precision="I64">
					<dim>5</dim>
				</port>
			</output>
		</layer>
		<layer id="151" name="Reshape_484" type="Reshape" version="opset1">
			<data special_zero="false" />
			<input>
				<port id="0" precision="FP32">
					<dim>32</dim>
					<dim>1</dim>
					<dim>3</dim>
					<dim>3</dim>
				</port>
				<port id="1" precision="I64">
					<dim>5</dim>
				</port>
			</input>
			<output>
				<port id="2" precision="FP32">
					<dim>32</dim>
					<dim>1</dim>
					<dim>1</dim>
					<dim>3</dim>
					<dim>3</dim>
				</port>
			</output>
		</layer>
		<layer id="152" name="Conv@10" type="GroupConvolution" version="opset1">
			<data strides="1, 1" pads_begin="1, 1" pads_end="1, 1" dilations="1, 1" auto_pad="explicit" />
			<input>
				<port id="0" precision="FP32">
					<dim>-1</dim>
					<dim>32</dim>
					<dim>-1</dim>
					<dim>-1</dim>
				</port>
				<port id="1" precision="FP32">
					<dim>32</dim>
					<dim>1</dim>
					<dim>1</dim>
					<dim>3</dim>
					<dim>3</dim>
				</port>
			</input>
			<output>
				<port id="2" precision="FP32" names="depthwise_conv2d_2.tmp_0">
					<dim>-1</dim>
					<dim>32</dim>
					<dim>-1</dim>
					<dim>-1</dim>
				</port>
			</output>
		</layer>
		<layer id="153" name="conv4_depthwise_bn_scale" type="Const" version="opset1">
			<data element_type="f32" shape="32" offset="4852" size="128" />
			<output>
				<port id="0" precision="FP32" names="conv4_depthwise_bn_scale">
					<dim>32</dim>
				</port>
			</output>
		</layer>
		<layer id="154" name="conv4_depthwise_bn_offset_compressed" type="Const" version="opset1">
			<data element_type="f16" shape="32" offset="4980" size="64" />
			<output>
				<port id="0" precision="FP16" names="conv4_depthwise_bn_offset">
					<dim>32</dim>
				</port>
			</output>
		</layer>
		<layer id="155" name="conv4_depthwise_bn_offset" type="Convert" version="opset1">
			<data destination_type="f32" />
			<rt_info>
				<attribute name="decompression" version="0" />
			</rt_info>
			<input>
				<port id="0" precision="FP16">
					<dim>32</dim>
				</port>
			</input>
			<output>
				<port id="1" precision="FP32">
					<dim>32</dim>
				</port>
			</output>
		</layer>
		<layer id="156" name="conv4_depthwise_bn_mean_compressed" type="Const" version="opset1">
			<data element_type="f16" shape="32" offset="5044" size="64" />
			<output>
				<port id="0" precision="FP16" names="conv4_depthwise_bn_mean">
					<dim>32</dim>
				</port>
			</output>
		</layer>
		<layer id="157" name="conv4_depthwise_bn_mean" type="Convert" version="opset1">
			<data destination_type="f32" />
			<rt_info>
				<attribute name="decompression" version="0" />
			</rt_info>
			<input>
				<port id="0" precision="FP16">
					<dim>32</dim>
				</port>
			</input>
			<output>
				<port id="1" precision="FP32">
					<dim>32</dim>
				</port>
			</output>
		</layer>
		<layer id="158" name="conv4_depthwise_bn_variance" type="Const" version="opset1">
			<data element_type="f32" shape="32" offset="5108" size="128" />
			<output>
				<port id="0" precision="FP32" names="conv4_depthwise_bn_variance">
					<dim>32</dim>
				</port>
			</output>
		</layer>
		<layer id="159" name="BatchNormalization@8" type="BatchNormInference" version="opset5">
			<data epsilon="9.9999997473787516e-06" />
			<input>
				<port id="0" precision="FP32">
					<dim>-1</dim>
					<dim>32</dim>
					<dim>-1</dim>
					<dim>-1</dim>
				</port>
				<port id="1" precision="FP32">
					<dim>32</dim>
				</port>
				<port id="2" precision="FP32">
					<dim>32</dim>
				</port>
				<port id="3" precision="FP32">
					<dim>32</dim>
				</port>
				<port id="4" precision="FP32">
					<dim>32</dim>
				</port>
			</input>
			<output>
				<port id="5" precision="FP32" names="batch_norm_8.tmp_2">
					<dim>-1</dim>
					<dim>32</dim>
					<dim>-1</dim>
					<dim>-1</dim>
				</port>
			</output>
		</layer>
		<layer id="160" name="Relu@6" type="ReLU" version="opset1">
			<input>
				<port id="0" precision="FP32">
					<dim>-1</dim>
					<dim>32</dim>
					<dim>-1</dim>
					<dim>-1</dim>
				</port>
			</input>
			<output>
				<port id="1" precision="FP32" names="relu_6.tmp_0">
					<dim>-1</dim>
					<dim>32</dim>
					<dim>-1</dim>
					<dim>-1</dim>
				</port>
			</output>
		</layer>
		<layer id="161" name="conv4_linear_weights_compressed" type="Const" version="opset1">
			<data element_type="f16" shape="8, 32, 1, 1" offset="5236" size="512" />
			<output>
				<port id="0" precision="FP16" names="conv4_linear_weights">
					<dim>8</dim>
					<dim>32</dim>
					<dim>1</dim>
					<dim>1</dim>
				</port>
			</output>
		</layer>
		<layer id="162" name="conv4_linear_weights" type="Convert" version="opset1">
			<data destination_type="f32" />
			<rt_info>
				<attribute name="decompression" version="0" />
			</rt_info>
			<input>
				<port id="0" precision="FP16">
					<dim>8</dim>
					<dim>32</dim>
					<dim>1</dim>
					<dim>1</dim>
				</port>
			</input>
			<output>
				<port id="1" precision="FP32">
					<dim>8</dim>
					<dim>32</dim>
					<dim>1</dim>
					<dim>1</dim>
				</port>
			</output>
		</layer>
		<layer id="163" name="Conv@11" type="Convolution" version="opset1">
			<data strides="1, 1" dilations="1, 1" pads_begin="0, 0" pads_end="0, 0" auto_pad="explicit" />
			<input>
				<port id="0" precision="FP32">
					<dim>-1</dim>
					<dim>32</dim>
					<dim>-1</dim>
					<dim>-1</dim>
				</port>
				<port id="1" precision="FP32">
					<dim>8</dim>
					<dim>32</dim>
					<dim>1</dim>
					<dim>1</dim>
				</port>
			</input>
			<output>
				<port id="2" precision="FP32" names="conv2d_61.tmp_0">
					<dim>-1</dim>
					<dim>8</dim>
					<dim>-1</dim>
					<dim>-1</dim>
				</port>
			</output>
		</layer>
		<layer id="164" name="conv4_linear_bn_scale_compressed" type="Const" version="opset1">
			<data element_type="f16" shape="8" offset="5748" size="16" />
			<output>
				<port id="0" precision="FP16" names="conv4_linear_bn_scale">
					<dim>8</dim>
				</port>
			</output>
		</layer>
		<layer id="165" name="conv4_linear_bn_scale" type="Convert" version="opset1">
			<data destination_type="f32" />
			<rt_info>
				<attribute name="decompression" version="0" />
			</rt_info>
			<input>
				<port id="0" precision="FP16">
					<dim>8</dim>
				</port>
			</input>
			<output>
				<port id="1" precision="FP32">
					<dim>8</dim>
				</port>
			</output>
		</layer>
		<layer id="166" name="conv4_linear_bn_offset_compressed" type="Const" version="opset1">
			<data element_type="f16" shape="8" offset="5764" size="16" />
			<output>
				<port id="0" precision="FP16" names="conv4_linear_bn_offset">
					<dim>8</dim>
				</port>
			</output>
		</layer>
		<layer id="167" name="conv4_linear_bn_offset" type="Convert" version="opset1">
			<data destination_type="f32" />
			<rt_info>
				<attribute name="decompression" version="0" />
			</rt_info>
			<input>
				<port id="0" precision="FP16">
					<dim>8</dim>
				</port>
			</input>
			<output>
				<port id="1" precision="FP32">
					<dim>8</dim>
				</port>
			</output>
		</layer>
		<layer id="168" name="conv4_linear_bn_mean" type="Const" version="opset1">
			<data element_type="f32" shape="8" offset="5780" size="32" />
			<output>
				<port id="0" precision="FP32" names="conv4_linear_bn_mean">
					<dim>8</dim>
				</port>
			</output>
		</layer>
		<layer id="169" name="conv4_linear_bn_variance" type="Const" version="opset1">
			<data element_type="f32" shape="8" offset="5812" size="32" />
			<output>
				<port id="0" precision="FP32" names="conv4_linear_bn_variance">
					<dim>8</dim>
				</port>
			</output>
		</layer>
		<layer id="170" name="BatchNormalization@9" type="BatchNormInference" version="opset5">
			<data epsilon="9.9999997473787516e-06" />
			<input>
				<port id="0" precision="FP32">
					<dim>-1</dim>
					<dim>8</dim>
					<dim>-1</dim>
					<dim>-1</dim>
				</port>
				<port id="1" precision="FP32">
					<dim>8</dim>
				</port>
				<port id="2" precision="FP32">
					<dim>8</dim>
				</port>
				<port id="3" precision="FP32">
					<dim>8</dim>
				</port>
				<port id="4" precision="FP32">
					<dim>8</dim>
				</port>
			</input>
			<output>
				<port id="5" precision="FP32" names="batch_norm_9.tmp_2">
					<dim>-1</dim>
					<dim>8</dim>
					<dim>-1</dim>
					<dim>-1</dim>
				</port>
			</output>
		</layer>
		<layer id="171" name="Add@3" type="Add" version="opset1">
			<data auto_broadcast="numpy" />
			<input>
				<port id="0" precision="FP32">
					<dim>-1</dim>
					<dim>8</dim>
					<dim>-1</dim>
					<dim>-1</dim>
				</port>
				<port id="1" precision="FP32">
					<dim>-1</dim>
					<dim>8</dim>
					<dim>-1</dim>
					<dim>-1</dim>
				</port>
			</input>
			<output>
				<port id="2" precision="FP32" names="elementwise_add_0">
					<dim>-1</dim>
					<dim>8</dim>
					<dim>-1</dim>
					<dim>-1</dim>
				</port>
			</output>
		</layer>
		<layer id="172" name="conv5_expand_weights_compressed" type="Const" version="opset1">
			<data element_type="f16" shape="32, 8, 1, 1" offset="5844" size="512" />
			<output>
				<port id="0" precision="FP16" names="conv5_expand_weights">
					<dim>32</dim>
					<dim>8</dim>
					<dim>1</dim>
					<dim>1</dim>
				</port>
			</output>
		</layer>
		<layer id="173" name="conv5_expand_weights" type="Convert" version="opset1">
			<data destination_type="f32" />
			<rt_info>
				<attribute name="decompression" version="0" />
			</rt_info>
			<input>
				<port id="0" precision="FP16">
					<dim>32</dim>
					<dim>8</dim>
					<dim>1</dim>
					<dim>1</dim>
				</port>
			</input>
			<output>
				<port id="1" precision="FP32">
					<dim>32</dim>
					<dim>8</dim>
					<dim>1</dim>
					<dim>1</dim>
				</port>
			</output>
		</layer>
		<layer id="174" name="Conv@12" type="Convolution" version="opset1">
			<data strides="1, 1" dilations="1, 1" pads_begin="0, 0" pads_end="0, 0" auto_pad="explicit" />
			<input>
				<port id="0" precision="FP32">
					<dim>-1</dim>
					<dim>8</dim>
					<dim>-1</dim>
					<dim>-1</dim>
				</port>
				<port id="1" precision="FP32">
					<dim>32</dim>
					<dim>8</dim>
					<dim>1</dim>
					<dim>1</dim>
				</port>
			</input>
			<output>
				<port id="2" precision="FP32" names="conv2d_62.tmp_0">
					<dim>-1</dim>
					<dim>32</dim>
					<dim>-1</dim>
					<dim>-1</dim>
				</port>
			</output>
		</layer>
		<layer id="175" name="conv5_expand_bn_scale_compressed" type="Const" version="opset1">
			<data element_type="f16" shape="32" offset="6356" size="64" />
			<output>
				<port id="0" precision="FP16" names="conv5_expand_bn_scale">
					<dim>32</dim>
				</port>
			</output>
		</layer>
		<layer id="176" name="conv5_expand_bn_scale" type="Convert" version="opset1">
			<data destination_type="f32" />
			<rt_info>
				<attribute name="decompression" version="0" />
			</rt_info>
			<input>
				<port id="0" precision="FP16">
					<dim>32</dim>
				</port>
			</input>
			<output>
				<port id="1" precision="FP32">
					<dim>32</dim>
				</port>
			</output>
		</layer>
		<layer id="177" name="conv5_expand_bn_offset_compressed" type="Const" version="opset1">
			<data element_type="f16" shape="32" offset="6420" size="64" />
			<output>
				<port id="0" precision="FP16" names="conv5_expand_bn_offset">
					<dim>32</dim>
				</port>
			</output>
		</layer>
		<layer id="178" name="conv5_expand_bn_offset" type="Convert" version="opset1">
			<data destination_type="f32" />
			<rt_info>
				<attribute name="decompression" version="0" />
			</rt_info>
			<input>
				<port id="0" precision="FP16">
					<dim>32</dim>
				</port>
			</input>
			<output>
				<port id="1" precision="FP32">
					<dim>32</dim>
				</port>
			</output>
		</layer>
		<layer id="179" name="conv5_expand_bn_mean_compressed" type="Const" version="opset1">
			<data element_type="f16" shape="32" offset="6484" size="64" />
			<output>
				<port id="0" precision="FP16" names="conv5_expand_bn_mean">
					<dim>32</dim>
				</port>
			</output>
		</layer>
		<layer id="180" name="conv5_expand_bn_mean" type="Convert" version="opset1">
			<data destination_type="f32" />
			<rt_info>
				<attribute name="decompression" version="0" />
			</rt_info>
			<input>
				<port id="0" precision="FP16">
					<dim>32</dim>
				</port>
			</input>
			<output>
				<port id="1" precision="FP32">
					<dim>32</dim>
				</port>
			</output>
		</layer>
		<layer id="181" name="conv5_expand_bn_variance_compressed" type="Const" version="opset1">
			<data element_type="f16" shape="32" offset="6548" size="64" />
			<output>
				<port id="0" precision="FP16" names="conv5_expand_bn_variance">
					<dim>32</dim>
				</port>
			</output>
		</layer>
		<layer id="182" name="conv5_expand_bn_variance" type="Convert" version="opset1">
			<data destination_type="f32" />
			<rt_info>
				<attribute name="decompression" version="0" />
			</rt_info>
			<input>
				<port id="0" precision="FP16">
					<dim>32</dim>
				</port>
			</input>
			<output>
				<port id="1" precision="FP32">
					<dim>32</dim>
				</port>
			</output>
		</layer>
		<layer id="183" name="BatchNormalization@10" type="BatchNormInference" version="opset5">
			<data epsilon="9.9999997473787516e-06" />
			<input>
				<port id="0" precision="FP32">
					<dim>-1</dim>
					<dim>32</dim>
					<dim>-1</dim>
					<dim>-1</dim>
				</port>
				<port id="1" precision="FP32">
					<dim>32</dim>
				</port>
				<port id="2" precision="FP32">
					<dim>32</dim>
				</port>
				<port id="3" precision="FP32">
					<dim>32</dim>
				</port>
				<port id="4" precision="FP32">
					<dim>32</dim>
				</port>
			</input>
			<output>
				<port id="5" precision="FP32" names="batch_norm_10.tmp_2">
					<dim>-1</dim>
					<dim>32</dim>
					<dim>-1</dim>
					<dim>-1</dim>
				</port>
			</output>
		</layer>
		<layer id="184" name="Constant@9_compressed" type="Const" version="opset1">
			<data element_type="f16" shape="" offset="560" size="2" />
			<output>
				<port id="0" precision="FP16" names="Constant@9" />
			</output>
		</layer>
		<layer id="185" name="Constant@9" type="Convert" version="opset1">
			<data destination_type="f32" />
			<rt_info>
				<attribute name="decompression" version="0" />
			</rt_info>
			<input>
				<port id="0" precision="FP16" />
			</input>
			<output>
				<port id="1" precision="FP32" />
			</output>
		</layer>
		<layer id="186" name="Constant@8_compressed" type="Const" version="opset1">
			<data element_type="f16" shape="" offset="562" size="2" />
			<output>
				<port id="0" precision="FP16" names="Constant@8" />
			</output>
		</layer>
		<layer id="187" name="Constant@8" type="Convert" version="opset1">
			<data destination_type="f32" />
			<rt_info>
				<attribute name="decompression" version="0" />
			</rt_info>
			<input>
				<port id="0" precision="FP16" />
			</input>
			<output>
				<port id="1" precision="FP32" />
			</output>
		</layer>
		<layer id="188" name="Constant@7_compressed" type="Const" version="opset1">
			<data element_type="f16" shape="" offset="564" size="2" />
			<output>
				<port id="0" precision="FP16" names="Constant@7" />
			</output>
		</layer>
		<layer id="189" name="Constant@7" type="Convert" version="opset1">
			<data destination_type="f32" />
			<rt_info>
				<attribute name="decompression" version="0" />
			</rt_info>
			<input>
				<port id="0" precision="FP16" />
			</input>
			<output>
				<port id="1" precision="FP32" />
			</output>
		</layer>
		<layer id="190" name="Add@4" type="Add" version="opset1">
			<data auto_broadcast="numpy" />
			<input>
				<port id="0" precision="FP32">
					<dim>-1</dim>
					<dim>32</dim>
					<dim>-1</dim>
					<dim>-1</dim>
				</port>
				<port id="1" precision="FP32" />
			</input>
			<output>
				<port id="2" precision="FP32" names="Add@4">
					<dim>-1</dim>
					<dim>32</dim>
					<dim>-1</dim>
					<dim>-1</dim>
				</port>
			</output>
		</layer>
		<layer id="191" name="Maximum_534" type="Maximum" version="opset1">
			<data auto_broadcast="numpy" />
			<input>
				<port id="0" precision="FP32" />
				<port id="1" precision="FP32">
					<dim>-1</dim>
					<dim>32</dim>
					<dim>-1</dim>
					<dim>-1</dim>
				</port>
			</input>
			<output>
				<port id="2" precision="FP32">
					<dim>-1</dim>
					<dim>32</dim>
					<dim>-1</dim>
					<dim>-1</dim>
				</port>
			</output>
		</layer>
		<layer id="192" name="Clip@1" type="Minimum" version="opset1">
			<data auto_broadcast="numpy" />
			<input>
				<port id="0" precision="FP32" />
				<port id="1" precision="FP32">
					<dim>-1</dim>
					<dim>32</dim>
					<dim>-1</dim>
					<dim>-1</dim>
				</port>
			</input>
			<output>
				<port id="2" precision="FP32" names="Clip@1">
					<dim>-1</dim>
					<dim>32</dim>
					<dim>-1</dim>
					<dim>-1</dim>
				</port>
			</output>
		</layer>
		<layer id="193" name="Mul@2" type="Multiply" version="opset1">
			<data auto_broadcast="numpy" />
			<input>
				<port id="0" precision="FP32">
					<dim>-1</dim>
					<dim>32</dim>
					<dim>-1</dim>
					<dim>-1</dim>
				</port>
				<port id="1" precision="FP32">
					<dim>-1</dim>
					<dim>32</dim>
					<dim>-1</dim>
					<dim>-1</dim>
				</port>
			</input>
			<output>
				<port id="2" precision="FP32" names="Mul@2">
					<dim>-1</dim>
					<dim>32</dim>
					<dim>-1</dim>
					<dim>-1</dim>
				</port>
			</output>
		</layer>
		<layer id="194" name="Constant@6_compressed" type="Const" version="opset1">
			<data element_type="f16" shape="" offset="560" size="2" />
			<output>
				<port id="0" precision="FP16" names="Constant@6" />
			</output>
		</layer>
		<layer id="195" name="Constant@6" type="Convert" version="opset1">
			<data destination_type="f32" />
			<rt_info>
				<attribute name="decompression" version="0" />
			</rt_info>
			<input>
				<port id="0" precision="FP16" />
			</input>
			<output>
				<port id="1" precision="FP32" />
			</output>
		</layer>
		<layer id="196" name="Div@1" type="Divide" version="opset1">
			<data auto_broadcast="numpy" m_pythondiv="true" />
			<input>
				<port id="0" precision="FP32">
					<dim>-1</dim>
					<dim>32</dim>
					<dim>-1</dim>
					<dim>-1</dim>
				</port>
				<port id="1" precision="FP32" />
			</input>
			<output>
				<port id="2" precision="FP32" names="hardswish_1.tmp_0">
					<dim>-1</dim>
					<dim>32</dim>
					<dim>-1</dim>
					<dim>-1</dim>
				</port>
			</output>
		</layer>
		<layer id="197" name="conv5_depthwise_weights_compressed" type="Const" version="opset1">
			<data element_type="f16" shape="32, 1, 5, 5" offset="6612" size="1600" />
			<output>
				<port id="0" precision="FP16" names="conv5_depthwise_weights">
					<dim>32</dim>
					<dim>1</dim>
					<dim>5</dim>
					<dim>5</dim>
				</port>
			</output>
		</layer>
		<layer id="198" name="conv5_depthwise_weights" type="Convert" version="opset1">
			<data destination_type="f32" />
			<rt_info>
				<attribute name="decompression" version="0" />
			</rt_info>
			<input>
				<port id="0" precision="FP16">
					<dim>32</dim>
					<dim>1</dim>
					<dim>5</dim>
					<dim>5</dim>
				</port>
			</input>
			<output>
				<port id="1" precision="FP32">
					<dim>32</dim>
					<dim>1</dim>
					<dim>5</dim>
					<dim>5</dim>
				</port>
			</output>
		</layer>
		<layer id="199" name="Constant_541" type="Const" version="opset1">
			<data element_type="i64" shape="1" offset="4844" size="8" />
			<rt_info>
				<attribute name="precise" version="0" />
			</rt_info>
			<output>
				<port id="0" precision="I64">
					<dim>1</dim>
				</port>
			</output>
		</layer>
		<layer id="200" name="ShapeOf_542" type="ShapeOf" version="opset3">
			<data output_type="i64" />
			<input>
				<port id="0" precision="FP32">
					<dim>32</dim>
					<dim>1</dim>
					<dim>5</dim>
					<dim>5</dim>
				</port>
			</input>
			<output>
				<port id="1" precision="I64">
					<dim>4</dim>
				</port>
			</output>
		</layer>
		<layer id="201" name="Constant_539" type="Const" version="opset1">
			<data element_type="i64" shape="" offset="910" size="8" />
			<rt_info>
				<attribute name="precise" version="0" />
			</rt_info>
			<output>
				<port id="0" precision="I64" />
			</output>
		</layer>
		<layer id="202" name="Constant_540" type="Const" version="opset1">
			<data element_type="i64" shape="2" offset="918" size="16" />
			<rt_info>
				<attribute name="precise" version="0" />
			</rt_info>
			<output>
				<port id="0" precision="I64">
					<dim>2</dim>
				</port>
			</output>
		</layer>
		<layer id="203" name="VariadicSplit_543" type="VariadicSplit" version="opset1">
			<input>
				<port id="0" precision="I64">
					<dim>4</dim>
				</port>
				<port id="1" precision="I64" />
				<port id="2" precision="I64">
					<dim>2</dim>
				</port>
			</input>
			<output>
				<port id="3" precision="I64">
					<dim>1</dim>
				</port>
				<port id="4" precision="I64">
					<dim>3</dim>
				</port>
			</output>
		</layer>
		<layer id="204" name="Divide_544" type="Divide" version="opset1">
			<data auto_broadcast="numpy" m_pythondiv="true" />
			<input>
				<port id="0" precision="I64">
					<dim>1</dim>
				</port>
				<port id="1" precision="I64">
					<dim>1</dim>
				</port>
			</input>
			<output>
				<port id="2" precision="I64">
					<dim>1</dim>
				</port>
			</output>
		</layer>
		<layer id="205" name="Concat_545" type="Concat" version="opset1">
			<data axis="0" />
			<input>
				<port id="0" precision="I64">
					<dim>1</dim>
				</port>
				<port id="1" precision="I64">
					<dim>1</dim>
				</port>
				<port id="2" precision="I64">
					<dim>3</dim>
				</port>
			</input>
			<output>
				<port id="3" precision="I64">
					<dim>5</dim>
				</port>
			</output>
		</layer>
		<layer id="206" name="Reshape_546" type="Reshape" version="opset1">
			<data special_zero="false" />
			<input>
				<port id="0" precision="FP32">
					<dim>32</dim>
					<dim>1</dim>
					<dim>5</dim>
					<dim>5</dim>
				</port>
				<port id="1" precision="I64">
					<dim>5</dim>
				</port>
			</input>
			<output>
				<port id="2" precision="FP32">
					<dim>32</dim>
					<dim>1</dim>
					<dim>1</dim>
					<dim>5</dim>
					<dim>5</dim>
				</port>
			</output>
		</layer>
		<layer id="207" name="Conv@13" type="GroupConvolution" version="opset1">
			<data strides="2, 1" pads_begin="2, 2" pads_end="2, 2" dilations="1, 1" auto_pad="explicit" />
			<input>
				<port id="0" precision="FP32">
					<dim>-1</dim>
					<dim>32</dim>
					<dim>-1</dim>
					<dim>-1</dim>
				</port>
				<port id="1" precision="FP32">
					<dim>32</dim>
					<dim>1</dim>
					<dim>1</dim>
					<dim>5</dim>
					<dim>5</dim>
				</port>
			</input>
			<output>
				<port id="2" precision="FP32" names="depthwise_conv2d_3.tmp_0">
					<dim>-1</dim>
					<dim>32</dim>
					<dim>-1</dim>
					<dim>-1</dim>
				</port>
			</output>
		</layer>
		<layer id="208" name="conv5_depthwise_bn_scale" type="Const" version="opset1">
			<data element_type="f32" shape="32" offset="8212" size="128" />
			<output>
				<port id="0" precision="FP32" names="conv5_depthwise_bn_scale">
					<dim>32</dim>
				</port>
			</output>
		</layer>
		<layer id="209" name="conv5_depthwise_bn_offset" type="Const" version="opset1">
			<data element_type="f32" shape="32" offset="8340" size="128" />
			<output>
				<port id="0" precision="FP32" names="conv5_depthwise_bn_offset">
					<dim>32</dim>
				</port>
			</output>
		</layer>
		<layer id="210" name="conv5_depthwise_bn_mean" type="Const" version="opset1">
			<data element_type="f32" shape="32" offset="8468" size="128" />
			<output>
				<port id="0" precision="FP32" names="conv5_depthwise_bn_mean">
					<dim>32</dim>
				</port>
			</output>
		</layer>
		<layer id="211" name="conv5_depthwise_bn_variance_compressed" type="Const" version="opset1">
			<data element_type="f16" shape="32" offset="8596" size="64" />
			<output>
				<port id="0" precision="FP16" names="conv5_depthwise_bn_variance">
					<dim>32</dim>
				</port>
			</output>
		</layer>
		<layer id="212" name="conv5_depthwise_bn_variance" type="Convert" version="opset1">
			<data destination_type="f32" />
			<rt_info>
				<attribute name="decompression" version="0" />
			</rt_info>
			<input>
				<port id="0" precision="FP16">
					<dim>32</dim>
				</port>
			</input>
			<output>
				<port id="1" precision="FP32">
					<dim>32</dim>
				</port>
			</output>
		</layer>
		<layer id="213" name="BatchNormalization@11" type="BatchNormInference" version="opset5">
			<data epsilon="9.9999997473787516e-06" />
			<input>
				<port id="0" precision="FP32">
					<dim>-1</dim>
					<dim>32</dim>
					<dim>-1</dim>
					<dim>-1</dim>
				</port>
				<port id="1" precision="FP32">
					<dim>32</dim>
				</port>
				<port id="2" precision="FP32">
					<dim>32</dim>
				</port>
				<port id="3" precision="FP32">
					<dim>32</dim>
				</port>
				<port id="4" precision="FP32">
					<dim>32</dim>
				</port>
			</input>
			<output>
				<port id="5" precision="FP32" names="batch_norm_11.tmp_2">
					<dim>-1</dim>
					<dim>32</dim>
					<dim>-1</dim>
					<dim>-1</dim>
				</port>
			</output>
		</layer>
		<layer id="214" name="Constant@13_compressed" type="Const" version="opset1">
			<data element_type="f16" shape="" offset="560" size="2" />
			<output>
				<port id="0" precision="FP16" names="Constant@13" />
			</output>
		</layer>
		<layer id="215" name="Constant@13" type="Convert" version="opset1">
			<data destination_type="f32" />
			<rt_info>
				<attribute name="decompression" version="0" />
			</rt_info>
			<input>
				<port id="0" precision="FP16" />
			</input>
			<output>
				<port id="1" precision="FP32" />
			</output>
		</layer>
		<layer id="216" name="Constant@12_compressed" type="Const" version="opset1">
			<data element_type="f16" shape="" offset="562" size="2" />
			<output>
				<port id="0" precision="FP16" names="Constant@12" />
			</output>
		</layer>
		<layer id="217" name="Constant@12" type="Convert" version="opset1">
			<data destination_type="f32" />
			<rt_info>
				<attribute name="decompression" version="0" />
			</rt_info>
			<input>
				<port id="0" precision="FP16" />
			</input>
			<output>
				<port id="1" precision="FP32" />
			</output>
		</layer>
		<layer id="218" name="Constant@11_compressed" type="Const" version="opset1">
			<data element_type="f16" shape="" offset="564" size="2" />
			<output>
				<port id="0" precision="FP16" names="Constant@11" />
			</output>
		</layer>
		<layer id="219" name="Constant@11" type="Convert" version="opset1">
			<data destination_type="f32" />
			<rt_info>
				<attribute name="decompression" version="0" />
			</rt_info>
			<input>
				<port id="0" precision="FP16" />
			</input>
			<output>
				<port id="1" precision="FP32" />
			</output>
		</layer>
		<layer id="220" name="Add@5" type="Add" version="opset1">
			<data auto_broadcast="numpy" />
			<input>
				<port id="0" precision="FP32">
					<dim>-1</dim>
					<dim>32</dim>
					<dim>-1</dim>
					<dim>-1</dim>
				</port>
				<port id="1" precision="FP32" />
			</input>
			<output>
				<port id="2" precision="FP32" names="Add@5">
					<dim>-1</dim>
					<dim>32</dim>
					<dim>-1</dim>
					<dim>-1</dim>
				</port>
			</output>
		</layer>
		<layer id="221" name="Maximum_588" type="Maximum" version="opset1">
			<data auto_broadcast="numpy" />
			<input>
				<port id="0" precision="FP32" />
				<port id="1" precision="FP32">
					<dim>-1</dim>
					<dim>32</dim>
					<dim>-1</dim>
					<dim>-1</dim>
				</port>
			</input>
			<output>
				<port id="2" precision="FP32">
					<dim>-1</dim>
					<dim>32</dim>
					<dim>-1</dim>
					<dim>-1</dim>
				</port>
			</output>
		</layer>
		<layer id="222" name="Clip@2" type="Minimum" version="opset1">
			<data auto_broadcast="numpy" />
			<input>
				<port id="0" precision="FP32" />
				<port id="1" precision="FP32">
					<dim>-1</dim>
					<dim>32</dim>
					<dim>-1</dim>
					<dim>-1</dim>
				</port>
			</input>
			<output>
				<port id="2" precision="FP32" names="Clip@2">
					<dim>-1</dim>
					<dim>32</dim>
					<dim>-1</dim>
					<dim>-1</dim>
				</port>
			</output>
		</layer>
		<layer id="223" name="Mul@3" type="Multiply" version="opset1">
			<data auto_broadcast="numpy" />
			<input>
				<port id="0" precision="FP32">
					<dim>-1</dim>
					<dim>32</dim>
					<dim>-1</dim>
					<dim>-1</dim>
				</port>
				<port id="1" precision="FP32">
					<dim>-1</dim>
					<dim>32</dim>
					<dim>-1</dim>
					<dim>-1</dim>
				</port>
			</input>
			<output>
				<port id="2" precision="FP32" names="Mul@3">
					<dim>-1</dim>
					<dim>32</dim>
					<dim>-1</dim>
					<dim>-1</dim>
				</port>
			</output>
		</layer>
		<layer id="224" name="Constant@10_compressed" type="Const" version="opset1">
			<data element_type="f16" shape="" offset="560" size="2" />
			<output>
				<port id="0" precision="FP16" names="Constant@10" />
			</output>
		</layer>
		<layer id="225" name="Constant@10" type="Convert" version="opset1">
			<data destination_type="f32" />
			<rt_info>
				<attribute name="decompression" version="0" />
			</rt_info>
			<input>
				<port id="0" precision="FP16" />
			</input>
			<output>
				<port id="1" precision="FP32" />
			</output>
		</layer>
		<layer id="226" name="Div@2" type="Divide" version="opset1">
			<data auto_broadcast="numpy" m_pythondiv="true" />
			<input>
				<port id="0" precision="FP32">
					<dim>-1</dim>
					<dim>32</dim>
					<dim>-1</dim>
					<dim>-1</dim>
				</port>
				<port id="1" precision="FP32" />
			</input>
			<output>
				<port id="2" precision="FP32" names="hardswish_2.tmp_0">
					<dim>-1</dim>
					<dim>32</dim>
					<dim>-1</dim>
					<dim>-1</dim>
				</port>
			</output>
		</layer>
		<layer id="227" name="Constant_594" type="Const" version="opset1">
			<data element_type="i64" shape="" offset="1046" size="8" />
			<output>
				<port id="0" precision="I64" />
			</output>
		</layer>
		<layer id="228" name="ShapeOf_595" type="ShapeOf" version="opset3">
			<data output_type="i64" />
			<input>
				<port id="0" precision="FP32">
					<dim>-1</dim>
					<dim>32</dim>
					<dim>-1</dim>
					<dim>-1</dim>
				</port>
			</input>
			<output>
				<port id="1" precision="I64">
					<dim>4</dim>
				</port>
			</output>
		</layer>
		<layer id="229" name="ShapeOf_596" type="ShapeOf" version="opset3">
			<data output_type="i64" />
			<input>
				<port id="0" precision="I64">
					<dim>4</dim>
				</port>
			</input>
			<output>
				<port id="1" precision="I64">
					<dim>1</dim>
				</port>
			</output>
		</layer>
		<layer id="230" name="Squeeze_597" type="Squeeze" version="opset1">
			<input>
				<port id="0" precision="I64">
					<dim>1</dim>
				</port>
			</input>
			<output>
				<port id="1" precision="I64" />
			</output>
		</layer>
		<layer id="231" name="Constant_593" type="Const" version="opset1">
			<data element_type="i64" shape="" offset="1054" size="8" />
			<output>
				<port id="0" precision="I64" />
			</output>
		</layer>
		<layer id="232" name="Range_598" type="Range" version="opset4">
			<data output_type="i64" />
			<input>
				<port id="0" precision="I64" />
				<port id="1" precision="I64" />
				<port id="2" precision="I64" />
			</input>
			<output>
				<port id="3" precision="I64">
					<dim>2</dim>
				</port>
			</output>
		</layer>
		<layer id="233" name="GlobalAveragePool@1" type="ReduceMean" version="opset1">
			<data keep_dims="true" />
			<input>
				<port id="0" precision="FP32">
					<dim>-1</dim>
					<dim>32</dim>
					<dim>-1</dim>
					<dim>-1</dim>
				</port>
				<port id="1" precision="I64">
					<dim>2</dim>
				</port>
			</input>
			<output>
				<port id="2" precision="FP32" names="pool2d_1.tmp_0">
					<dim>-1</dim>
					<dim>32</dim>
					<dim>1</dim>
					<dim>1</dim>
				</port>
			</output>
		</layer>
		<layer id="234" name="conv5_se_1_weights_compressed" type="Const" version="opset1">
			<data element_type="f16" shape="8, 32, 1, 1" offset="8660" size="512" />
			<output>
				<port id="0" precision="FP16" names="conv5_se_1_weights">
					<dim>8</dim>
					<dim>32</dim>
					<dim>1</dim>
					<dim>1</dim>
				</port>
			</output>
		</layer>
		<layer id="235" name="conv5_se_1_weights" type="Convert" version="opset1">
			<data destination_type="f32" />
			<rt_info>
				<attribute name="decompression" version="0" />
			</rt_info>
			<input>
				<port id="0" precision="FP16">
					<dim>8</dim>
					<dim>32</dim>
					<dim>1</dim>
					<dim>1</dim>
				</port>
			</input>
			<output>
				<port id="1" precision="FP32">
					<dim>8</dim>
					<dim>32</dim>
					<dim>1</dim>
					<dim>1</dim>
				</port>
			</output>
		</layer>
		<layer id="236" name="Conv@14" type="Convolution" version="opset1">
			<data strides="1, 1" dilations="1, 1" pads_begin="0, 0" pads_end="0, 0" auto_pad="explicit" />
			<input>
				<port id="0" precision="FP32">
					<dim>-1</dim>
					<dim>32</dim>
					<dim>1</dim>
					<dim>1</dim>
				</port>
				<port id="1" precision="FP32">
					<dim>8</dim>
					<dim>32</dim>
					<dim>1</dim>
					<dim>1</dim>
				</port>
			</input>
			<output>
				<port id="2" precision="FP32" names="conv2d_63.tmp_0">
					<dim>-1</dim>
					<dim>8</dim>
					<dim>1</dim>
					<dim>1</dim>
				</port>
			</output>
		</layer>
		<layer id="237" name="conv5_se_1_offset" type="Const" version="opset1">
			<data element_type="f32" shape="8" offset="9172" size="32" />
			<output>
				<port id="0" precision="FP32" names="conv5_se_1_offset">
					<dim>8</dim>
				</port>
			</output>
		</layer>
		<layer id="238" name="Constant@14" type="Const" version="opset1">
			<data element_type="i64" shape="4" offset="1230" size="32" />
			<rt_info>
				<attribute name="precise" version="0" />
			</rt_info>
			<output>
				<port id="0" precision="I64" names="Constant@14">
					<dim>4</dim>
				</port>
			</output>
		</layer>
		<layer id="239" name="Reshape@2" type="Reshape" version="opset1">
			<data special_zero="true" />
			<input>
				<port id="0" precision="FP32">
					<dim>8</dim>
				</port>
				<port id="1" precision="I64">
					<dim>4</dim>
				</port>
			</input>
			<output>
				<port id="2" precision="FP32" names="Reshape@2">
					<dim>1</dim>
					<dim>8</dim>
					<dim>1</dim>
					<dim>1</dim>
				</port>
			</output>
		</layer>
		<layer id="240" name="Add@6" type="Add" version="opset1">
			<data auto_broadcast="numpy" />
			<input>
				<port id="0" precision="FP32">
					<dim>-1</dim>
					<dim>8</dim>
					<dim>1</dim>
					<dim>1</dim>
				</port>
				<port id="1" precision="FP32">
					<dim>1</dim>
					<dim>8</dim>
					<dim>1</dim>
					<dim>1</dim>
				</port>
			</input>
			<output>
				<port id="2" precision="FP32" names="conv2d_63.tmp_1">
					<dim>-1</dim>
					<dim>8</dim>
					<dim>1</dim>
					<dim>1</dim>
				</port>
			</output>
		</layer>
		<layer id="241" name="Relu@7" type="ReLU" version="opset1">
			<input>
				<port id="0" precision="FP32">
					<dim>-1</dim>
					<dim>8</dim>
					<dim>1</dim>
					<dim>1</dim>
				</port>
			</input>
			<output>
				<port id="1" precision="FP32" names="relu_7.tmp_0">
					<dim>-1</dim>
					<dim>8</dim>
					<dim>1</dim>
					<dim>1</dim>
				</port>
			</output>
		</layer>
		<layer id="242" name="conv5_se_2_weights_compressed" type="Const" version="opset1">
			<data element_type="f16" shape="32, 8, 1, 1" offset="9204" size="512" />
			<output>
				<port id="0" precision="FP16" names="conv5_se_2_weights">
					<dim>32</dim>
					<dim>8</dim>
					<dim>1</dim>
					<dim>1</dim>
				</port>
			</output>
		</layer>
		<layer id="243" name="conv5_se_2_weights" type="Convert" version="opset1">
			<data destination_type="f32" />
			<rt_info>
				<attribute name="decompression" version="0" />
			</rt_info>
			<input>
				<port id="0" precision="FP16">
					<dim>32</dim>
					<dim>8</dim>
					<dim>1</dim>
					<dim>1</dim>
				</port>
			</input>
			<output>
				<port id="1" precision="FP32">
					<dim>32</dim>
					<dim>8</dim>
					<dim>1</dim>
					<dim>1</dim>
				</port>
			</output>
		</layer>
		<layer id="244" name="Conv@15" type="Convolution" version="opset1">
			<data strides="1, 1" dilations="1, 1" pads_begin="0, 0" pads_end="0, 0" auto_pad="explicit" />
			<input>
				<port id="0" precision="FP32">
					<dim>-1</dim>
					<dim>8</dim>
					<dim>1</dim>
					<dim>1</dim>
				</port>
				<port id="1" precision="FP32">
					<dim>32</dim>
					<dim>8</dim>
					<dim>1</dim>
					<dim>1</dim>
				</port>
			</input>
			<output>
				<port id="2" precision="FP32" names="conv2d_64.tmp_0">
					<dim>-1</dim>
					<dim>32</dim>
					<dim>1</dim>
					<dim>1</dim>
				</port>
			</output>
		</layer>
		<layer id="245" name="conv5_se_2_offset_compressed" type="Const" version="opset1">
			<data element_type="f16" shape="32" offset="9716" size="64" />
			<output>
				<port id="0" precision="FP16" names="conv5_se_2_offset">
					<dim>32</dim>
				</port>
			</output>
		</layer>
		<layer id="246" name="conv5_se_2_offset" type="Convert" version="opset1">
			<data destination_type="f32" />
			<rt_info>
				<attribute name="decompression" version="0" />
			</rt_info>
			<input>
				<port id="0" precision="FP16">
					<dim>32</dim>
				</port>
			</input>
			<output>
				<port id="1" precision="FP32">
					<dim>32</dim>
				</port>
			</output>
		</layer>
		<layer id="247" name="Constant@15" type="Const" version="opset1">
			<data element_type="i64" shape="4" offset="9780" size="32" />
			<rt_info>
				<attribute name="precise" version="0" />
			</rt_info>
			<output>
				<port id="0" precision="I64" names="Constant@15">
					<dim>4</dim>
				</port>
			</output>
		</layer>
		<layer id="248" name="Reshape@3" type="Reshape" version="opset1">
			<data special_zero="true" />
			<input>
				<port id="0" precision="FP32">
					<dim>32</dim>
				</port>
				<port id="1" precision="I64">
					<dim>4</dim>
				</port>
			</input>
			<output>
				<port id="2" precision="FP32" names="Reshape@3">
					<dim>1</dim>
					<dim>32</dim>
					<dim>1</dim>
					<dim>1</dim>
				</port>
			</output>
		</layer>
		<layer id="249" name="Add@7" type="Add" version="opset1">
			<data auto_broadcast="numpy" />
			<input>
				<port id="0" precision="FP32">
					<dim>-1</dim>
					<dim>32</dim>
					<dim>1</dim>
					<dim>1</dim>
				</port>
				<port id="1" precision="FP32">
					<dim>1</dim>
					<dim>32</dim>
					<dim>1</dim>
					<dim>1</dim>
				</port>
			</input>
			<output>
				<port id="2" precision="FP32" names="conv2d_64.tmp_1">
					<dim>-1</dim>
					<dim>32</dim>
					<dim>1</dim>
					<dim>1</dim>
				</port>
			</output>
		</layer>
		<layer id="250" name="Constant_609" type="Const" version="opset1">
			<data element_type="f32" shape="" offset="1262" size="4" />
			<output>
				<port id="0" precision="FP32" />
			</output>
		</layer>
		<layer id="251" name="Constant_610_compressed" type="Const" version="opset1">
			<data element_type="f16" shape="" offset="1266" size="2" />
			<output>
				<port id="0" precision="FP16" />
			</output>
		</layer>
		<layer id="252" name="Constant_610" type="Convert" version="opset1">
			<data destination_type="f32" />
			<rt_info>
				<attribute name="decompression" version="0" />
			</rt_info>
			<input>
				<port id="0" precision="FP16" />
			</input>
			<output>
				<port id="1" precision="FP32" />
			</output>
		</layer>
		<layer id="253" name="HardSigmoid@1" type="HardSigmoid" version="opset1">
			<input>
				<port id="0" precision="FP32">
					<dim>-1</dim>
					<dim>32</dim>
					<dim>1</dim>
					<dim>1</dim>
				</port>
				<port id="1" precision="FP32" />
				<port id="2" precision="FP32" />
			</input>
			<output>
				<port id="3" precision="FP32" names="hardsigmoid_1.tmp_0">
					<dim>-1</dim>
					<dim>32</dim>
					<dim>1</dim>
					<dim>1</dim>
				</port>
			</output>
		</layer>
		<layer id="254" name="Mul@4" type="Multiply" version="opset1">
			<data auto_broadcast="numpy" />
			<input>
				<port id="0" precision="FP32">
					<dim>-1</dim>
					<dim>32</dim>
					<dim>-1</dim>
					<dim>-1</dim>
				</port>
				<port id="1" precision="FP32">
					<dim>-1</dim>
					<dim>32</dim>
					<dim>1</dim>
					<dim>1</dim>
				</port>
			</input>
			<output>
				<port id="2" precision="FP32" names="tmp_1">
					<dim>-1</dim>
					<dim>32</dim>
					<dim>-1</dim>
					<dim>-1</dim>
				</port>
			</output>
		</layer>
		<layer id="255" name="conv5_linear_weights_compressed" type="Const" version="opset1">
			<data element_type="f16" shape="16, 32, 1, 1" offset="9812" size="1024" />
			<output>
				<port id="0" precision="FP16" names="conv5_linear_weights">
					<dim>16</dim>
					<dim>32</dim>
					<dim>1</dim>
					<dim>1</dim>
				</port>
			</output>
		</layer>
		<layer id="256" name="conv5_linear_weights" type="Convert" version="opset1">
			<data destination_type="f32" />
			<rt_info>
				<attribute name="decompression" version="0" />
			</rt_info>
			<input>
				<port id="0" precision="FP16">
					<dim>16</dim>
					<dim>32</dim>
					<dim>1</dim>
					<dim>1</dim>
				</port>
			</input>
			<output>
				<port id="1" precision="FP32">
					<dim>16</dim>
					<dim>32</dim>
					<dim>1</dim>
					<dim>1</dim>
				</port>
			</output>
		</layer>
		<layer id="257" name="Conv@16" type="Convolution" version="opset1">
			<data strides="1, 1" dilations="1, 1" pads_begin="0, 0" pads_end="0, 0" auto_pad="explicit" />
			<input>
				<port id="0" precision="FP32">
					<dim>-1</dim>
					<dim>32</dim>
					<dim>-1</dim>
					<dim>-1</dim>
				</port>
				<port id="1" precision="FP32">
					<dim>16</dim>
					<dim>32</dim>
					<dim>1</dim>
					<dim>1</dim>
				</port>
			</input>
			<output>
				<port id="2" precision="FP32" names="conv2d_65.tmp_0">
					<dim>-1</dim>
					<dim>16</dim>
					<dim>-1</dim>
					<dim>-1</dim>
				</port>
			</output>
		</layer>
		<layer id="258" name="conv5_linear_bn_scale_compressed" type="Const" version="opset1">
			<data element_type="f16" shape="16" offset="10836" size="32" />
			<output>
				<port id="0" precision="FP16" names="conv5_linear_bn_scale">
					<dim>16</dim>
				</port>
			</output>
		</layer>
		<layer id="259" name="conv5_linear_bn_scale" type="Convert" version="opset1">
			<data destination_type="f32" />
			<rt_info>
				<attribute name="decompression" version="0" />
			</rt_info>
			<input>
				<port id="0" precision="FP16">
					<dim>16</dim>
				</port>
			</input>
			<output>
				<port id="1" precision="FP32">
					<dim>16</dim>
				</port>
			</output>
		</layer>
		<layer id="260" name="conv5_linear_bn_offset" type="Const" version="opset1">
			<data element_type="f32" shape="16" offset="10868" size="64" />
			<output>
				<port id="0" precision="FP32" names="conv5_linear_bn_offset">
					<dim>16</dim>
				</port>
			</output>
		</layer>
		<layer id="261" name="conv5_linear_bn_mean_compressed" type="Const" version="opset1">
			<data element_type="f16" shape="16" offset="10932" size="32" />
			<output>
				<port id="0" precision="FP16" names="conv5_linear_bn_mean">
					<dim>16</dim>
				</port>
			</output>
		</layer>
		<layer id="262" name="conv5_linear_bn_mean" type="Convert" version="opset1">
			<data destination_type="f32" />
			<rt_info>
				<attribute name="decompression" version="0" />
			</rt_info>
			<input>
				<port id="0" precision="FP16">
					<dim>16</dim>
				</port>
			</input>
			<output>
				<port id="1" precision="FP32">
					<dim>16</dim>
				</port>
			</output>
		</layer>
		<layer id="263" name="conv5_linear_bn_variance" type="Const" version="opset1">
			<data element_type="f32" shape="16" offset="10964" size="64" />
			<output>
				<port id="0" precision="FP32" names="conv5_linear_bn_variance">
					<dim>16</dim>
				</port>
			</output>
		</layer>
		<layer id="264" name="BatchNormalization@12" type="BatchNormInference" version="opset5">
			<data epsilon="9.9999997473787516e-06" />
			<input>
				<port id="0" precision="FP32">
					<dim>-1</dim>
					<dim>16</dim>
					<dim>-1</dim>
					<dim>-1</dim>
				</port>
				<port id="1" precision="FP32">
					<dim>16</dim>
				</port>
				<port id="2" precision="FP32">
					<dim>16</dim>
				</port>
				<port id="3" precision="FP32">
					<dim>16</dim>
				</port>
				<port id="4" precision="FP32">
					<dim>16</dim>
				</port>
			</input>
			<output>
				<port id="5" precision="FP32" names="batch_norm_12.tmp_2">
					<dim>-1</dim>
					<dim>16</dim>
					<dim>-1</dim>
					<dim>-1</dim>
				</port>
			</output>
		</layer>
		<layer id="265" name="conv6_expand_weights_compressed" type="Const" version="opset1">
			<data element_type="f16" shape="88, 16, 1, 1" offset="11028" size="2816" />
			<output>
				<port id="0" precision="FP16" names="conv6_expand_weights">
					<dim>88</dim>
					<dim>16</dim>
					<dim>1</dim>
					<dim>1</dim>
				</port>
			</output>
		</layer>
		<layer id="266" name="conv6_expand_weights" type="Convert" version="opset1">
			<data destination_type="f32" />
			<rt_info>
				<attribute name="decompression" version="0" />
			</rt_info>
			<input>
				<port id="0" precision="FP16">
					<dim>88</dim>
					<dim>16</dim>
					<dim>1</dim>
					<dim>1</dim>
				</port>
			</input>
			<output>
				<port id="1" precision="FP32">
					<dim>88</dim>
					<dim>16</dim>
					<dim>1</dim>
					<dim>1</dim>
				</port>
			</output>
		</layer>
		<layer id="267" name="Conv@17" type="Convolution" version="opset1">
			<data strides="1, 1" dilations="1, 1" pads_begin="0, 0" pads_end="0, 0" auto_pad="explicit" />
			<input>
				<port id="0" precision="FP32">
					<dim>-1</dim>
					<dim>16</dim>
					<dim>-1</dim>
					<dim>-1</dim>
				</port>
				<port id="1" precision="FP32">
					<dim>88</dim>
					<dim>16</dim>
					<dim>1</dim>
					<dim>1</dim>
				</port>
			</input>
			<output>
				<port id="2" precision="FP32" names="conv2d_66.tmp_0">
					<dim>-1</dim>
					<dim>88</dim>
					<dim>-1</dim>
					<dim>-1</dim>
				</port>
			</output>
		</layer>
		<layer id="268" name="conv6_expand_bn_scale_compressed" type="Const" version="opset1">
			<data element_type="f16" shape="88" offset="13844" size="176" />
			<output>
				<port id="0" precision="FP16" names="conv6_expand_bn_scale">
					<dim>88</dim>
				</port>
			</output>
		</layer>
		<layer id="269" name="conv6_expand_bn_scale" type="Convert" version="opset1">
			<data destination_type="f32" />
			<rt_info>
				<attribute name="decompression" version="0" />
			</rt_info>
			<input>
				<port id="0" precision="FP16">
					<dim>88</dim>
				</port>
			</input>
			<output>
				<port id="1" precision="FP32">
					<dim>88</dim>
				</port>
			</output>
		</layer>
		<layer id="270" name="conv6_expand_bn_offset" type="Const" version="opset1">
			<data element_type="f32" shape="88" offset="14020" size="352" />
			<output>
				<port id="0" precision="FP32" names="conv6_expand_bn_offset">
					<dim>88</dim>
				</port>
			</output>
		</layer>
		<layer id="271" name="conv6_expand_bn_mean_compressed" type="Const" version="opset1">
			<data element_type="f16" shape="88" offset="14372" size="176" />
			<output>
				<port id="0" precision="FP16" names="conv6_expand_bn_mean">
					<dim>88</dim>
				</port>
			</output>
		</layer>
		<layer id="272" name="conv6_expand_bn_mean" type="Convert" version="opset1">
			<data destination_type="f32" />
			<rt_info>
				<attribute name="decompression" version="0" />
			</rt_info>
			<input>
				<port id="0" precision="FP16">
					<dim>88</dim>
				</port>
			</input>
			<output>
				<port id="1" precision="FP32">
					<dim>88</dim>
				</port>
			</output>
		</layer>
		<layer id="273" name="conv6_expand_bn_variance" type="Const" version="opset1">
			<data element_type="f32" shape="88" offset="14548" size="352" />
			<output>
				<port id="0" precision="FP32" names="conv6_expand_bn_variance">
					<dim>88</dim>
				</port>
			</output>
		</layer>
		<layer id="274" name="BatchNormalization@13" type="BatchNormInference" version="opset5">
			<data epsilon="9.9999997473787516e-06" />
			<input>
				<port id="0" precision="FP32">
					<dim>-1</dim>
					<dim>88</dim>
					<dim>-1</dim>
					<dim>-1</dim>
				</port>
				<port id="1" precision="FP32">
					<dim>88</dim>
				</port>
				<port id="2" precision="FP32">
					<dim>88</dim>
				</port>
				<port id="3" precision="FP32">
					<dim>88</dim>
				</port>
				<port id="4" precision="FP32">
					<dim>88</dim>
				</port>
			</input>
			<output>
				<port id="5" precision="FP32" names="batch_norm_13.tmp_2">
					<dim>-1</dim>
					<dim>88</dim>
					<dim>-1</dim>
					<dim>-1</dim>
				</port>
			</output>
		</layer>
		<layer id="275" name="Constant@19_compressed" type="Const" version="opset1">
			<data element_type="f16" shape="" offset="560" size="2" />
			<output>
				<port id="0" precision="FP16" names="Constant@19" />
			</output>
		</layer>
		<layer id="276" name="Constant@19" type="Convert" version="opset1">
			<data destination_type="f32" />
			<rt_info>
				<attribute name="decompression" version="0" />
			</rt_info>
			<input>
				<port id="0" precision="FP16" />
			</input>
			<output>
				<port id="1" precision="FP32" />
			</output>
		</layer>
		<layer id="277" name="Constant@18_compressed" type="Const" version="opset1">
			<data element_type="f16" shape="" offset="562" size="2" />
			<output>
				<port id="0" precision="FP16" names="Constant@18" />
			</output>
		</layer>
		<layer id="278" name="Constant@18" type="Convert" version="opset1">
			<data destination_type="f32" />
			<rt_info>
				<attribute name="decompression" version="0" />
			</rt_info>
			<input>
				<port id="0" precision="FP16" />
			</input>
			<output>
				<port id="1" precision="FP32" />
			</output>
		</layer>
		<layer id="279" name="Constant@17_compressed" type="Const" version="opset1">
			<data element_type="f16" shape="" offset="564" size="2" />
			<output>
				<port id="0" precision="FP16" names="Constant@17" />
			</output>
		</layer>
		<layer id="280" name="Constant@17" type="Convert" version="opset1">
			<data destination_type="f32" />
			<rt_info>
				<attribute name="decompression" version="0" />
			</rt_info>
			<input>
				<port id="0" precision="FP16" />
			</input>
			<output>
				<port id="1" precision="FP32" />
			</output>
		</layer>
		<layer id="281" name="Add@8" type="Add" version="opset1">
			<data auto_broadcast="numpy" />
			<input>
				<port id="0" precision="FP32">
					<dim>-1</dim>
					<dim>88</dim>
					<dim>-1</dim>
					<dim>-1</dim>
				</port>
				<port id="1" precision="FP32" />
			</input>
			<output>
				<port id="2" precision="FP32" names="Add@8">
					<dim>-1</dim>
					<dim>88</dim>
					<dim>-1</dim>
					<dim>-1</dim>
				</port>
			</output>
		</layer>
		<layer id="282" name="Maximum_620" type="Maximum" version="opset1">
			<data auto_broadcast="numpy" />
			<input>
				<port id="0" precision="FP32" />
				<port id="1" precision="FP32">
					<dim>-1</dim>
					<dim>88</dim>
					<dim>-1</dim>
					<dim>-1</dim>
				</port>
			</input>
			<output>
				<port id="2" precision="FP32">
					<dim>-1</dim>
					<dim>88</dim>
					<dim>-1</dim>
					<dim>-1</dim>
				</port>
			</output>
		</layer>
		<layer id="283" name="Clip@3" type="Minimum" version="opset1">
			<data auto_broadcast="numpy" />
			<input>
				<port id="0" precision="FP32" />
				<port id="1" precision="FP32">
					<dim>-1</dim>
					<dim>88</dim>
					<dim>-1</dim>
					<dim>-1</dim>
				</port>
			</input>
			<output>
				<port id="2" precision="FP32" names="Clip@3">
					<dim>-1</dim>
					<dim>88</dim>
					<dim>-1</dim>
					<dim>-1</dim>
				</port>
			</output>
		</layer>
		<layer id="284" name="Mul@5" type="Multiply" version="opset1">
			<data auto_broadcast="numpy" />
			<input>
				<port id="0" precision="FP32">
					<dim>-1</dim>
					<dim>88</dim>
					<dim>-1</dim>
					<dim>-1</dim>
				</port>
				<port id="1" precision="FP32">
					<dim>-1</dim>
					<dim>88</dim>
					<dim>-1</dim>
					<dim>-1</dim>
				</port>
			</input>
			<output>
				<port id="2" precision="FP32" names="Mul@5">
					<dim>-1</dim>
					<dim>88</dim>
					<dim>-1</dim>
					<dim>-1</dim>
				</port>
			</output>
		</layer>
		<layer id="285" name="Constant@16_compressed" type="Const" version="opset1">
			<data element_type="f16" shape="" offset="560" size="2" />
			<output>
				<port id="0" precision="FP16" names="Constant@16" />
			</output>
		</layer>
		<layer id="286" name="Constant@16" type="Convert" version="opset1">
			<data destination_type="f32" />
			<rt_info>
				<attribute name="decompression" version="0" />
			</rt_info>
			<input>
				<port id="0" precision="FP16" />
			</input>
			<output>
				<port id="1" precision="FP32" />
			</output>
		</layer>
		<layer id="287" name="Div@3" type="Divide" version="opset1">
			<data auto_broadcast="numpy" m_pythondiv="true" />
			<input>
				<port id="0" precision="FP32">
					<dim>-1</dim>
					<dim>88</dim>
					<dim>-1</dim>
					<dim>-1</dim>
				</port>
				<port id="1" precision="FP32" />
			</input>
			<output>
				<port id="2" precision="FP32" names="hardswish_3.tmp_0">
					<dim>-1</dim>
					<dim>88</dim>
					<dim>-1</dim>
					<dim>-1</dim>
				</port>
			</output>
		</layer>
		<layer id="288" name="conv6_depthwise_weights_compressed" type="Const" version="opset1">
			<data element_type="f16" shape="88, 1, 5, 5" offset="14900" size="4400" />
			<output>
				<port id="0" precision="FP16" names="conv6_depthwise_weights">
					<dim>88</dim>
					<dim>1</dim>
					<dim>5</dim>
					<dim>5</dim>
				</port>
			</output>
		</layer>
		<layer id="289" name="conv6_depthwise_weights" type="Convert" version="opset1">
			<data destination_type="f32" />
			<rt_info>
				<attribute name="decompression" version="0" />
			</rt_info>
			<input>
				<port id="0" precision="FP16">
					<dim>88</dim>
					<dim>1</dim>
					<dim>5</dim>
					<dim>5</dim>
				</port>
			</input>
			<output>
				<port id="1" precision="FP32">
					<dim>88</dim>
					<dim>1</dim>
					<dim>5</dim>
					<dim>5</dim>
				</port>
			</output>
		</layer>
		<layer id="290" name="Constant_627" type="Const" version="opset1">
			<data element_type="i64" shape="1" offset="19300" size="8" />
			<rt_info>
				<attribute name="precise" version="0" />
			</rt_info>
			<output>
				<port id="0" precision="I64">
					<dim>1</dim>
				</port>
			</output>
		</layer>
		<layer id="291" name="ShapeOf_628" type="ShapeOf" version="opset3">
			<data output_type="i64" />
			<input>
				<port id="0" precision="FP32">
					<dim>88</dim>
					<dim>1</dim>
					<dim>5</dim>
					<dim>5</dim>
				</port>
			</input>
			<output>
				<port id="1" precision="I64">
					<dim>4</dim>
				</port>
			</output>
		</layer>
		<layer id="292" name="Constant_625" type="Const" version="opset1">
			<data element_type="i64" shape="" offset="910" size="8" />
			<rt_info>
				<attribute name="precise" version="0" />
			</rt_info>
			<output>
				<port id="0" precision="I64" />
			</output>
		</layer>
		<layer id="293" name="Constant_626" type="Const" version="opset1">
			<data element_type="i64" shape="2" offset="918" size="16" />
			<rt_info>
				<attribute name="precise" version="0" />
			</rt_info>
			<output>
				<port id="0" precision="I64">
					<dim>2</dim>
				</port>
			</output>
		</layer>
		<layer id="294" name="VariadicSplit_629" type="VariadicSplit" version="opset1">
			<input>
				<port id="0" precision="I64">
					<dim>4</dim>
				</port>
				<port id="1" precision="I64" />
				<port id="2" precision="I64">
					<dim>2</dim>
				</port>
			</input>
			<output>
				<port id="3" precision="I64">
					<dim>1</dim>
				</port>
				<port id="4" precision="I64">
					<dim>3</dim>
				</port>
			</output>
		</layer>
		<layer id="295" name="Divide_630" type="Divide" version="opset1">
			<data auto_broadcast="numpy" m_pythondiv="true" />
			<input>
				<port id="0" precision="I64">
					<dim>1</dim>
				</port>
				<port id="1" precision="I64">
					<dim>1</dim>
				</port>
			</input>
			<output>
				<port id="2" precision="I64">
					<dim>1</dim>
				</port>
			</output>
		</layer>
		<layer id="296" name="Concat_631" type="Concat" version="opset1">
			<data axis="0" />
			<input>
				<port id="0" precision="I64">
					<dim>1</dim>
				</port>
				<port id="1" precision="I64">
					<dim>1</dim>
				</port>
				<port id="2" precision="I64">
					<dim>3</dim>
				</port>
			</input>
			<output>
				<port id="3" precision="I64">
					<dim>5</dim>
				</port>
			</output>
		</layer>
		<layer id="297" name="Reshape_632" type="Reshape" version="opset1">
			<data special_zero="false" />
			<input>
				<port id="0" precision="FP32">
					<dim>88</dim>
					<dim>1</dim>
					<dim>5</dim>
					<dim>5</dim>
				</port>
				<port id="1" precision="I64">
					<dim>5</dim>
				</port>
			</input>
			<output>
				<port id="2" precision="FP32">
					<dim>88</dim>
					<dim>1</dim>
					<dim>1</dim>
					<dim>5</dim>
					<dim>5</dim>
				</port>
			</output>
		</layer>
		<layer id="298" name="Conv@18" type="GroupConvolution" version="opset1">
			<data strides="1, 1" pads_begin="2, 2" pads_end="2, 2" dilations="1, 1" auto_pad="explicit" />
			<input>
				<port id="0" precision="FP32">
					<dim>-1</dim>
					<dim>88</dim>
					<dim>-1</dim>
					<dim>-1</dim>
				</port>
				<port id="1" precision="FP32">
					<dim>88</dim>
					<dim>1</dim>
					<dim>1</dim>
					<dim>5</dim>
					<dim>5</dim>
				</port>
			</input>
			<output>
				<port id="2" precision="FP32" names="depthwise_conv2d_4.tmp_0">
					<dim>-1</dim>
					<dim>88</dim>
					<dim>-1</dim>
					<dim>-1</dim>
				</port>
			</output>
		</layer>
		<layer id="299" name="conv6_depthwise_bn_scale_compressed" type="Const" version="opset1">
			<data element_type="f16" shape="88" offset="19308" size="176" />
			<output>
				<port id="0" precision="FP16" names="conv6_depthwise_bn_scale">
					<dim>88</dim>
				</port>
			</output>
		</layer>
		<layer id="300" name="conv6_depthwise_bn_scale" type="Convert" version="opset1">
			<data destination_type="f32" />
			<rt_info>
				<attribute name="decompression" version="0" />
			</rt_info>
			<input>
				<port id="0" precision="FP16">
					<dim>88</dim>
				</port>
			</input>
			<output>
				<port id="1" precision="FP32">
					<dim>88</dim>
				</port>
			</output>
		</layer>
		<layer id="301" name="conv6_depthwise_bn_offset_compressed" type="Const" version="opset1">
			<data element_type="f16" shape="88" offset="19484" size="176" />
			<output>
				<port id="0" precision="FP16" names="conv6_depthwise_bn_offset">
					<dim>88</dim>
				</port>
			</output>
		</layer>
		<layer id="302" name="conv6_depthwise_bn_offset" type="Convert" version="opset1">
			<data destination_type="f32" />
			<rt_info>
				<attribute name="decompression" version="0" />
			</rt_info>
			<input>
				<port id="0" precision="FP16">
					<dim>88</dim>
				</port>
			</input>
			<output>
				<port id="1" precision="FP32">
					<dim>88</dim>
				</port>
			</output>
		</layer>
		<layer id="303" name="conv6_depthwise_bn_mean" type="Const" version="opset1">
			<data element_type="f32" shape="88" offset="19660" size="352" />
			<output>
				<port id="0" precision="FP32" names="conv6_depthwise_bn_mean">
					<dim>88</dim>
				</port>
			</output>
		</layer>
		<layer id="304" name="conv6_depthwise_bn_variance" type="Const" version="opset1">
			<data element_type="f32" shape="88" offset="20012" size="352" />
			<output>
				<port id="0" precision="FP32" names="conv6_depthwise_bn_variance">
					<dim>88</dim>
				</port>
			</output>
		</layer>
		<layer id="305" name="BatchNormalization@14" type="BatchNormInference" version="opset5">
			<data epsilon="9.9999997473787516e-06" />
			<input>
				<port id="0" precision="FP32">
					<dim>-1</dim>
					<dim>88</dim>
					<dim>-1</dim>
					<dim>-1</dim>
				</port>
				<port id="1" precision="FP32">
					<dim>88</dim>
				</port>
				<port id="2" precision="FP32">
					<dim>88</dim>
				</port>
				<port id="3" precision="FP32">
					<dim>88</dim>
				</port>
				<port id="4" precision="FP32">
					<dim>88</dim>
				</port>
			</input>
			<output>
				<port id="5" precision="FP32" names="batch_norm_14.tmp_2">
					<dim>-1</dim>
					<dim>88</dim>
					<dim>-1</dim>
					<dim>-1</dim>
				</port>
			</output>
		</layer>
		<layer id="306" name="Constant@23_compressed" type="Const" version="opset1">
			<data element_type="f16" shape="" offset="560" size="2" />
			<output>
				<port id="0" precision="FP16" names="Constant@23" />
			</output>
		</layer>
		<layer id="307" name="Constant@23" type="Convert" version="opset1">
			<data destination_type="f32" />
			<rt_info>
				<attribute name="decompression" version="0" />
			</rt_info>
			<input>
				<port id="0" precision="FP16" />
			</input>
			<output>
				<port id="1" precision="FP32" />
			</output>
		</layer>
		<layer id="308" name="Constant@22_compressed" type="Const" version="opset1">
			<data element_type="f16" shape="" offset="562" size="2" />
			<output>
				<port id="0" precision="FP16" names="Constant@22" />
			</output>
		</layer>
		<layer id="309" name="Constant@22" type="Convert" version="opset1">
			<data destination_type="f32" />
			<rt_info>
				<attribute name="decompression" version="0" />
			</rt_info>
			<input>
				<port id="0" precision="FP16" />
			</input>
			<output>
				<port id="1" precision="FP32" />
			</output>
		</layer>
		<layer id="310" name="Constant@21_compressed" type="Const" version="opset1">
			<data element_type="f16" shape="" offset="564" size="2" />
			<output>
				<port id="0" precision="FP16" names="Constant@21" />
			</output>
		</layer>
		<layer id="311" name="Constant@21" type="Convert" version="opset1">
			<data destination_type="f32" />
			<rt_info>
				<attribute name="decompression" version="0" />
			</rt_info>
			<input>
				<port id="0" precision="FP16" />
			</input>
			<output>
				<port id="1" precision="FP32" />
			</output>
		</layer>
		<layer id="312" name="Add@9" type="Add" version="opset1">
			<data auto_broadcast="numpy" />
			<input>
				<port id="0" precision="FP32">
					<dim>-1</dim>
					<dim>88</dim>
					<dim>-1</dim>
					<dim>-1</dim>
				</port>
				<port id="1" precision="FP32" />
			</input>
			<output>
				<port id="2" precision="FP32" names="Add@9">
					<dim>-1</dim>
					<dim>88</dim>
					<dim>-1</dim>
					<dim>-1</dim>
				</port>
			</output>
		</layer>
		<layer id="313" name="Maximum_674" type="Maximum" version="opset1">
			<data auto_broadcast="numpy" />
			<input>
				<port id="0" precision="FP32" />
				<port id="1" precision="FP32">
					<dim>-1</dim>
					<dim>88</dim>
					<dim>-1</dim>
					<dim>-1</dim>
				</port>
			</input>
			<output>
				<port id="2" precision="FP32">
					<dim>-1</dim>
					<dim>88</dim>
					<dim>-1</dim>
					<dim>-1</dim>
				</port>
			</output>
		</layer>
		<layer id="314" name="Clip@4" type="Minimum" version="opset1">
			<data auto_broadcast="numpy" />
			<input>
				<port id="0" precision="FP32" />
				<port id="1" precision="FP32">
					<dim>-1</dim>
					<dim>88</dim>
					<dim>-1</dim>
					<dim>-1</dim>
				</port>
			</input>
			<output>
				<port id="2" precision="FP32" names="Clip@4">
					<dim>-1</dim>
					<dim>88</dim>
					<dim>-1</dim>
					<dim>-1</dim>
				</port>
			</output>
		</layer>
		<layer id="315" name="Mul@6" type="Multiply" version="opset1">
			<data auto_broadcast="numpy" />
			<input>
				<port id="0" precision="FP32">
					<dim>-1</dim>
					<dim>88</dim>
					<dim>-1</dim>
					<dim>-1</dim>
				</port>
				<port id="1" precision="FP32">
					<dim>-1</dim>
					<dim>88</dim>
					<dim>-1</dim>
					<dim>-1</dim>
				</port>
			</input>
			<output>
				<port id="2" precision="FP32" names="Mul@6">
					<dim>-1</dim>
					<dim>88</dim>
					<dim>-1</dim>
					<dim>-1</dim>
				</port>
			</output>
		</layer>
		<layer id="316" name="Constant@20_compressed" type="Const" version="opset1">
			<data element_type="f16" shape="" offset="560" size="2" />
			<output>
				<port id="0" precision="FP16" names="Constant@20" />
			</output>
		</layer>
		<layer id="317" name="Constant@20" type="Convert" version="opset1">
			<data destination_type="f32" />
			<rt_info>
				<attribute name="decompression" version="0" />
			</rt_info>
			<input>
				<port id="0" precision="FP16" />
			</input>
			<output>
				<port id="1" precision="FP32" />
			</output>
		</layer>
		<layer id="318" name="Div@4" type="Divide" version="opset1">
			<data auto_broadcast="numpy" m_pythondiv="true" />
			<input>
				<port id="0" precision="FP32">
					<dim>-1</dim>
					<dim>88</dim>
					<dim>-1</dim>
					<dim>-1</dim>
				</port>
				<port id="1" precision="FP32" />
			</input>
			<output>
				<port id="2" precision="FP32" names="hardswish_4.tmp_0">
					<dim>-1</dim>
					<dim>88</dim>
					<dim>-1</dim>
					<dim>-1</dim>
				</port>
			</output>
		</layer>
		<layer id="319" name="Constant_680" type="Const" version="opset1">
			<data element_type="i64" shape="" offset="1046" size="8" />
			<output>
				<port id="0" precision="I64" />
			</output>
		</layer>
		<layer id="320" name="ShapeOf_681" type="ShapeOf" version="opset3">
			<data output_type="i64" />
			<input>
				<port id="0" precision="FP32">
					<dim>-1</dim>
					<dim>88</dim>
					<dim>-1</dim>
					<dim>-1</dim>
				</port>
			</input>
			<output>
				<port id="1" precision="I64">
					<dim>4</dim>
				</port>
			</output>
		</layer>
		<layer id="321" name="ShapeOf_682" type="ShapeOf" version="opset3">
			<data output_type="i64" />
			<input>
				<port id="0" precision="I64">
					<dim>4</dim>
				</port>
			</input>
			<output>
				<port id="1" precision="I64">
					<dim>1</dim>
				</port>
			</output>
		</layer>
		<layer id="322" name="Squeeze_683" type="Squeeze" version="opset1">
			<input>
				<port id="0" precision="I64">
					<dim>1</dim>
				</port>
			</input>
			<output>
				<port id="1" precision="I64" />
			</output>
		</layer>
		<layer id="323" name="Constant_679" type="Const" version="opset1">
			<data element_type="i64" shape="" offset="1054" size="8" />
			<output>
				<port id="0" precision="I64" />
			</output>
		</layer>
		<layer id="324" name="Range_684" type="Range" version="opset4">
			<data output_type="i64" />
			<input>
				<port id="0" precision="I64" />
				<port id="1" precision="I64" />
				<port id="2" precision="I64" />
			</input>
			<output>
				<port id="3" precision="I64">
					<dim>2</dim>
				</port>
			</output>
		</layer>
		<layer id="325" name="GlobalAveragePool@2" type="ReduceMean" version="opset1">
			<data keep_dims="true" />
			<input>
				<port id="0" precision="FP32">
					<dim>-1</dim>
					<dim>88</dim>
					<dim>-1</dim>
					<dim>-1</dim>
				</port>
				<port id="1" precision="I64">
					<dim>2</dim>
				</port>
			</input>
			<output>
				<port id="2" precision="FP32" names="pool2d_2.tmp_0">
					<dim>-1</dim>
					<dim>88</dim>
					<dim>1</dim>
					<dim>1</dim>
				</port>
			</output>
		</layer>
		<layer id="326" name="conv6_se_1_weights_compressed" type="Const" version="opset1">
			<data element_type="f16" shape="22, 88, 1, 1" offset="20364" size="3872" />
			<output>
				<port id="0" precision="FP16" names="conv6_se_1_weights">
					<dim>22</dim>
					<dim>88</dim>
					<dim>1</dim>
					<dim>1</dim>
				</port>
			</output>
		</layer>
		<layer id="327" name="conv6_se_1_weights" type="Convert" version="opset1">
			<data destination_type="f32" />
			<rt_info>
				<attribute name="decompression" version="0" />
			</rt_info>
			<input>
				<port id="0" precision="FP16">
					<dim>22</dim>
					<dim>88</dim>
					<dim>1</dim>
					<dim>1</dim>
				</port>
			</input>
			<output>
				<port id="1" precision="FP32">
					<dim>22</dim>
					<dim>88</dim>
					<dim>1</dim>
					<dim>1</dim>
				</port>
			</output>
		</layer>
		<layer id="328" name="Conv@19" type="Convolution" version="opset1">
			<data strides="1, 1" dilations="1, 1" pads_begin="0, 0" pads_end="0, 0" auto_pad="explicit" />
			<input>
				<port id="0" precision="FP32">
					<dim>-1</dim>
					<dim>88</dim>
					<dim>1</dim>
					<dim>1</dim>
				</port>
				<port id="1" precision="FP32">
					<dim>22</dim>
					<dim>88</dim>
					<dim>1</dim>
					<dim>1</dim>
				</port>
			</input>
			<output>
				<port id="2" precision="FP32" names="conv2d_67.tmp_0">
					<dim>-1</dim>
					<dim>22</dim>
					<dim>1</dim>
					<dim>1</dim>
				</port>
			</output>
		</layer>
		<layer id="329" name="conv6_se_1_offset_compressed" type="Const" version="opset1">
			<data element_type="f16" shape="22" offset="24236" size="44" />
			<output>
				<port id="0" precision="FP16" names="conv6_se_1_offset">
					<dim>22</dim>
				</port>
			</output>
		</layer>
		<layer id="330" name="conv6_se_1_offset" type="Convert" version="opset1">
			<data destination_type="f32" />
			<rt_info>
				<attribute name="decompression" version="0" />
			</rt_info>
			<input>
				<port id="0" precision="FP16">
					<dim>22</dim>
				</port>
			</input>
			<output>
				<port id="1" precision="FP32">
					<dim>22</dim>
				</port>
			</output>
		</layer>
		<layer id="331" name="Constant@24" type="Const" version="opset1">
			<data element_type="i64" shape="4" offset="24280" size="32" />
			<rt_info>
				<attribute name="precise" version="0" />
			</rt_info>
			<output>
				<port id="0" precision="I64" names="Constant@24">
					<dim>4</dim>
				</port>
			</output>
		</layer>
		<layer id="332" name="Reshape@4" type="Reshape" version="opset1">
			<data special_zero="true" />
			<input>
				<port id="0" precision="FP32">
					<dim>22</dim>
				</port>
				<port id="1" precision="I64">
					<dim>4</dim>
				</port>
			</input>
			<output>
				<port id="2" precision="FP32" names="Reshape@4">
					<dim>1</dim>
					<dim>22</dim>
					<dim>1</dim>
					<dim>1</dim>
				</port>
			</output>
		</layer>
		<layer id="333" name="Add@10" type="Add" version="opset1">
			<data auto_broadcast="numpy" />
			<input>
				<port id="0" precision="FP32">
					<dim>-1</dim>
					<dim>22</dim>
					<dim>1</dim>
					<dim>1</dim>
				</port>
				<port id="1" precision="FP32">
					<dim>1</dim>
					<dim>22</dim>
					<dim>1</dim>
					<dim>1</dim>
				</port>
			</input>
			<output>
				<port id="2" precision="FP32" names="conv2d_67.tmp_1">
					<dim>-1</dim>
					<dim>22</dim>
					<dim>1</dim>
					<dim>1</dim>
				</port>
			</output>
		</layer>
		<layer id="334" name="Relu@8" type="ReLU" version="opset1">
			<input>
				<port id="0" precision="FP32">
					<dim>-1</dim>
					<dim>22</dim>
					<dim>1</dim>
					<dim>1</dim>
				</port>
			</input>
			<output>
				<port id="1" precision="FP32" names="relu_8.tmp_0">
					<dim>-1</dim>
					<dim>22</dim>
					<dim>1</dim>
					<dim>1</dim>
				</port>
			</output>
		</layer>
		<layer id="335" name="conv6_se_2_weights_compressed" type="Const" version="opset1">
			<data element_type="f16" shape="88, 22, 1, 1" offset="24312" size="3872" />
			<output>
				<port id="0" precision="FP16" names="conv6_se_2_weights">
					<dim>88</dim>
					<dim>22</dim>
					<dim>1</dim>
					<dim>1</dim>
				</port>
			</output>
		</layer>
		<layer id="336" name="conv6_se_2_weights" type="Convert" version="opset1">
			<data destination_type="f32" />
			<rt_info>
				<attribute name="decompression" version="0" />
			</rt_info>
			<input>
				<port id="0" precision="FP16">
					<dim>88</dim>
					<dim>22</dim>
					<dim>1</dim>
					<dim>1</dim>
				</port>
			</input>
			<output>
				<port id="1" precision="FP32">
					<dim>88</dim>
					<dim>22</dim>
					<dim>1</dim>
					<dim>1</dim>
				</port>
			</output>
		</layer>
		<layer id="337" name="Conv@20" type="Convolution" version="opset1">
			<data strides="1, 1" dilations="1, 1" pads_begin="0, 0" pads_end="0, 0" auto_pad="explicit" />
			<input>
				<port id="0" precision="FP32">
					<dim>-1</dim>
					<dim>22</dim>
					<dim>1</dim>
					<dim>1</dim>
				</port>
				<port id="1" precision="FP32">
					<dim>88</dim>
					<dim>22</dim>
					<dim>1</dim>
					<dim>1</dim>
				</port>
			</input>
			<output>
				<port id="2" precision="FP32" names="conv2d_68.tmp_0">
					<dim>-1</dim>
					<dim>88</dim>
					<dim>1</dim>
					<dim>1</dim>
				</port>
			</output>
		</layer>
		<layer id="338" name="conv6_se_2_offset_compressed" type="Const" version="opset1">
			<data element_type="f16" shape="88" offset="28184" size="176" />
			<output>
				<port id="0" precision="FP16" names="conv6_se_2_offset">
					<dim>88</dim>
				</port>
			</output>
		</layer>
		<layer id="339" name="conv6_se_2_offset" type="Convert" version="opset1">
			<data destination_type="f32" />
			<rt_info>
				<attribute name="decompression" version="0" />
			</rt_info>
			<input>
				<port id="0" precision="FP16">
					<dim>88</dim>
				</port>
			</input>
			<output>
				<port id="1" precision="FP32">
					<dim>88</dim>
				</port>
			</output>
		</layer>
		<layer id="340" name="Constant@25" type="Const" version="opset1">
			<data element_type="i64" shape="4" offset="28360" size="32" />
			<rt_info>
				<attribute name="precise" version="0" />
			</rt_info>
			<output>
				<port id="0" precision="I64" names="Constant@25">
					<dim>4</dim>
				</port>
			</output>
		</layer>
		<layer id="341" name="Reshape@5" type="Reshape" version="opset1">
			<data special_zero="true" />
			<input>
				<port id="0" precision="FP32">
					<dim>88</dim>
				</port>
				<port id="1" precision="I64">
					<dim>4</dim>
				</port>
			</input>
			<output>
				<port id="2" precision="FP32" names="Reshape@5">
					<dim>1</dim>
					<dim>88</dim>
					<dim>1</dim>
					<dim>1</dim>
				</port>
			</output>
		</layer>
		<layer id="342" name="Add@11" type="Add" version="opset1">
			<data auto_broadcast="numpy" />
			<input>
				<port id="0" precision="FP32">
					<dim>-1</dim>
					<dim>88</dim>
					<dim>1</dim>
					<dim>1</dim>
				</port>
				<port id="1" precision="FP32">
					<dim>1</dim>
					<dim>88</dim>
					<dim>1</dim>
					<dim>1</dim>
				</port>
			</input>
			<output>
				<port id="2" precision="FP32" names="conv2d_68.tmp_1">
					<dim>-1</dim>
					<dim>88</dim>
					<dim>1</dim>
					<dim>1</dim>
				</port>
			</output>
		</layer>
		<layer id="343" name="Constant_695" type="Const" version="opset1">
			<data element_type="f32" shape="" offset="1262" size="4" />
			<output>
				<port id="0" precision="FP32" />
			</output>
		</layer>
		<layer id="344" name="Constant_696_compressed" type="Const" version="opset1">
			<data element_type="f16" shape="" offset="1266" size="2" />
			<output>
				<port id="0" precision="FP16" />
			</output>
		</layer>
		<layer id="345" name="Constant_696" type="Convert" version="opset1">
			<data destination_type="f32" />
			<rt_info>
				<attribute name="decompression" version="0" />
			</rt_info>
			<input>
				<port id="0" precision="FP16" />
			</input>
			<output>
				<port id="1" precision="FP32" />
			</output>
		</layer>
		<layer id="346" name="HardSigmoid@2" type="HardSigmoid" version="opset1">
			<input>
				<port id="0" precision="FP32">
					<dim>-1</dim>
					<dim>88</dim>
					<dim>1</dim>
					<dim>1</dim>
				</port>
				<port id="1" precision="FP32" />
				<port id="2" precision="FP32" />
			</input>
			<output>
				<port id="3" precision="FP32" names="hardsigmoid_2.tmp_0">
					<dim>-1</dim>
					<dim>88</dim>
					<dim>1</dim>
					<dim>1</dim>
				</port>
			</output>
		</layer>
		<layer id="347" name="Mul@7" type="Multiply" version="opset1">
			<data auto_broadcast="numpy" />
			<input>
				<port id="0" precision="FP32">
					<dim>-1</dim>
					<dim>88</dim>
					<dim>-1</dim>
					<dim>-1</dim>
				</port>
				<port id="1" precision="FP32">
					<dim>-1</dim>
					<dim>88</dim>
					<dim>1</dim>
					<dim>1</dim>
				</port>
			</input>
			<output>
				<port id="2" precision="FP32" names="tmp_2">
					<dim>-1</dim>
					<dim>88</dim>
					<dim>-1</dim>
					<dim>-1</dim>
				</port>
			</output>
		</layer>
		<layer id="348" name="conv6_linear_weights_compressed" type="Const" version="opset1">
			<data element_type="f16" shape="16, 88, 1, 1" offset="28392" size="2816" />
			<output>
				<port id="0" precision="FP16" names="conv6_linear_weights">
					<dim>16</dim>
					<dim>88</dim>
					<dim>1</dim>
					<dim>1</dim>
				</port>
			</output>
		</layer>
		<layer id="349" name="conv6_linear_weights" type="Convert" version="opset1">
			<data destination_type="f32" />
			<rt_info>
				<attribute name="decompression" version="0" />
			</rt_info>
			<input>
				<port id="0" precision="FP16">
					<dim>16</dim>
					<dim>88</dim>
					<dim>1</dim>
					<dim>1</dim>
				</port>
			</input>
			<output>
				<port id="1" precision="FP32">
					<dim>16</dim>
					<dim>88</dim>
					<dim>1</dim>
					<dim>1</dim>
				</port>
			</output>
		</layer>
		<layer id="350" name="Conv@21" type="Convolution" version="opset1">
			<data strides="1, 1" dilations="1, 1" pads_begin="0, 0" pads_end="0, 0" auto_pad="explicit" />
			<input>
				<port id="0" precision="FP32">
					<dim>-1</dim>
					<dim>88</dim>
					<dim>-1</dim>
					<dim>-1</dim>
				</port>
				<port id="1" precision="FP32">
					<dim>16</dim>
					<dim>88</dim>
					<dim>1</dim>
					<dim>1</dim>
				</port>
			</input>
			<output>
				<port id="2" precision="FP32" names="conv2d_69.tmp_0">
					<dim>-1</dim>
					<dim>16</dim>
					<dim>-1</dim>
					<dim>-1</dim>
				</port>
			</output>
		</layer>
		<layer id="351" name="conv6_linear_bn_scale_compressed" type="Const" version="opset1">
			<data element_type="f16" shape="16" offset="31208" size="32" />
			<output>
				<port id="0" precision="FP16" names="conv6_linear_bn_scale">
					<dim>16</dim>
				</port>
			</output>
		</layer>
		<layer id="352" name="conv6_linear_bn_scale" type="Convert" version="opset1">
			<data destination_type="f32" />
			<rt_info>
				<attribute name="decompression" version="0" />
			</rt_info>
			<input>
				<port id="0" precision="FP16">
					<dim>16</dim>
				</port>
			</input>
			<output>
				<port id="1" precision="FP32">
					<dim>16</dim>
				</port>
			</output>
		</layer>
		<layer id="353" name="conv6_linear_bn_offset" type="Const" version="opset1">
			<data element_type="f32" shape="16" offset="31240" size="64" />
			<output>
				<port id="0" precision="FP32" names="conv6_linear_bn_offset">
					<dim>16</dim>
				</port>
			</output>
		</layer>
		<layer id="354" name="conv6_linear_bn_mean_compressed" type="Const" version="opset1">
			<data element_type="f16" shape="16" offset="31304" size="32" />
			<output>
				<port id="0" precision="FP16" names="conv6_linear_bn_mean">
					<dim>16</dim>
				</port>
			</output>
		</layer>
		<layer id="355" name="conv6_linear_bn_mean" type="Convert" version="opset1">
			<data destination_type="f32" />
			<rt_info>
				<attribute name="decompression" version="0" />
			</rt_info>
			<input>
				<port id="0" precision="FP16">
					<dim>16</dim>
				</port>
			</input>
			<output>
				<port id="1" precision="FP32">
					<dim>16</dim>
				</port>
			</output>
		</layer>
		<layer id="356" name="conv6_linear_bn_variance" type="Const" version="opset1">
			<data element_type="f32" shape="16" offset="31336" size="64" />
			<output>
				<port id="0" precision="FP32" names="conv6_linear_bn_variance">
					<dim>16</dim>
				</port>
			</output>
		</layer>
		<layer id="357" name="BatchNormalization@15" type="BatchNormInference" version="opset5">
			<data epsilon="9.9999997473787516e-06" />
			<input>
				<port id="0" precision="FP32">
					<dim>-1</dim>
					<dim>16</dim>
					<dim>-1</dim>
					<dim>-1</dim>
				</port>
				<port id="1" precision="FP32">
					<dim>16</dim>
				</port>
				<port id="2" precision="FP32">
					<dim>16</dim>
				</port>
				<port id="3" precision="FP32">
					<dim>16</dim>
				</port>
				<port id="4" precision="FP32">
					<dim>16</dim>
				</port>
			</input>
			<output>
				<port id="5" precision="FP32" names="batch_norm_15.tmp_2">
					<dim>-1</dim>
					<dim>16</dim>
					<dim>-1</dim>
					<dim>-1</dim>
				</port>
			</output>
		</layer>
		<layer id="358" name="Add@12" type="Add" version="opset1">
			<data auto_broadcast="numpy" />
			<input>
				<port id="0" precision="FP32">
					<dim>-1</dim>
					<dim>16</dim>
					<dim>-1</dim>
					<dim>-1</dim>
				</port>
				<port id="1" precision="FP32">
					<dim>-1</dim>
					<dim>16</dim>
					<dim>-1</dim>
					<dim>-1</dim>
				</port>
			</input>
			<output>
				<port id="2" precision="FP32" names="elementwise_add_1">
					<dim>-1</dim>
					<dim>16</dim>
					<dim>-1</dim>
					<dim>-1</dim>
				</port>
			</output>
		</layer>
		<layer id="359" name="conv7_expand_weights_compressed" type="Const" version="opset1">
			<data element_type="f16" shape="88, 16, 1, 1" offset="31400" size="2816" />
			<output>
				<port id="0" precision="FP16" names="conv7_expand_weights">
					<dim>88</dim>
					<dim>16</dim>
					<dim>1</dim>
					<dim>1</dim>
				</port>
			</output>
		</layer>
		<layer id="360" name="conv7_expand_weights" type="Convert" version="opset1">
			<data destination_type="f32" />
			<rt_info>
				<attribute name="decompression" version="0" />
			</rt_info>
			<input>
				<port id="0" precision="FP16">
					<dim>88</dim>
					<dim>16</dim>
					<dim>1</dim>
					<dim>1</dim>
				</port>
			</input>
			<output>
				<port id="1" precision="FP32">
					<dim>88</dim>
					<dim>16</dim>
					<dim>1</dim>
					<dim>1</dim>
				</port>
			</output>
		</layer>
		<layer id="361" name="Conv@22" type="Convolution" version="opset1">
			<data strides="1, 1" dilations="1, 1" pads_begin="0, 0" pads_end="0, 0" auto_pad="explicit" />
			<input>
				<port id="0" precision="FP32">
					<dim>-1</dim>
					<dim>16</dim>
					<dim>-1</dim>
					<dim>-1</dim>
				</port>
				<port id="1" precision="FP32">
					<dim>88</dim>
					<dim>16</dim>
					<dim>1</dim>
					<dim>1</dim>
				</port>
			</input>
			<output>
				<port id="2" precision="FP32" names="conv2d_70.tmp_0">
					<dim>-1</dim>
					<dim>88</dim>
					<dim>-1</dim>
					<dim>-1</dim>
				</port>
			</output>
		</layer>
		<layer id="362" name="conv7_expand_bn_scale_compressed" type="Const" version="opset1">
			<data element_type="f16" shape="88" offset="34216" size="176" />
			<output>
				<port id="0" precision="FP16" names="conv7_expand_bn_scale">
					<dim>88</dim>
				</port>
			</output>
		</layer>
		<layer id="363" name="conv7_expand_bn_scale" type="Convert" version="opset1">
			<data destination_type="f32" />
			<rt_info>
				<attribute name="decompression" version="0" />
			</rt_info>
			<input>
				<port id="0" precision="FP16">
					<dim>88</dim>
				</port>
			</input>
			<output>
				<port id="1" precision="FP32">
					<dim>88</dim>
				</port>
			</output>
		</layer>
		<layer id="364" name="conv7_expand_bn_offset_compressed" type="Const" version="opset1">
			<data element_type="f16" shape="88" offset="34392" size="176" />
			<output>
				<port id="0" precision="FP16" names="conv7_expand_bn_offset">
					<dim>88</dim>
				</port>
			</output>
		</layer>
		<layer id="365" name="conv7_expand_bn_offset" type="Convert" version="opset1">
			<data destination_type="f32" />
			<rt_info>
				<attribute name="decompression" version="0" />
			</rt_info>
			<input>
				<port id="0" precision="FP16">
					<dim>88</dim>
				</port>
			</input>
			<output>
				<port id="1" precision="FP32">
					<dim>88</dim>
				</port>
			</output>
		</layer>
		<layer id="366" name="conv7_expand_bn_mean_compressed" type="Const" version="opset1">
			<data element_type="f16" shape="88" offset="34568" size="176" />
			<output>
				<port id="0" precision="FP16" names="conv7_expand_bn_mean">
					<dim>88</dim>
				</port>
			</output>
		</layer>
		<layer id="367" name="conv7_expand_bn_mean" type="Convert" version="opset1">
			<data destination_type="f32" />
			<rt_info>
				<attribute name="decompression" version="0" />
			</rt_info>
			<input>
				<port id="0" precision="FP16">
					<dim>88</dim>
				</port>
			</input>
			<output>
				<port id="1" precision="FP32">
					<dim>88</dim>
				</port>
			</output>
		</layer>
		<layer id="368" name="conv7_expand_bn_variance_compressed" type="Const" version="opset1">
			<data element_type="f16" shape="88" offset="34744" size="176" />
			<output>
				<port id="0" precision="FP16" names="conv7_expand_bn_variance">
					<dim>88</dim>
				</port>
			</output>
		</layer>
		<layer id="369" name="conv7_expand_bn_variance" type="Convert" version="opset1">
			<data destination_type="f32" />
			<rt_info>
				<attribute name="decompression" version="0" />
			</rt_info>
			<input>
				<port id="0" precision="FP16">
					<dim>88</dim>
				</port>
			</input>
			<output>
				<port id="1" precision="FP32">
					<dim>88</dim>
				</port>
			</output>
		</layer>
		<layer id="370" name="BatchNormalization@16" type="BatchNormInference" version="opset5">
			<data epsilon="9.9999997473787516e-06" />
			<input>
				<port id="0" precision="FP32">
					<dim>-1</dim>
					<dim>88</dim>
					<dim>-1</dim>
					<dim>-1</dim>
				</port>
				<port id="1" precision="FP32">
					<dim>88</dim>
				</port>
				<port id="2" precision="FP32">
					<dim>88</dim>
				</port>
				<port id="3" precision="FP32">
					<dim>88</dim>
				</port>
				<port id="4" precision="FP32">
					<dim>88</dim>
				</port>
			</input>
			<output>
				<port id="5" precision="FP32" names="batch_norm_16.tmp_2">
					<dim>-1</dim>
					<dim>88</dim>
					<dim>-1</dim>
					<dim>-1</dim>
				</port>
			</output>
		</layer>
		<layer id="371" name="Constant@29_compressed" type="Const" version="opset1">
			<data element_type="f16" shape="" offset="560" size="2" />
			<output>
				<port id="0" precision="FP16" names="Constant@29" />
			</output>
		</layer>
		<layer id="372" name="Constant@29" type="Convert" version="opset1">
			<data destination_type="f32" />
			<rt_info>
				<attribute name="decompression" version="0" />
			</rt_info>
			<input>
				<port id="0" precision="FP16" />
			</input>
			<output>
				<port id="1" precision="FP32" />
			</output>
		</layer>
		<layer id="373" name="Constant@28_compressed" type="Const" version="opset1">
			<data element_type="f16" shape="" offset="562" size="2" />
			<output>
				<port id="0" precision="FP16" names="Constant@28" />
			</output>
		</layer>
		<layer id="374" name="Constant@28" type="Convert" version="opset1">
			<data destination_type="f32" />
			<rt_info>
				<attribute name="decompression" version="0" />
			</rt_info>
			<input>
				<port id="0" precision="FP16" />
			</input>
			<output>
				<port id="1" precision="FP32" />
			</output>
		</layer>
		<layer id="375" name="Constant@27_compressed" type="Const" version="opset1">
			<data element_type="f16" shape="" offset="564" size="2" />
			<output>
				<port id="0" precision="FP16" names="Constant@27" />
			</output>
		</layer>
		<layer id="376" name="Constant@27" type="Convert" version="opset1">
			<data destination_type="f32" />
			<rt_info>
				<attribute name="decompression" version="0" />
			</rt_info>
			<input>
				<port id="0" precision="FP16" />
			</input>
			<output>
				<port id="1" precision="FP32" />
			</output>
		</layer>
		<layer id="377" name="Add@13" type="Add" version="opset1">
			<data auto_broadcast="numpy" />
			<input>
				<port id="0" precision="FP32">
					<dim>-1</dim>
					<dim>88</dim>
					<dim>-1</dim>
					<dim>-1</dim>
				</port>
				<port id="1" precision="FP32" />
			</input>
			<output>
				<port id="2" precision="FP32" names="Add@13">
					<dim>-1</dim>
					<dim>88</dim>
					<dim>-1</dim>
					<dim>-1</dim>
				</port>
			</output>
		</layer>
		<layer id="378" name="Maximum_707" type="Maximum" version="opset1">
			<data auto_broadcast="numpy" />
			<input>
				<port id="0" precision="FP32" />
				<port id="1" precision="FP32">
					<dim>-1</dim>
					<dim>88</dim>
					<dim>-1</dim>
					<dim>-1</dim>
				</port>
			</input>
			<output>
				<port id="2" precision="FP32">
					<dim>-1</dim>
					<dim>88</dim>
					<dim>-1</dim>
					<dim>-1</dim>
				</port>
			</output>
		</layer>
		<layer id="379" name="Clip@5" type="Minimum" version="opset1">
			<data auto_broadcast="numpy" />
			<input>
				<port id="0" precision="FP32" />
				<port id="1" precision="FP32">
					<dim>-1</dim>
					<dim>88</dim>
					<dim>-1</dim>
					<dim>-1</dim>
				</port>
			</input>
			<output>
				<port id="2" precision="FP32" names="Clip@5">
					<dim>-1</dim>
					<dim>88</dim>
					<dim>-1</dim>
					<dim>-1</dim>
				</port>
			</output>
		</layer>
		<layer id="380" name="Mul@8" type="Multiply" version="opset1">
			<data auto_broadcast="numpy" />
			<input>
				<port id="0" precision="FP32">
					<dim>-1</dim>
					<dim>88</dim>
					<dim>-1</dim>
					<dim>-1</dim>
				</port>
				<port id="1" precision="FP32">
					<dim>-1</dim>
					<dim>88</dim>
					<dim>-1</dim>
					<dim>-1</dim>
				</port>
			</input>
			<output>
				<port id="2" precision="FP32" names="Mul@8">
					<dim>-1</dim>
					<dim>88</dim>
					<dim>-1</dim>
					<dim>-1</dim>
				</port>
			</output>
		</layer>
		<layer id="381" name="Constant@26_compressed" type="Const" version="opset1">
			<data element_type="f16" shape="" offset="560" size="2" />
			<output>
				<port id="0" precision="FP16" names="Constant@26" />
			</output>
		</layer>
		<layer id="382" name="Constant@26" type="Convert" version="opset1">
			<data destination_type="f32" />
			<rt_info>
				<attribute name="decompression" version="0" />
			</rt_info>
			<input>
				<port id="0" precision="FP16" />
			</input>
			<output>
				<port id="1" precision="FP32" />
			</output>
		</layer>
		<layer id="383" name="Div@5" type="Divide" version="opset1">
			<data auto_broadcast="numpy" m_pythondiv="true" />
			<input>
				<port id="0" precision="FP32">
					<dim>-1</dim>
					<dim>88</dim>
					<dim>-1</dim>
					<dim>-1</dim>
				</port>
				<port id="1" precision="FP32" />
			</input>
			<output>
				<port id="2" precision="FP32" names="hardswish_5.tmp_0">
					<dim>-1</dim>
					<dim>88</dim>
					<dim>-1</dim>
					<dim>-1</dim>
				</port>
			</output>
		</layer>
		<layer id="384" name="conv7_depthwise_weights_compressed" type="Const" version="opset1">
			<data element_type="f16" shape="88, 1, 5, 5" offset="34920" size="4400" />
			<output>
				<port id="0" precision="FP16" names="conv7_depthwise_weights">
					<dim>88</dim>
					<dim>1</dim>
					<dim>5</dim>
					<dim>5</dim>
				</port>
			</output>
		</layer>
		<layer id="385" name="conv7_depthwise_weights" type="Convert" version="opset1">
			<data destination_type="f32" />
			<rt_info>
				<attribute name="decompression" version="0" />
			</rt_info>
			<input>
				<port id="0" precision="FP16">
					<dim>88</dim>
					<dim>1</dim>
					<dim>5</dim>
					<dim>5</dim>
				</port>
			</input>
			<output>
				<port id="1" precision="FP32">
					<dim>88</dim>
					<dim>1</dim>
					<dim>5</dim>
					<dim>5</dim>
				</port>
			</output>
		</layer>
		<layer id="386" name="Constant_714" type="Const" version="opset1">
			<data element_type="i64" shape="1" offset="19300" size="8" />
			<rt_info>
				<attribute name="precise" version="0" />
			</rt_info>
			<output>
				<port id="0" precision="I64">
					<dim>1</dim>
				</port>
			</output>
		</layer>
		<layer id="387" name="ShapeOf_715" type="ShapeOf" version="opset3">
			<data output_type="i64" />
			<input>
				<port id="0" precision="FP32">
					<dim>88</dim>
					<dim>1</dim>
					<dim>5</dim>
					<dim>5</dim>
				</port>
			</input>
			<output>
				<port id="1" precision="I64">
					<dim>4</dim>
				</port>
			</output>
		</layer>
		<layer id="388" name="Constant_712" type="Const" version="opset1">
			<data element_type="i64" shape="" offset="910" size="8" />
			<rt_info>
				<attribute name="precise" version="0" />
…
		<edge from-layer="314" from-port="2" to-layer="315" to-port="1" />
		<edge from-layer="315" from-port="2" to-layer="318" to-port="0" />
		<edge from-layer="316" from-port="0" to-layer="317" to-port="0" />
		<edge from-layer="317" from-port="1" to-layer="318" to-port="1" />
		<edge from-layer="318" from-port="2" to-layer="320" to-port="0" />
		<edge from-layer="318" from-port="2" to-layer="347" to-port="0" />
		<edge from-layer="318" from-port="2" to-layer="325" to-port="0" />
		<edge from-layer="319" from-port="0" to-layer="324" to-port="0" />
		<edge from-layer="320" from-port="1" to-layer="321" to-port="0" />
		<edge from-layer="321" from-port="1" to-layer="322" to-port="0" />
		<edge from-layer="322" from-port="1" to-layer="324" to-port="1" />
		<edge from-layer="323" from-port="0" to-layer="324" to-port="2" />
		<edge from-layer="324" from-port="3" to-layer="325" to-port="1" />
		<edge from-layer="325" from-port="2" to-layer="328" to-port="0" />
		<edge from-layer="326" from-port="0" to-layer="327" to-port="0" />
		<edge from-layer="327" from-port="1" to-layer="328" to-port="1" />
		<edge from-layer="328" from-port="2" to-layer="333" to-port="0" />
		<edge from-layer="329" from-port="0" to-layer="330" to-port="0" />
		<edge from-layer="330" from-port="1" to-layer="332" to-port="0" />
		<edge from-layer="331" from-port="0" to-layer="332" to-port="1" />
		<edge from-layer="332" from-port="2" to-layer="333" to-port="1" />
		<edge from-layer="333" from-port="2" to-layer="334" to-port="0" />
		<edge from-layer="334" from-port="1" to-layer="337" to-port="0" />
		<edge from-layer="335" from-port="0" to-layer="336" to-port="0" />
		<edge from-layer="336" from-port="1" to-layer="337" to-port="1" />
		<edge from-layer="337" from-port="2" to-layer="342" to-port="0" />
		<edge from-layer="338" from-port="0" to-layer="339" to-port="0" />
		<edge from-layer="339" from-port="1" to-layer="341" to-port="0" />
		<edge from-layer="340" from-port="0" to-layer="341" to-port="1" />
		<edge from-layer="341" from-port="2" to-layer="342" to-port="1" />
		<edge from-layer="342" from-port="2" to-layer="346" to-port="0" />
		<edge from-layer="343" from-port="0" to-layer="346" to-port="1" />
		<edge from-layer="344" from-port="0" to-layer="345" to-port="0" />
		<edge from-layer="345" from-port="1" to-layer="346" to-port="2" />
		<edge from-layer="346" from-port="3" to-layer="347" to-port="1" />
		<edge from-layer="347" from-port="2" to-layer="350" to-port="0" />
		<edge from-layer="348" from-port="0" to-layer="349" to-port="0" />
		<edge from-layer="349" from-port="1" to-layer="350" to-port="1" />
		<edge from-layer="350" from-port="2" to-layer="357" to-port="0" />
		<edge from-layer="351" from-port="0" to-layer="352" to-port="0" />
		<edge from-layer="352" from-port="1" to-layer="357" to-port="1" />
		<edge from-layer="353" from-port="0" to-layer="357" to-port="2" />
		<edge from-layer="354" from-port="0" to-layer="355" to-port="0" />
		<edge from-layer="355" from-port="1" to-layer="357" to-port="3" />
		<edge from-layer="356" from-port="0" to-layer="357" to-port="4" />
		<edge from-layer="357" from-port="5" to-layer="358" to-port="1" />
		<edge from-layer="358" from-port="2" to-layer="455" to-port="0" />
		<edge from-layer="358" from-port="2" to-layer="361" to-port="0" />
		<edge from-layer="359" from-port="0" to-layer="360" to-port="0" />
		<edge from-layer="360" from-port="1" to-layer="361" to-port="1" />
		<edge from-layer="361" from-port="2" to-layer="370" to-port="0" />
		<edge from-layer="362" from-port="0" to-layer="363" to-port="0" />
		<edge from-layer="363" from-port="1" to-layer="370" to-port="1" />
		<edge from-layer="364" from-port="0" to-layer="365" to-port="0" />
		<edge from-layer="365" from-port="1" to-layer="370" to-port="2" />
		<edge from-layer="366" from-port="0" to-layer="367" to-port="0" />
		<edge from-layer="367" from-port="1" to-layer="370" to-port="3" />
		<edge from-layer="368" from-port="0" to-layer="369" to-port="0" />
		<edge from-layer="369" from-port="1" to-layer="370" to-port="4" />
		<edge from-layer="370" from-port="5" to-layer="377" to-port="0" />
		<edge from-layer="370" from-port="5" to-layer="380" to-port="0" />
		<edge from-layer="371" from-port="0" to-layer="372" to-port="0" />
		<edge from-layer="372" from-port="1" to-layer="379" to-port="0" />
		<edge from-layer="373" from-port="0" to-layer="374" to-port="0" />
		<edge from-layer="374" from-port="1" to-layer="378" to-port="0" />
		<edge from-layer="375" from-port="0" to-layer="376" to-port="0" />
		<edge from-layer="376" from-port="1" to-layer="377" to-port="1" />
		<edge from-layer="377" from-port="2" to-layer="378" to-port="1" />
		<edge from-layer="378" from-port="2" to-layer="379" to-port="1" />
		<edge from-layer="379" from-port="2" to-layer="380" to-port="1" />
		<edge from-layer="380" from-port="2" to-layer="383" to-port="0" />
		<edge from-layer="381" from-port="0" to-layer="382" to-port="0" />
		<edge from-layer="382" from-port="1" to-layer="383" to-port="1" />
		<edge from-layer="383" from-port="2" to-layer="394" to-port="0" />
		<edge from-layer="384" from-port="0" to-layer="385" to-port="0" />
		<edge from-layer="385" from-port="1" to-layer="387" to-port="0" />
		<edge from-layer="385" from-port="1" to-layer="393" to-port="0" />
		<edge from-layer="386" from-port="0" to-layer="391" to-port="1" />
		<edge from-layer="386" from-port="0" to-layer="392" to-port="0" />
		<edge from-layer="387" from-port="1" to-layer="390" to-port="0" />
		<edge from-layer="388" from-port="0" to-layer="390" to-port="1" />
		<edge from-layer="389" from-port="0" to-layer="390" to-port="2" />
		<edge from-layer="390" from-port="3" to-layer="391" to-port="0" />
		<edge from-layer="390" from-port="4" to-layer="392" to-port="2" />
		<edge from-layer="391" from-port="2" to-layer="392" to-port="1" />
		<edge from-layer="392" from-port="3" to-layer="393" to-port="1" />
		<edge from-layer="393" from-port="2" to-layer="394" to-port="1" />
		<edge from-layer="394" from-port="2" to-layer="402" to-port="0" />
		<edge from-layer="395" from-port="0" to-layer="396" to-port="0" />
		<edge from-layer="396" from-port="1" to-layer="402" to-port="1" />
		<edge from-layer="397" from-port="0" to-layer="398" to-port="0" />
		<edge from-layer="398" from-port="1" to-layer="402" to-port="2" />
		<edge from-layer="399" from-port="0" to-layer="402" to-port="3" />
		<edge from-layer="400" from-port="0" to-layer="401" to-port="0" />
		<edge from-layer="401" from-port="1" to-layer="402" to-port="4" />
		<edge from-layer="402" from-port="5" to-layer="409" to-port="0" />
		<edge from-layer="402" from-port="5" to-layer="412" to-port="0" />
		<edge from-layer="403" from-port="0" to-layer="404" to-port="0" />
		<edge from-layer="404" from-port="1" to-layer="411" to-port="0" />
		<edge from-layer="405" from-port="0" to-layer="406" to-port="0" />
		<edge from-layer="406" from-port="1" to-layer="410" to-port="0" />
		<edge from-layer="407" from-port="0" to-layer="408" to-port="0" />
		<edge from-layer="408" from-port="1" to-layer="409" to-port="1" />
		<edge from-layer="409" from-port="2" to-layer="410" to-port="1" />
		<edge from-layer="410" from-port="2" to-layer="411" to-port="1" />
		<edge from-layer="411" from-port="2" to-layer="412" to-port="1" />
		<edge from-layer="412" from-port="2" to-layer="415" to-port="0" />
		<edge from-layer="413" from-port="0" to-layer="414" to-port="0" />
		<edge from-layer="414" from-port="1" to-layer="415" to-port="1" />
		<edge from-layer="415" from-port="2" to-layer="444" to-port="0" />
		<edge from-layer="415" from-port="2" to-layer="422" to-port="0" />
		<edge from-layer="415" from-port="2" to-layer="417" to-port="0" />
		<edge from-layer="416" from-port="0" to-layer="421" to-port="0" />
		<edge from-layer="417" from-port="1" to-layer="418" to-port="0" />
		<edge from-layer="418" from-port="1" to-layer="419" to-port="0" />
		<edge from-layer="419" from-port="1" to-layer="421" to-port="1" />
		<edge from-layer="420" from-port="0" to-layer="421" to-port="2" />
		<edge from-layer="421" from-port="3" to-layer="422" to-port="1" />
		<edge from-layer="422" from-port="2" to-layer="425" to-port="0" />
		<edge from-layer="423" from-port="0" to-layer="424" to-port="0" />
		<edge from-layer="424" from-port="1" to-layer="425" to-port="1" />
		<edge from-layer="425" from-port="2" to-layer="430" to-port="0" />
		<edge from-layer="426" from-port="0" to-layer="427" to-port="0" />
		<edge from-layer="427" from-port="1" to-layer="429" to-port="0" />
		<edge from-layer="428" from-port="0" to-layer="429" to-port="1" />
		<edge from-layer="429" from-port="2" to-layer="430" to-port="1" />
		<edge from-layer="430" from-port="2" to-layer="431" to-port="0" />
		<edge from-layer="431" from-port="1" to-layer="434" to-port="0" />
		<edge from-layer="432" from-port="0" to-layer="433" to-port="0" />
		<edge from-layer="433" from-port="1" to-layer="434" to-port="1" />
		<edge from-layer="434" from-port="2" to-layer="439" to-port="0" />
		<edge from-layer="435" from-port="0" to-layer="436" to-port="0" />
		<edge from-layer="436" from-port="1" to-layer="438" to-port="0" />
		<edge from-layer="437" from-port="0" to-layer="438" to-port="1" />
		<edge from-layer="438" from-port="2" to-layer="439" to-port="1" />
		<edge from-layer="439" from-port="2" to-layer="443" to-port="0" />
		<edge from-layer="440" from-port="0" to-layer="443" to-port="1" />
		<edge from-layer="441" from-port="0" to-layer="442" to-port="0" />
		<edge from-layer="442" from-port="1" to-layer="443" to-port="2" />
		<edge from-layer="443" from-port="3" to-layer="444" to-port="1" />
		<edge from-layer="444" from-port="2" to-layer="447" to-port="0" />
		<edge from-layer="445" from-port="0" to-layer="446" to-port="0" />
		<edge from-layer="446" from-port="1" to-layer="447" to-port="1" />
		<edge from-layer="447" from-port="2" to-layer="454" to-port="0" />
		<edge from-layer="448" from-port="0" to-layer="454" to-port="1" />
		<edge from-layer="449" from-port="0" to-layer="454" to-port="2" />
		<edge from-layer="450" from-port="0" to-layer="451" to-port="0" />
		<edge from-layer="451" from-port="1" to-layer="454" to-port="3" />
		<edge from-layer="452" from-port="0" to-layer="453" to-port="0" />
		<edge from-layer="453" from-port="1" to-layer="454" to-port="4" />
		<edge from-layer="454" from-port="5" to-layer="455" to-port="1" />
		<edge from-layer="455" from-port="2" to-layer="458" to-port="0" />
		<edge from-layer="455" from-port="2" to-layer="549" to-port="0" />
		<edge from-layer="456" from-port="0" to-layer="457" to-port="0" />
		<edge from-layer="457" from-port="1" to-layer="458" to-port="1" />
		<edge from-layer="458" from-port="2" to-layer="466" to-port="0" />
		<edge from-layer="459" from-port="0" to-layer="460" to-port="0" />
		<edge from-layer="460" from-port="1" to-layer="466" to-port="1" />
		<edge from-layer="461" from-port="0" to-layer="462" to-port="0" />
		<edge from-layer="462" from-port="1" to-layer="466" to-port="2" />
		<edge from-layer="463" from-port="0" to-layer="466" to-port="3" />
		<edge from-layer="464" from-port="0" to-layer="465" to-port="0" />
		<edge from-layer="465" from-port="1" to-layer="466" to-port="4" />
		<edge from-layer="466" from-port="5" to-layer="476" to-port="0" />
		<edge from-layer="466" from-port="5" to-layer="473" to-port="0" />
		<edge from-layer="467" from-port="0" to-layer="468" to-port="0" />
		<edge from-layer="468" from-port="1" to-layer="475" to-port="0" />
		<edge from-layer="469" from-port="0" to-layer="470" to-port="0" />
		<edge from-layer="470" from-port="1" to-layer="474" to-port="0" />
		<edge from-layer="471" from-port="0" to-layer="472" to-port="0" />
		<edge from-layer="472" from-port="1" to-layer="473" to-port="1" />
		<edge from-layer="473" from-port="2" to-layer="474" to-port="1" />
		<edge from-layer="474" from-port="2" to-layer="475" to-port="1" />
		<edge from-layer="475" from-port="2" to-layer="476" to-port="1" />
		<edge from-layer="476" from-port="2" to-layer="479" to-port="0" />
		<edge from-layer="477" from-port="0" to-layer="478" to-port="0" />
		<edge from-layer="478" from-port="1" to-layer="479" to-port="1" />
		<edge from-layer="479" from-port="2" to-layer="490" to-port="0" />
		<edge from-layer="480" from-port="0" to-layer="481" to-port="0" />
		<edge from-layer="481" from-port="1" to-layer="483" to-port="0" />
		<edge from-layer="481" from-port="1" to-layer="489" to-port="0" />
		<edge from-layer="482" from-port="0" to-layer="487" to-port="1" />
		<edge from-layer="482" from-port="0" to-layer="488" to-port="0" />
		<edge from-layer="483" from-port="1" to-layer="486" to-port="0" />
		<edge from-layer="484" from-port="0" to-layer="486" to-port="1" />
		<edge from-layer="485" from-port="0" to-layer="486" to-port="2" />
		<edge from-layer="486" from-port="4" to-layer="488" to-port="2" />
		<edge from-layer="486" from-port="3" to-layer="487" to-port="0" />
		<edge from-layer="487" from-port="2" to-layer="488" to-port="1" />
		<edge from-layer="488" from-port="3" to-layer="489" to-port="1" />
		<edge from-layer="489" from-port="2" to-layer="490" to-port="1" />
		<edge from-layer="490" from-port="2" to-layer="498" to-port="0" />
		<edge from-layer="491" from-port="0" to-layer="492" to-port="0" />
		<edge from-layer="492" from-port="1" to-layer="498" to-port="1" />
		<edge from-layer="493" from-port="0" to-layer="498" to-port="2" />
		<edge from-layer="494" from-port="0" to-layer="495" to-port="0" />
		<edge from-layer="495" from-port="1" to-layer="498" to-port="3" />
		<edge from-layer="496" from-port="0" to-layer="497" to-port="0" />
		<edge from-layer="497" from-port="1" to-layer="498" to-port="4" />
		<edge from-layer="498" from-port="5" to-layer="505" to-port="0" />
		<edge from-layer="498" from-port="5" to-layer="508" to-port="0" />
		<edge from-layer="499" from-port="0" to-layer="500" to-port="0" />
		<edge from-layer="500" from-port="1" to-layer="507" to-port="0" />
		<edge from-layer="501" from-port="0" to-layer="502" to-port="0" />
		<edge from-layer="502" from-port="1" to-layer="506" to-port="0" />
		<edge from-layer="503" from-port="0" to-layer="504" to-port="0" />
		<edge from-layer="504" from-port="1" to-layer="505" to-port="1" />
		<edge from-layer="505" from-port="2" to-layer="506" to-port="1" />
		<edge from-layer="506" from-port="2" to-layer="507" to-port="1" />
		<edge from-layer="507" from-port="2" to-layer="508" to-port="1" />
		<edge from-layer="508" from-port="2" to-layer="511" to-port="0" />
		<edge from-layer="509" from-port="0" to-layer="510" to-port="0" />
		<edge from-layer="510" from-port="1" to-layer="511" to-port="1" />
		<edge from-layer="511" from-port="2" to-layer="539" to-port="0" />
		<edge from-layer="511" from-port="2" to-layer="518" to-port="0" />
		<edge from-layer="511" from-port="2" to-layer="513" to-port="0" />
		<edge from-layer="512" from-port="0" to-layer="517" to-port="0" />
		<edge from-layer="513" from-port="1" to-layer="514" to-port="0" />
		<edge from-layer="514" from-port="1" to-layer="515" to-port="0" />
		<edge from-layer="515" from-port="1" to-layer="517" to-port="1" />
		<edge from-layer="516" from-port="0" to-layer="517" to-port="2" />
		<edge from-layer="517" from-port="3" to-layer="518" to-port="1" />
		<edge from-layer="518" from-port="2" to-layer="521" to-port="0" />
		<edge from-layer="519" from-port="0" to-layer="520" to-port="0" />
		<edge from-layer="520" from-port="1" to-layer="521" to-port="1" />
		<edge from-layer="521" from-port="2" to-layer="526" to-port="0" />
		<edge from-layer="522" from-port="0" to-layer="523" to-port="0" />
		<edge from-layer="523" from-port="1" to-layer="525" to-port="0" />
		<edge from-layer="524" from-port="0" to-layer="525" to-port="1" />
		<edge from-layer="525" from-port="2" to-layer="526" to-port="1" />
		<edge from-layer="526" from-port="2" to-layer="527" to-port="0" />
		<edge from-layer="527" from-port="1" to-layer="530" to-port="0" />
		<edge from-layer="528" from-port="0" to-layer="529" to-port="0" />
		<edge from-layer="529" from-port="1" to-layer="530" to-port="1" />
		<edge from-layer="530" from-port="2" to-layer="534" to-port="0" />
		<edge from-layer="531" from-port="0" to-layer="533" to-port="0" />
		<edge from-layer="532" from-port="0" to-layer="533" to-port="1" />
		<edge from-layer="533" from-port="2" to-layer="534" to-port="1" />
		<edge from-layer="534" from-port="2" to-layer="538" to-port="0" />
		<edge from-layer="535" from-port="0" to-layer="538" to-port="1" />
		<edge from-layer="536" from-port="0" to-layer="537" to-port="0" />
		<edge from-layer="537" from-port="1" to-layer="538" to-port="2" />
		<edge from-layer="538" from-port="3" to-layer="539" to-port="1" />
		<edge from-layer="539" from-port="2" to-layer="542" to-port="0" />
		<edge from-layer="540" from-port="0" to-layer="541" to-port="0" />
		<edge from-layer="541" from-port="1" to-layer="542" to-port="1" />
		<edge from-layer="542" from-port="2" to-layer="548" to-port="0" />
		<edge from-layer="543" from-port="0" to-layer="548" to-port="1" />
		<edge from-layer="544" from-port="0" to-layer="545" to-port="0" />
		<edge from-layer="545" from-port="1" to-layer="548" to-port="2" />
		<edge from-layer="546" from-port="0" to-layer="548" to-port="3" />
		<edge from-layer="547" from-port="0" to-layer="548" to-port="4" />
		<edge from-layer="548" from-port="5" to-layer="549" to-port="1" />
		<edge from-layer="549" from-port="2" to-layer="552" to-port="0" />
		<edge from-layer="549" from-port="2" to-layer="643" to-port="0" />
		<edge from-layer="550" from-port="0" to-layer="551" to-port="0" />
		<edge from-layer="551" from-port="1" to-layer="552" to-port="1" />
		<edge from-layer="552" from-port="2" to-layer="561" to-port="0" />
		<edge from-layer="553" from-port="0" to-layer="554" to-port="0" />
		<edge from-layer="554" from-port="1" to-layer="561" to-port="1" />
		<edge from-layer="555" from-port="0" to-layer="556" to-port="0" />
		<edge from-layer="556" from-port="1" to-layer="561" to-port="2" />
		<edge from-layer="557" from-port="0" to-layer="558" to-port="0" />
		<edge from-layer="558" from-port="1" to-layer="561" to-port="3" />
		<edge from-layer="559" from-port="0" to-layer="560" to-port="0" />
		<edge from-layer="560" from-port="1" to-layer="561" to-port="4" />
		<edge from-layer="561" from-port="5" to-layer="568" to-port="0" />
		<edge from-layer="561" from-port="5" to-layer="571" to-port="0" />
		<edge from-layer="562" from-port="0" to-layer="563" to-port="0" />
		<edge from-layer="563" from-port="1" to-layer="570" to-port="0" />
		<edge from-layer="564" from-port="0" to-layer="565" to-port="0" />
		<edge from-layer="565" from-port="1" to-layer="569" to-port="0" />
		<edge from-layer="566" from-port="0" to-layer="567" to-port="0" />
		<edge from-layer="567" from-port="1" to-layer="568" to-port="1" />
		<edge from-layer="568" from-port="2" to-layer="569" to-port="1" />
		<edge from-layer="569" from-port="2" to-layer="570" to-port="1" />
		<edge from-layer="570" from-port="2" to-layer="571" to-port="1" />
		<edge from-layer="571" from-port="2" to-layer="574" to-port="0" />
		<edge from-layer="572" from-port="0" to-layer="573" to-port="0" />
		<edge from-layer="573" from-port="1" to-layer="574" to-port="1" />
		<edge from-layer="574" from-port="2" to-layer="585" to-port="0" />
		<edge from-layer="575" from-port="0" to-layer="576" to-port="0" />
		<edge from-layer="576" from-port="1" to-layer="578" to-port="0" />
		<edge from-layer="576" from-port="1" to-layer="584" to-port="0" />
		<edge from-layer="577" from-port="0" to-layer="582" to-port="1" />
		<edge from-layer="577" from-port="0" to-layer="583" to-port="0" />
		<edge from-layer="578" from-port="1" to-layer="581" to-port="0" />
		<edge from-layer="579" from-port="0" to-layer="581" to-port="1" />
		<edge from-layer="580" from-port="0" to-layer="581" to-port="2" />
		<edge from-layer="581" from-port="3" to-layer="582" to-port="0" />
		<edge from-layer="581" from-port="4" to-layer="583" to-port="2" />
		<edge from-layer="582" from-port="2" to-layer="583" to-port="1" />
		<edge from-layer="583" from-port="3" to-layer="584" to-port="1" />
		<edge from-layer="584" from-port="2" to-layer="585" to-port="1" />
		<edge from-layer="585" from-port="2" to-layer="592" to-port="0" />
		<edge from-layer="586" from-port="0" to-layer="592" to-port="1" />
		<edge from-layer="587" from-port="0" to-layer="588" to-port="0" />
		<edge from-layer="588" from-port="1" to-layer="592" to-port="2" />
		<edge from-layer="589" from-port="0" to-layer="592" to-port="3" />
		<edge from-layer="590" from-port="0" to-layer="591" to-port="0" />
		<edge from-layer="591" from-port="1" to-layer="592" to-port="4" />
		<edge from-layer="592" from-port="5" to-layer="599" to-port="0" />
		<edge from-layer="592" from-port="5" to-layer="602" to-port="0" />
		<edge from-layer="593" from-port="0" to-layer="594" to-port="0" />
		<edge from-layer="594" from-port="1" to-layer="601" to-port="0" />
		<edge from-layer="595" from-port="0" to-layer="596" to-port="0" />
		<edge from-layer="596" from-port="1" to-layer="600" to-port="0" />
		<edge from-layer="597" from-port="0" to-layer="598" to-port="0" />
		<edge from-layer="598" from-port="1" to-layer="599" to-port="1" />
		<edge from-layer="599" from-port="2" to-layer="600" to-port="1" />
		<edge from-layer="600" from-port="2" to-layer="601" to-port="1" />
		<edge from-layer="601" from-port="2" to-layer="602" to-port="1" />
		<edge from-layer="602" from-port="2" to-layer="605" to-port="0" />
		<edge from-layer="603" from-port="0" to-layer="604" to-port="0" />
		<edge from-layer="604" from-port="1" to-layer="605" to-port="1" />
		<edge from-layer="605" from-port="2" to-layer="633" to-port="0" />
		<edge from-layer="605" from-port="2" to-layer="612" to-port="0" />
		<edge from-layer="605" from-port="2" to-layer="607" to-port="0" />
		<edge from-layer="606" from-port="0" to-layer="611" to-port="0" />
		<edge from-layer="607" from-port="1" to-layer="608" to-port="0" />
		<edge from-layer="608" from-port="1" to-layer="609" to-port="0" />
		<edge from-layer="609" from-port="1" to-layer="611" to-port="1" />
		<edge from-layer="610" from-port="0" to-layer="611" to-port="2" />
		<edge from-layer="611" from-port="3" to-layer="612" to-port="1" />
		<edge from-layer="612" from-port="2" to-layer="615" to-port="0" />
		<edge from-layer="613" from-port="0" to-layer="614" to-port="0" />
		<edge from-layer="614" from-port="1" to-layer="615" to-port="1" />
		<edge from-layer="615" from-port="2" to-layer="619" to-port="0" />
		<edge from-layer="616" from-port="0" to-layer="618" to-port="0" />
		<edge from-layer="617" from-port="0" to-layer="618" to-port="1" />
		<edge from-layer="618" from-port="2" to-layer="619" to-port="1" />
		<edge from-layer="619" from-port="2" to-layer="620" to-port="0" />
		<edge from-layer="620" from-port="1" to-layer="623" to-port="0" />
		<edge from-layer="621" from-port="0" to-layer="622" to-port="0" />
		<edge from-layer="622" from-port="1" to-layer="623" to-port="1" />
		<edge from-layer="623" from-port="2" to-layer="628" to-port="0" />
		<edge from-layer="624" from-port="0" to-layer="625" to-port="0" />
		<edge from-layer="625" from-port="1" to-layer="627" to-port="0" />
		<edge from-layer="626" from-port="0" to-layer="627" to-port="1" />
		<edge from-layer="627" from-port="2" to-layer="628" to-port="1" />
		<edge from-layer="628" from-port="2" to-layer="632" to-port="0" />
		<edge from-layer="629" from-port="0" to-layer="632" to-port="1" />
		<edge from-layer="630" from-port="0" to-layer="631" to-port="0" />
		<edge from-layer="631" from-port="1" to-layer="632" to-port="2" />
		<edge from-layer="632" from-port="3" to-layer="633" to-port="1" />
		<edge from-layer="633" from-port="2" to-layer="636" to-port="0" />
		<edge from-layer="634" from-port="0" to-layer="635" to-port="0" />
		<edge from-layer="635" from-port="1" to-layer="636" to-port="1" />
		<edge from-layer="636" from-port="2" to-layer="642" to-port="0" />
		<edge from-layer="637" from-port="0" to-layer="642" to-port="1" />
		<edge from-layer="638" from-port="0" to-layer="642" to-port="2" />
		<edge from-layer="639" from-port="0" to-layer="642" to-port="3" />
		<edge from-layer="640" from-port="0" to-layer="641" to-port="0" />
		<edge from-layer="641" from-port="1" to-layer="642" to-port="4" />
		<edge from-layer="642" from-port="5" to-layer="643" to-port="1" />
		<edge from-layer="643" from-port="2" to-layer="646" to-port="0" />
		<edge from-layer="644" from-port="0" to-layer="645" to-port="0" />
		<edge from-layer="645" from-port="1" to-layer="646" to-port="1" />
		<edge from-layer="646" from-port="2" to-layer="654" to-port="0" />
		<edge from-layer="647" from-port="0" to-layer="654" to-port="1" />
		<edge from-layer="648" from-port="0" to-layer="649" to-port="0" />
		<edge from-layer="649" from-port="1" to-layer="654" to-port="2" />
		<edge from-layer="650" from-port="0" to-layer="651" to-port="0" />
		<edge from-layer="651" from-port="1" to-layer="654" to-port="3" />
		<edge from-layer="652" from-port="0" to-layer="653" to-port="0" />
		<edge from-layer="653" from-port="1" to-layer="654" to-port="4" />
		<edge from-layer="654" from-port="5" to-layer="664" to-port="0" />
		<edge from-layer="654" from-port="5" to-layer="661" to-port="0" />
		<edge from-layer="655" from-port="0" to-layer="656" to-port="0" />
		<edge from-layer="656" from-port="1" to-layer="663" to-port="0" />
		<edge from-layer="657" from-port="0" to-layer="658" to-port="0" />
		<edge from-layer="658" from-port="1" to-layer="662" to-port="0" />
		<edge from-layer="659" from-port="0" to-layer="660" to-port="0" />
		<edge from-layer="660" from-port="1" to-layer="661" to-port="1" />
		<edge from-layer="661" from-port="2" to-layer="662" to-port="1" />
		<edge from-layer="662" from-port="2" to-layer="663" to-port="1" />
		<edge from-layer="663" from-port="2" to-layer="664" to-port="1" />
		<edge from-layer="664" from-port="2" to-layer="667" to-port="0" />
		<edge from-layer="665" from-port="0" to-layer="666" to-port="0" />
		<edge from-layer="666" from-port="1" to-layer="667" to-port="1" />
		<edge from-layer="667" from-port="2" to-layer="678" to-port="0" />
		<edge from-layer="668" from-port="0" to-layer="669" to-port="0" />
		<edge from-layer="669" from-port="1" to-layer="671" to-port="0" />
		<edge from-layer="669" from-port="1" to-layer="677" to-port="0" />
		<edge from-layer="670" from-port="0" to-layer="676" to-port="0" />
		<edge from-layer="670" from-port="0" to-layer="675" to-port="1" />
		<edge from-layer="671" from-port="1" to-layer="674" to-port="0" />
		<edge from-layer="672" from-port="0" to-layer="674" to-port="1" />
		<edge from-layer="673" from-port="0" to-layer="674" to-port="2" />
		<edge from-layer="674" from-port="3" to-layer="675" to-port="0" />
		<edge from-layer="674" from-port="4" to-layer="676" to-port="2" />
		<edge from-layer="675" from-port="2" to-layer="676" to-port="1" />
		<edge from-layer="676" from-port="3" to-layer="677" to-port="1" />
		<edge from-layer="677" from-port="2" to-layer="678" to-port="1" />
		<edge from-layer="678" from-port="2" to-layer="686" to-port="0" />
		<edge from-layer="679" from-port="0" to-layer="686" to-port="1" />
		<edge from-layer="680" from-port="0" to-layer="681" to-port="0" />
		<edge from-layer="681" from-port="1" to-layer="686" to-port="2" />
		<edge from-layer="682" from-port="0" to-layer="683" to-port="0" />
		<edge from-layer="683" from-port="1" to-layer="686" to-port="3" />
		<edge from-layer="684" from-port="0" to-layer="685" to-port="0" />
		<edge from-layer="685" from-port="1" to-layer="686" to-port="4" />
		<edge from-layer="686" from-port="5" to-layer="693" to-port="0" />
		<edge from-layer="686" from-port="5" to-layer="696" to-port="0" />
		<edge from-layer="687" from-port="0" to-layer="688" to-port="0" />
		<edge from-layer="688" from-port="1" to-layer="695" to-port="0" />
		<edge from-layer="689" from-port="0" to-layer="690" to-port="0" />
		<edge from-layer="690" from-port="1" to-layer="694" to-port="0" />
		<edge from-layer="691" from-port="0" to-layer="692" to-port="0" />
		<edge from-layer="692" from-port="1" to-layer="693" to-port="1" />
		<edge from-layer="693" from-port="2" to-layer="694" to-port="1" />
		<edge from-layer="694" from-port="2" to-layer="695" to-port="1" />
		<edge from-layer="695" from-port="2" to-layer="696" to-port="1" />
		<edge from-layer="696" from-port="2" to-layer="699" to-port="0" />
		<edge from-layer="697" from-port="0" to-layer="698" to-port="0" />
		<edge from-layer="698" from-port="1" to-layer="699" to-port="1" />
		<edge from-layer="699" from-port="2" to-layer="701" to-port="0" />
		<edge from-layer="699" from-port="2" to-layer="706" to-port="0" />
		<edge from-layer="699" from-port="2" to-layer="728" to-port="0" />
		<edge from-layer="700" from-port="0" to-layer="705" to-port="0" />
		<edge from-layer="701" from-port="1" to-layer="702" to-port="0" />
		<edge from-layer="702" from-port="1" to-layer="703" to-port="0" />
		<edge from-layer="703" from-port="1" to-layer="705" to-port="1" />
		<edge from-layer="704" from-port="0" to-layer="705" to-port="2" />
		<edge from-layer="705" from-port="3" to-layer="706" to-port="1" />
		<edge from-layer="706" from-port="2" to-layer="709" to-port="0" />
		<edge from-layer="707" from-port="0" to-layer="708" to-port="0" />
		<edge from-layer="708" from-port="1" to-layer="709" to-port="1" />
		<edge from-layer="709" from-port="2" to-layer="714" to-port="0" />
		<edge from-layer="710" from-port="0" to-layer="711" to-port="0" />
		<edge from-layer="711" from-port="1" to-layer="713" to-port="0" />
		<edge from-layer="712" from-port="0" to-layer="713" to-port="1" />
		<edge from-layer="713" from-port="2" to-layer="714" to-port="1" />
		<edge from-layer="714" from-port="2" to-layer="715" to-port="0" />
		<edge from-layer="715" from-port="1" to-layer="718" to-port="0" />
		<edge from-layer="716" from-port="0" to-layer="717" to-port="0" />
		<edge from-layer="717" from-port="1" to-layer="718" to-port="1" />
		<edge from-layer="718" from-port="2" to-layer="723" to-port="0" />
		<edge from-layer="719" from-port="0" to-layer="720" to-port="0" />
		<edge from-layer="720" from-port="1" to-layer="722" to-port="0" />
		<edge from-layer="721" from-port="0" to-layer="722" to-port="1" />
		<edge from-layer="722" from-port="2" to-layer="723" to-port="1" />
		<edge from-layer="723" from-port="2" to-layer="727" to-port="0" />
		<edge from-layer="724" from-port="0" to-layer="727" to-port="1" />
		<edge from-layer="725" from-port="0" to-layer="726" to-port="0" />
		<edge from-layer="726" from-port="1" to-layer="727" to-port="2" />
		<edge from-layer="727" from-port="3" to-layer="728" to-port="1" />
		<edge from-layer="728" from-port="2" to-layer="731" to-port="0" />
		<edge from-layer="729" from-port="0" to-layer="730" to-port="0" />
		<edge from-layer="730" from-port="1" to-layer="731" to-port="1" />
		<edge from-layer="731" from-port="2" to-layer="740" to-port="0" />
		<edge from-layer="732" from-port="0" to-layer="733" to-port="0" />
		<edge from-layer="733" from-port="1" to-layer="740" to-port="1" />
		<edge from-layer="734" from-port="0" to-layer="735" to-port="0" />
		<edge from-layer="735" from-port="1" to-layer="740" to-port="2" />
		<edge from-layer="736" from-port="0" to-layer="737" to-port="0" />
		<edge from-layer="737" from-port="1" to-layer="740" to-port="3" />
		<edge from-layer="738" from-port="0" to-layer="739" to-port="0" />
		<edge from-layer="739" from-port="1" to-layer="740" to-port="4" />
		<edge from-layer="740" from-port="5" to-layer="743" to-port="0" />
		<edge from-layer="740" from-port="5" to-layer="837" to-port="0" />
		<edge from-layer="741" from-port="0" to-layer="742" to-port="0" />
		<edge from-layer="742" from-port="1" to-layer="743" to-port="1" />
		<edge from-layer="743" from-port="2" to-layer="751" to-port="0" />
		<edge from-layer="744" from-port="0" to-layer="745" to-port="0" />
		<edge from-layer="745" from-port="1" to-layer="751" to-port="1" />
		<edge from-layer="746" from-port="0" to-layer="747" to-port="0" />
		<edge from-layer="747" from-port="1" to-layer="751" to-port="2" />
		<edge from-layer="748" from-port="0" to-layer="751" to-port="3" />
		<edge from-layer="749" from-port="0" to-layer="750" to-port="0" />
		<edge from-layer="750" from-port="1" to-layer="751" to-port="4" />
		<edge from-layer="751" from-port="5" to-layer="758" to-port="0" />
		<edge from-layer="751" from-port="5" to-layer="761" to-port="0" />
		<edge from-layer="752" from-port="0" to-layer="753" to-port="0" />
		<edge from-layer="753" from-port="1" to-layer="760" to-port="0" />
		<edge from-layer="754" from-port="0" to-layer="755" to-port="0" />
		<edge from-layer="755" from-port="1" to-layer="759" to-port="0" />
		<edge from-layer="756" from-port="0" to-layer="757" to-port="0" />
		<edge from-layer="757" from-port="1" to-layer="758" to-port="1" />
		<edge from-layer="758" from-port="2" to-layer="759" to-port="1" />
		<edge from-layer="759" from-port="2" to-layer="760" to-port="1" />
		<edge from-layer="760" from-port="2" to-layer="761" to-port="1" />
		<edge from-layer="761" from-port="2" to-layer="764" to-port="0" />
		<edge from-layer="762" from-port="0" to-layer="763" to-port="0" />
		<edge from-layer="763" from-port="1" to-layer="764" to-port="1" />
		<edge from-layer="764" from-port="2" to-layer="775" to-port="0" />
		<edge from-layer="765" from-port="0" to-layer="766" to-port="0" />
		<edge from-layer="766" from-port="1" to-layer="768" to-port="0" />
		<edge from-layer="766" from-port="1" to-layer="774" to-port="0" />
		<edge from-layer="767" from-port="0" to-layer="772" to-port="1" />
		<edge from-layer="767" from-port="0" to-layer="773" to-port="0" />
		<edge from-layer="768" from-port="1" to-layer="771" to-port="0" />
		<edge from-layer="769" from-port="0" to-layer="771" to-port="1" />
		<edge from-layer="770" from-port="0" to-layer="771" to-port="2" />
		<edge from-layer="771" from-port="3" to-layer="772" to-port="0" />
		<edge from-layer="771" from-port="4" to-layer="773" to-port="2" />
		<edge from-layer="772" from-port="2" to-layer="773" to-port="1" />
		<edge from-layer="773" from-port="3" to-layer="774" to-port="1" />
		<edge from-layer="774" from-port="2" to-layer="775" to-port="1" />
		<edge from-layer="775" from-port="2" to-layer="783" to-port="0" />
		<edge from-layer="776" from-port="0" to-layer="783" to-port="1" />
		<edge from-layer="777" from-port="0" to-layer="778" to-port="0" />
		<edge from-layer="778" from-port="1" to-layer="783" to-port="2" />
		<edge from-layer="779" from-port="0" to-layer="780" to-port="0" />
		<edge from-layer="780" from-port="1" to-layer="783" to-port="3" />
		<edge from-layer="781" from-port="0" to-layer="782" to-port="0" />
		<edge from-layer="782" from-port="1" to-layer="783" to-port="4" />
		<edge from-layer="783" from-port="5" to-layer="790" to-port="0" />
		<edge from-layer="783" from-port="5" to-layer="793" to-port="0" />
		<edge from-layer="784" from-port="0" to-layer="785" to-port="0" />
		<edge from-layer="785" from-port="1" to-layer="792" to-port="0" />
		<edge from-layer="786" from-port="0" to-layer="787" to-port="0" />
		<edge from-layer="787" from-port="1" to-layer="791" to-port="0" />
		<edge from-layer="788" from-port="0" to-layer="789" to-port="0" />
		<edge from-layer="789" from-port="1" to-layer="790" to-port="1" />
		<edge from-layer="790" from-port="2" to-layer="791" to-port="1" />
		<edge from-layer="791" from-port="2" to-layer="792" to-port="1" />
		<edge from-layer="792" from-port="2" to-layer="793" to-port="1" />
		<edge from-layer="793" from-port="2" to-layer="796" to-port="0" />
		<edge from-layer="794" from-port="0" to-layer="795" to-port="0" />
		<edge from-layer="795" from-port="1" to-layer="796" to-port="1" />
		<edge from-layer="796" from-port="2" to-layer="798" to-port="0" />
		<edge from-layer="796" from-port="2" to-layer="803" to-port="0" />
		<edge from-layer="796" from-port="2" to-layer="825" to-port="0" />
		<edge from-layer="797" from-port="0" to-layer="802" to-port="0" />
		<edge from-layer="798" from-port="1" to-layer="799" to-port="0" />
		<edge from-layer="799" from-port="1" to-layer="800" to-port="0" />
		<edge from-layer="800" from-port="1" to-layer="802" to-port="1" />
		<edge from-layer="801" from-port="0" to-layer="802" to-port="2" />
		<edge from-layer="802" from-port="3" to-layer="803" to-port="1" />
		<edge from-layer="803" from-port="2" to-layer="806" to-port="0" />
		<edge from-layer="804" from-port="0" to-layer="805" to-port="0" />
		<edge from-layer="805" from-port="1" to-layer="806" to-port="1" />
		<edge from-layer="806" from-port="2" to-layer="811" to-port="0" />
		<edge from-layer="807" from-port="0" to-layer="808" to-port="0" />
		<edge from-layer="808" from-port="1" to-layer="810" to-port="0" />
		<edge from-layer="809" from-port="0" to-layer="810" to-port="1" />
		<edge from-layer="810" from-port="2" to-layer="811" to-port="1" />
		<edge from-layer="811" from-port="2" to-layer="812" to-port="0" />
		<edge from-layer="812" from-port="1" to-layer="815" to-port="0" />
		<edge from-layer="813" from-port="0" to-layer="814" to-port="0" />
		<edge from-layer="814" from-port="1" to-layer="815" to-port="1" />
		<edge from-layer="815" from-port="2" to-layer="820" to-port="0" />
		<edge from-layer="816" from-port="0" to-layer="817" to-port="0" />
		<edge from-layer="817" from-port="1" to-layer="819" to-port="0" />
		<edge from-layer="818" from-port="0" to-layer="819" to-port="1" />
		<edge from-layer="819" from-port="2" to-layer="820" to-port="1" />
		<edge from-layer="820" from-port="2" to-layer="824" to-port="0" />
		<edge from-layer="821" from-port="0" to-layer="824" to-port="1" />
		<edge from-layer="822" from-port="0" to-layer="823" to-port="0" />
		<edge from-layer="823" from-port="1" to-layer="824" to-port="2" />
		<edge from-layer="824" from-port="3" to-layer="825" to-port="1" />
		<edge from-layer="825" from-port="2" to-layer="828" to-port="0" />
		<edge from-layer="826" from-port="0" to-layer="827" to-port="0" />
		<edge from-layer="827" from-port="1" to-layer="828" to-port="1" />
		<edge from-layer="828" from-port="2" to-layer="836" to-port="0" />
		<edge from-layer="829" from-port="0" to-layer="830" to-port="0" />
		<edge from-layer="830" from-port="1" to-layer="836" to-port="1" />
		<edge from-layer="831" from-port="0" to-layer="832" to-port="0" />
		<edge from-layer="832" from-port="1" to-layer="836" to-port="2" />
		<edge from-layer="833" from-port="0" to-layer="836" to-port="3" />
		<edge from-layer="834" from-port="0" to-layer="835" to-port="0" />
		<edge from-layer="835" from-port="1" to-layer="836" to-port="4" />
		<edge from-layer="836" from-port="5" to-layer="837" to-port="1" />
		<edge from-layer="837" from-port="2" to-layer="933" to-port="0" />
		<edge from-layer="837" from-port="2" to-layer="840" to-port="0" />
		<edge from-layer="838" from-port="0" to-layer="839" to-port="0" />
		<edge from-layer="839" from-port="1" to-layer="840" to-port="1" />
		<edge from-layer="840" from-port="2" to-layer="848" to-port="0" />
		<edge from-layer="841" from-port="0" to-layer="842" to-port="0" />
		<edge from-layer="842" from-port="1" to-layer="848" to-port="1" />
		<edge from-layer="843" from-port="0" to-layer="848" to-port="2" />
		<edge from-layer="844" from-port="0" to-layer="845" to-port="0" />
		<edge from-layer="845" from-port="1" to-layer="848" to-port="3" />
		<edge from-layer="846" from-port="0" to-layer="847" to-port="0" />
		<edge from-layer="847" from-port="1" to-layer="848" to-port="4" />
		<edge from-layer="848" from-port="5" to-layer="858" to-port="0" />
		<edge from-layer="848" from-port="5" to-layer="855" to-port="0" />
		<edge from-layer="849" from-port="0" to-layer="850" to-port="0" />
		<edge from-layer="850" from-port="1" to-layer="857" to-port="0" />
		<edge from-layer="851" from-port="0" to-layer="852" to-port="0" />
		<edge from-layer="852" from-port="1" to-layer="856" to-port="0" />
		<edge from-layer="853" from-port="0" to-layer="854" to-port="0" />
		<edge from-layer="854" from-port="1" to-layer="855" to-port="1" />
		<edge from-layer="855" from-port="2" to-layer="856" to-port="1" />
		<edge from-layer="856" from-port="2" to-layer="857" to-port="1" />
		<edge from-layer="857" from-port="2" to-layer="858" to-port="1" />
		<edge from-layer="858" from-port="2" to-layer="861" to-port="0" />
		<edge from-layer="859" from-port="0" to-layer="860" to-port="0" />
		<edge from-layer="860" from-port="1" to-layer="861" to-port="1" />
		<edge from-layer="861" from-port="2" to-layer="872" to-port="0" />
		<edge from-layer="862" from-port="0" to-layer="863" to-port="0" />
		<edge from-layer="863" from-port="1" to-layer="865" to-port="0" />
		<edge from-layer="863" from-port="1" to-layer="871" to-port="0" />
		<edge from-layer="864" from-port="0" to-layer="869" to-port="1" />
		<edge from-layer="864" from-port="0" to-layer="870" to-port="0" />
		<edge from-layer="865" from-port="1" to-layer="868" to-port="0" />
		<edge from-layer="866" from-port="0" to-layer="868" to-port="1" />
		<edge from-layer="867" from-port="0" to-layer="868" to-port="2" />
		<edge from-layer="868" from-port="4" to-layer="870" to-port="2" />
		<edge from-layer="868" from-port="3" to-layer="869" to-port="0" />
		<edge from-layer="869" from-port="2" to-layer="870" to-port="1" />
		<edge from-layer="870" from-port="3" to-layer="871" to-port="1" />
		<edge from-layer="871" from-port="2" to-layer="872" to-port="1" />
		<edge from-layer="872" from-port="2" to-layer="880" to-port="0" />
		<edge from-layer="873" from-port="0" to-layer="880" to-port="1" />
		<edge from-layer="874" from-port="0" to-layer="875" to-port="0" />
		<edge from-layer="875" from-port="1" to-layer="880" to-port="2" />
		<edge from-layer="876" from-port="0" to-layer="877" to-port="0" />
		<edge from-layer="877" from-port="1" to-layer="880" to-port="3" />
		<edge from-layer="878" from-port="0" to-layer="879" to-port="0" />
		<edge from-layer="879" from-port="1" to-layer="880" to-port="4" />
		<edge from-layer="880" from-port="5" to-layer="887" to-port="0" />
		<edge from-layer="880" from-port="5" to-layer="890" to-port="0" />
		<edge from-layer="881" from-port="0" to-layer="882" to-port="0" />
		<edge from-layer="882" from-port="1" to-layer="889" to-port="0" />
		<edge from-layer="883" from-port="0" to-layer="884" to-port="0" />
		<edge from-layer="884" from-port="1" to-layer="888" to-port="0" />
		<edge from-layer="885" from-port="0" to-layer="886" to-port="0" />
		<edge from-layer="886" from-port="1" to-layer="887" to-port="1" />
		<edge from-layer="887" from-port="2" to-layer="888" to-port="1" />
		<edge from-layer="888" from-port="2" to-layer="889" to-port="1" />
		<edge from-layer="889" from-port="2" to-layer="890" to-port="1" />
		<edge from-layer="890" from-port="2" to-layer="893" to-port="0" />
		<edge from-layer="891" from-port="0" to-layer="892" to-port="0" />
		<edge from-layer="892" from-port="1" to-layer="893" to-port="1" />
		<edge from-layer="893" from-port="2" to-layer="895" to-port="0" />
		<edge from-layer="893" from-port="2" to-layer="900" to-port="0" />
		<edge from-layer="893" from-port="2" to-layer="922" to-port="0" />
		<edge from-layer="894" from-port="0" to-layer="899" to-port="0" />
		<edge from-layer="895" from-port="1" to-layer="896" to-port="0" />
		<edge from-layer="896" from-port="1" to-layer="897" to-port="0" />
		<edge from-layer="897" from-port="1" to-layer="899" to-port="1" />
		<edge from-layer="898" from-port="0" to-layer="899" to-port="2" />
		<edge from-layer="899" from-port="3" to-layer="900" to-port="1" />
		<edge from-layer="900" from-port="2" to-layer="903" to-port="0" />
		<edge from-layer="901" from-port="0" to-layer="902" to-port="0" />
		<edge from-layer="902" from-port="1" to-layer="903" to-port="1" />
		<edge from-layer="903" from-port="2" to-layer="908" to-port="0" />
		<edge from-layer="904" from-port="0" to-layer="905" to-port="0" />
		<edge from-layer="905" from-port="1" to-layer="907" to-port="0" />
		<edge from-layer="906" from-port="0" to-layer="907" to-port="1" />
		<edge from-layer="907" from-port="2" to-layer="908" to-port="1" />
		<edge from-layer="908" from-port="2" to-layer="909" to-port="0" />
		<edge from-layer="909" from-port="1" to-layer="912" to-port="0" />
		<edge from-layer="910" from-port="0" to-layer="911" to-port="0" />
		<edge from-layer="911" from-port="1" to-layer="912" to-port="1" />
		<edge from-layer="912" from-port="2" to-layer="917" to-port="0" />
		<edge from-layer="913" from-port="0" to-layer="914" to-port="0" />
		<edge from-layer="914" from-port="1" to-layer="916" to-port="0" />
		<edge from-layer="915" from-port="0" to-layer="916" to-port="1" />
		<edge from-layer="916" from-port="2" to-layer="917" to-port="1" />
		<edge from-layer="917" from-port="2" to-layer="921" to-port="0" />
		<edge from-layer="918" from-port="0" to-layer="921" to-port="1" />
		<edge from-layer="919" from-port="0" to-layer="920" to-port="0" />
		<edge from-layer="920" from-port="1" to-layer="921" to-port="2" />
		<edge from-layer="921" from-port="3" to-layer="922" to-port="1" />
		<edge from-layer="922" from-port="2" to-layer="925" to-port="0" />
		<edge from-layer="923" from-port="0" to-layer="924" to-port="0" />
		<edge from-layer="924" from-port="1" to-layer="925" to-port="1" />
		<edge from-layer="925" from-port="2" to-layer="932" to-port="0" />
		<edge from-layer="926" from-port="0" to-layer="927" to-port="0" />
		<edge from-layer="927" from-port="1" to-layer="932" to-port="1" />
		<edge from-layer="928" from-port="0" to-layer="929" to-port="0" />
		<edge from-layer="929" from-port="1" to-layer="932" to-port="2" />
		<edge from-layer="930" from-port="0" to-layer="932" to-port="3" />
		<edge from-layer="931" from-port="0" to-layer="932" to-port="4" />
		<edge from-layer="932" from-port="5" to-layer="933" to-port="1" />
		<edge from-layer="933" from-port="2" to-layer="936" to-port="0" />
		<edge from-layer="934" from-port="0" to-layer="935" to-port="0" />
		<edge from-layer="935" from-port="1" to-layer="936" to-port="1" />
		<edge from-layer="936" from-port="2" to-layer="944" to-port="0" />
		<edge from-layer="937" from-port="0" to-layer="938" to-port="0" />
		<edge from-layer="938" from-port="1" to-layer="944" to-port="1" />
		<edge from-layer="939" from-port="0" to-layer="940" to-port="0" />
		<edge from-layer="940" from-port="1" to-layer="944" to-port="2" />
		<edge from-layer="941" from-port="0" to-layer="942" to-port="0" />
		<edge from-layer="942" from-port="1" to-layer="944" to-port="3" />
		<edge from-layer="943" from-port="0" to-layer="944" to-port="4" />
		<edge from-layer="944" from-port="5" to-layer="954" to-port="0" />
		<edge from-layer="944" from-port="5" to-layer="951" to-port="0" />
		<edge from-layer="945" from-port="0" to-layer="946" to-port="0" />
		<edge from-layer="946" from-port="1" to-layer="953" to-port="0" />
		<edge from-layer="947" from-port="0" to-layer="948" to-port="0" />
		<edge from-layer="948" from-port="1" to-layer="952" to-port="0" />
		<edge from-layer="949" from-port="0" to-layer="950" to-port="0" />
		<edge from-layer="950" from-port="1" to-layer="951" to-port="1" />
		<edge from-layer="951" from-port="2" to-layer="952" to-port="1" />
		<edge from-layer="952" from-port="2" to-layer="953" to-port="1" />
		<edge from-layer="953" from-port="2" to-layer="954" to-port="1" />
		<edge from-layer="954" from-port="2" to-layer="957" to-port="0" />
		<edge from-layer="955" from-port="0" to-layer="956" to-port="0" />
		<edge from-layer="956" from-port="1" to-layer="957" to-port="1" />
		<edge from-layer="957" from-port="2" to-layer="958" to-port="0" />
		<edge from-layer="958" from-port="1" to-layer="965" to-port="0" />
		<edge from-layer="958" from-port="1" to-layer="960" to-port="0" />
		<edge from-layer="959" from-port="0" to-layer="964" to-port="0" />
		<edge from-layer="960" from-port="1" to-layer="961" to-port="0" />
		<edge from-layer="961" from-port="1" to-layer="962" to-port="0" />
		<edge from-layer="962" from-port="1" to-layer="964" to-port="1" />
		<edge from-layer="963" from-port="0" to-layer="964" to-port="2" />
		<edge from-layer="964" from-port="3" to-layer="965" to-port="1" />
		<edge from-layer="965" from-port="2" to-layer="966" to-port="0" />
		<edge from-layer="965" from-port="2" to-layer="977" to-port="0" />
		<edge from-layer="966" from-port="1" to-layer="967" to-port="0" />
		<edge from-layer="967" from-port="1" to-layer="972" to-port="0" />
		<edge from-layer="968" from-port="0" to-layer="972" to-port="1" />
		<edge from-layer="969" from-port="0" to-layer="972" to-port="2" />
		<edge from-layer="970" from-port="0" to-layer="972" to-port="3" />
		<edge from-layer="971" from-port="0" to-layer="972" to-port="4" />
		<edge from-layer="972" from-port="5" to-layer="973" to-port="0" />
		<edge from-layer="973" from-port="1" to-layer="976" to-port="0" />
		<edge from-layer="974" from-port="0" to-layer="975" to-port="0" />
		<edge from-layer="975" from-port="1" to-layer="976" to-port="1" />
		<edge from-layer="976" from-port="2" to-layer="977" to-port="1" />
		<edge from-layer="977" from-port="2" to-layer="980" to-port="0" />
		<edge from-layer="978" from-port="0" to-layer="979" to-port="0" />
		<edge from-layer="979" from-port="1" to-layer="980" to-port="1" />
		<edge from-layer="980" from-port="2" to-layer="982" to-port="0" />
		<edge from-layer="981" from-port="0" to-layer="982" to-port="1" />
		<edge from-layer="982" from-port="2" to-layer="983" to-port="0" />
		<edge from-layer="983" from-port="1" to-layer="984" to-port="0" />
		<edge from-layer="984" from-port="1" to-layer="985" to-port="0" />
	</edges>
	<rt_info>
		<info name="OpenVINO Runtime" value="2026.2.0-21903-52ddc073857-releases/2026/2" />
	</rt_info>
</net>
